experts/DQN/net_configs/adversary_dqn.pth (torch, 59407 bytes, 10 tensors)

net.0.weight f4 [4, 1, 3, 3]
000000 53 f1 81 3f b6 85 b3 3f ec 2c b0 3e c1 8b 01 3e
       1.0151771 1.402518 0.34409273 0.12650968
000010 20 b3 c1 bf eb b0 d7 bd 24 1b 0c bf b9 92 ae bf
       -1.513279 -0.10531791 -0.54728913 -1.3638526
000020 97 db 46 bf 41 3d bd bf f3 58 08 3f f3 16 65 3f
       -0.7767882 -1.4784318 0.53260726 0.8948814
000030 10 ce 9b 3d 4e a9 b2 be 8b 26 b3 3f 8e df 54 bf
       0.07607663 -0.34894794 1.3996137 -0.8315362
000040 41 20 96 3e a2 03 58 3f 0e 26 14 bf 41 93 6c be
       0.29321483 0.84380543 -0.57870567 -0.23103048
000050 4a d6 fe bf eb d7 89 be 03 1e 2d bd 0e f7 e2 3f
       -1.9909146 -0.26922545 -0.04226495 1.7731645
000060 4c 95 a2 bd 72 9f 3c bc 4a 5f 15 c0 2c 0c da 3b
       -0.07938632 -0.011512624 -2.333941 0.006654283
000070 74 4c 0f 3e f5 43 19 40 6a c4 3c bd 36 14 1f be
       0.13994008 2.3947728 -0.046085753 -0.15535054
000080 ec cd 08 40 e2 73 60 3f 81 41 ac 3d 00 f6 cb 3d
       2.1375685 0.87676823 0.084109314 0.0995903

net.0.bias f4 [4]
000000 3f c2 19 3d 5b ef f3 bc f9 06 39 3f a9 b0 01 3e
       0.037538763 -0.02977722 0.72276264 0.12665047

net.3.weight f4 [64, 80]
000000 aa fb 66 bf bf 21 59 bc 41 2f 20 3f 47 b6 4a 3e
       -0.9022776 -0.013252675 0.62572104 0.19796096
000010 3e 5d e5 be e2 8c 85 3e d9 a3 29 be 26 ad b2 be
       -0.447977 0.26084048 -0.16566409 -0.34897727
000020 47 46 0d 3f 6a 6a be be ea a8 7b 3f dc bc e1 3e
       0.5518536 -0.37190562 0.9830462 0.440894
000030 2c e7 4b 3d 20 23 15 be 2a b6 74 bf 12 5c 05 bf
       0.04978101 -0.1456418 -0.9559046 -0.52093613
000040 71 1f 80 3e b5 49 b8 3d d2 f7 9d 3f b8 38 db 3d
       0.25023988 0.089984335 1.2341254 0.107041776
000050 0a cb a2 be 74 fd 14 bf f3 92 f5 be 15 7d 0f be
       -0.31795532 -0.5819924 -0.47963676 -0.14012559
000060 1a a6 ee 3e 04 99 9d be 29 36 4a bf 2c f2 31 bf
       0.466111 -0.30780804 -0.7898889 -0.6951015
000070 84 af c5 3e 5d 95 32 3f e3 4d ac bc a2 42 23 3f
       0.3861047 0.6975916 -0.021033233 0.6377355
000080 e0 c4 ae bf 12 03 b5 3d 62 6f 2a 3f d5 07 76 3f
       -1.3653831 0.08838476 0.66576207 0.961057
000090 72 c3 92 bf 12 3d 60 be da f4 23 3e c8 07 bc be
       -1.1465895 -0.21898296 0.16011372 -0.36724687
0000a0 c7 2b a9 be 57 83 42 bf f9 cf d2 be a2 1e 53 bf
       -0.33041212 -0.7598166 -0.41174296 -0.82468617
0000b0 98 90 01 c0 f9 51 98 3f 70 a5 7a 3e 0f cd 92 3e
       -2.0244503 1.1900016 0.24477172 0.28672072
0000c0 1c 90 75 be 0c d9 df be fa 73 22 c0 4b 01 20 bf
       -0.23980755 -0.4372028 -2.5383286 -0.6250197
0000d0 bd 93 e1 3e 78 13 38 bf eb eb 5a 3f db 6b d9 3e
       0.44058028 -0.71904707 0.8551623 0.424651
0000e0 fa 1e 40 3f 5a eb 5b 3f 7c 48 b4 3f 28 06 03 3f
       0.75047266 0.85905993 1.408462 0.5118127
0000f0 82 31 ac bf 05 1d 09 bf 84 6a 79 3f e5 8f c2 be
       -1.3452609 -0.53559905 0.97428155 -0.38000408
000100 96 4f 61 bf 66 4b 70 bf 4c 87 39 bd e9 11 6d bf
       -0.88012064 -0.9386505 -0.045295045 -0.92605454
000110 f5 c2 95 be cb 45 54 bf 77 3b 56 be 0a 12 fb 3e
       -0.29250303 -0.82918996 -0.20921122 0.490372
000120 0b f2 22 bf 02 2d 21 3f 7b f9 54 3e 6e 48 0a 3f
       -0.6365058 0.629593 0.20798294 0.5401677
000130 06 ce 40 3f 46 3e 3e bf 75 ed 69 3f 1a ad e7 bd
       0.75314367 -0.7431377 0.91377956 -0.113123134
000140 72 b6 8a 3e 8a a4 d5 be 38 c6 2d bf 26 c4 39 be
       0.2709232 -0.41727096 -0.6788058 -0.18141231
000150 4b ba a1 be 29 2f c9 3f ef e2 8e be 19 13 1e 3f
       -0.31587443 1.5717517 -0.27907512 0.6174789
000160 5e be ce 3e a8 fd 86 3e e3 9f bc 3f 15 2a 89 3e
       0.40379614 0.263654 1.4736294 0.2678992
000170 86 30 2c be 64 b3 a5 3f c4 fc 2a bf 69 29 c3 3e
       -0.16815385 1.2945371 -0.6679194 0.3811753
000180 72 2a 2e bf 77 40 c6 be 45 85 a2 bf a7 3b 8b bf
       -0.68033516 -0.38721058 -1.2696921 -1.087758
000190 1c 58 d7 3e 63 1c 49 bf cc c5 ab 3e 41 65 b9 be
       0.4205941 -0.7855894 0.33549345 -0.36210063
0001a0 b7 42 ae bf 4a 5f 91 3f 25 7a fd 3d 81 35 38 3f
       -1.361411 1.1357205 0.12376813 0.7195664
0001b0 72 7c 15 be 31 6b ba be 33 48 de 3e 9b 57 f3 3f
       -0.14598253 -0.36409906 0.4341446 1.901111
0001c0 7e 25 3a be b2 af 89 be 22 f6 69 bf 28 b5 0f bf
       -0.18178365 -0.26891857 -0.91391194 -0.561358
0001d0 81 f3 66 3f 92 61 62 be 9b 9d e8 3e f5 a1 de 3f
       0.9021531 -0.22107533 0.45432743 1.7393175
0001e0 d0 28 9e bf 52 8e 8a bf 89 24 d9 bf a2 7c 10 bf
       -1.2356205 -1.0824683 -1.6964275 -0.56440175
0001f0 a7 46 ea be bb 8a 38 be 33 c3 2d bf dc e4 89 be
       -0.45757028 -0.18021671 -0.67875975 -0.26932418
000200 37 1b 96 bf ad c6 9e bf 17 8b 65 be 46 fd 94 bf
       -1.1727055 -1.2404381 -0.2241634 -1.1639793
000210 70 b4 06 c0 8e b4 38 bf 35 e9 f7 bf 37 8a 1f be
       -2.104763 -0.72150505 -1.9368044 -0.15580069
000220 1f f1 23 bf 92 83 89 bf 84 e0 1f be 72 47 df bf
       -0.64039797 -1.0743277 -0.1561299 -1.7443678
000230 02 a6 b9 3e 6d 4b 51 3f dc 70 fa be b4 ff 20 bf
       0.36259466 0.81755716 -0.4891423 -0.6289017
000240 a8 d0 0f 3f e8 03 ed be 8c a6 27 bf 4c c8 9a 3e
       0.5617776 -0.46292043 -0.65488505 0.3023094
000250 25 60 fc bd a9 35 d5 bf 7c ad 16 bf 23 f0 06 bf
       -0.123230256 -1.6657001 -0.58858466 -0.5271017
000260 e3 dd 31 be e3 cc bc 3e 2b 55 1b bf 91 58 ab bf
       -0.173698 0.36875066 -0.6067683 -1.3386403
000270 26 37 79 3f a2 24 8f bf 96 cb 8a be 5c 09 6b 3f
       0.97349775 -1.1183054 -0.2710845 0.91811156
000280 0a 60 07 bd 28 7c fb be 29 32 0d 40 6e 40 96 3f
       -0.033050574 -0.4911816 2.2061865 1.1738412
000290 20 c4 87 be 3b 4b c1 3e d6 91 41 bf 27 c9 04 3f
       -0.2651682 0.3775271 -0.75613153 0.51869434
0002a0 60 d0 f6 3d f6 4c 98 bd 6f c9 e5 3e 01 a5 27 3f
       0.12051463 -0.07436554 0.44880244 0.6548615
0002b0 6b 05 d3 bd eb 45 e6 3c 40 14 5b bf 53 15 fb 3e
       -0.10303768 0.028109511 -0.85577774 0.49039707
0002c0 33 52 dc 3e e8 9b fe 3e c7 0a 25 bf 63 1b 54 bd
       0.43031463 0.49728322 -0.6446957 -0.05178393
0002d0 19 f4 41 bf 84 74 79 3e 95 dd a1 be d0 c4 3a 3e
       -0.7576309 0.24360853 -0.31614366 0.1823914
0002e0 01 81 fd bd 99 b0 c7 3f fb 54 b2 bf 90 68 e6 3e
       -0.12378121 1.5600768 -1.3932184 0.4500165
0002f0 03 ce a5 3f 94 00 7b 3f 8a 23 42 3e dc 45 41 3e
       1.2953495 0.9804776 0.1895887 0.18874305
000300 73 90 79 3d df fe 17 3e bc 4e 13 bd 90 a6 24 3d
       0.060928773 0.1484332 -0.03596376 0.04019791
000310 6e 6f 8c be 14 de 89 bf be 3d 14 be 8a a5 6c 3e
       -0.27428764 -1.0770898 -0.14476678 0.23110023
000320 22 48 b7 bf ca f0 08 3f 8a 99 63 3f 0e ba d0 3d
       -1.4318888 0.53492415 0.88906157 0.10191737
000330 57 95 de bf b6 9e 99 bf 96 af 10 3f f5 a0 9a 3f
       -1.7389325 -1.200156 0.5651792 1.208037
000340 87 e4 cd be 6a ab 62 3f 75 08 c4 bf fa 6c 46 bc
       -0.40213415 0.8854281 -1.5315081 -0.012110943
000350 e5 41 df 3e 56 8c 41 3f a6 44 ee bf 04 39 86 bf
       0.4360496 0.7560476 -1.86147 -1.048615
000360 5d 04 d0 be 54 94 97 be 73 ff 70 bf 65 26 c1 3f
       -0.4062833 -0.29605353 -0.94139785 1.5089842
000370 40 b9 89 bf be 89 4d bf 76 22 14 3e 61 99 a0 bf
       -1.0759659 -0.802883 0.14466271 -1.2546808
000380 79 d8 02 bf 01 8e d9 be 4e c9 e7 be 60 bc 5a bf
       -0.5111156 -0.42491153 -0.4527077 -0.8544369
000390 7c d0 8e 3f 65 0e be be 84 bf 71 3f f6 78 aa be
       1.1157374 -0.37120357 0.94432855 -0.3329541
0003a0 a9 6e 29 bf cd 61 22 3f 50 ff 19 bf ae e6 26 3e
       -0.6618448 0.6343048 -0.601552 0.16298935
0003b0 0f 6a b1 3e f5 e1 63 3f 9b b4 d0 be 79 a8 2b 3f
       0.3465123 0.8901666 -0.4076279 0.67053944
0003c0 05 df 57 3f ee 9c 63 3f 9f e3 e6 be 99 3d d6 3e
       0.84324676 0.8891133 -0.45095536 0.4184387
0003d0 65 c8 cd 3f a8 62 28 be fd 72 e3 3e 5d 6e 54 bd
       1.607678 -0.16443884 0.44423667 -0.051863063
0003e0 81 0d 98 3e cb 4a 77 bf 6d 2d 19 3f 7c fb 9f 3f
       0.29697803 -0.965985 0.5983494 1.2498622
0003f0 22 f4 5e 3f 43 3b 14 3f 33 fc 0c 3f f6 54 8b be
       0.8709127 0.57902926 0.55072325 -0.27213258

net.3.bias f4 [64]
000000 28 0c 74 bf ae 9c 83 bf d0 5d af be 21 53 0e bf
       -0.9533105 -1.028219 -0.3425126 -0.55595595
000010 86 4e 87 be 59 06 89 bf 7d 6f 63 bf 97 1f 87 be
       -0.26427096 -1.0705062 -0.8884199 -0.2639129
000020 66 5e 95 bf 0f b7 2e bf 38 7e 1a bf c0 07 8d be
       -1.1669433 -0.68248075 -0.60348845 -0.27544975
000030 b5 2b a8 be 38 03 ab be 6d 5b 1e bf 8e a1 31 bd
       -0.32845846 -0.33400893 -0.61858255 -0.04336696
000040 1d a7 2f bf ef e8 d5 be b1 6f 11 bf e6 2b d3 be
       -0.6861437 -0.41779277 -0.5681105 -0.4124443
000050 77 b9 5a bf 67 3d 11 3d a0 ba 22 bf 3c 6e a7 be
       -0.85439247 0.03545895 -0.6356602 -0.3270129
000060 55 83 f0 be 0a ab e1 be ca 0c 8b bf c4 22 66 bf
       -0.46975198 -0.44075805 -1.0863278 -0.898968
000070 6e 12 65 bf 52 20 d1 3e bd b6 65 be d9 c7 6a bf
       -0.89481246 0.4084497 -0.2243299 -0.91711193
000080 0b 03 7a be 3b 30 11 bf d5 6c c3 be 6b fc 0d bf
       -0.24415223 -0.5671422 -0.3816897 -0.55463284
000090 4e 9c 0d bf 0d 69 08 bf 56 9c e9 be ac 12 dd be
       -0.5531663 -0.53285295 -0.45627087 -0.43178308
0000a0 bf bd a1 bf c5 89 50 be df 9c 0b bf fe 89 9c be
       -1.2636031 -0.20365055 -0.5453624 -0.3057403
0000b0 3a 5a 85 bf cf 4f a5 bd 78 37 a5 bf f1 8d 44 bf
       -1.041816 -0.08071863 -1.2907553 -0.76779085
0000c0 c1 27 50 bf 54 8e ae be f3 2a 44 bf ac ef 35 bf
       -0.8131066 -0.34092963 -0.76628035 -0.71068835
0000d0 2c df 5d be 8e e3 97 be 03 83 d7 be a7 6f 38 bf
       -0.21667165 -0.29665798 -0.42092142 -0.7204537
0000e0 f1 d8 75 bf c7 fc a4 be 2b 47 81 bd 60 e0 32 bf
       -0.9603415 -0.32224104 -0.06312402 -0.6987362
0000f0 94 70 7a be 95 bf 2e be 8a 35 b2 be 21 47 49 bf
       -0.24457008 -0.1706527 -0.34806472 -0.7862416

net.5.weight f4 [64, 64]
000000 62 b5 2c 3e 3c dd 57 3f 43 05 97 bf a3 af 8f 3f
       0.16866067 0.8432195 -1.1798481 1.1225475
000010 b5 8c d6 be ba 81 a4 bd 32 df e3 bc c5 8b 4f 3f
       -0.41904226 -0.08032556 -0.027816389 0.81072646
000020 16 0d 97 bf a7 a4 20 be a5 b9 69 3d f1 22 2e 3e
       -1.1800869 -0.1568781 0.05706181 0.17005517
000030 d9 73 5a 3f 0f ea ad bd 62 4e fe 3a 17 b7 d4 3e
       0.8533302 -0.08491909 0.0019402022 0.41545936
000040 de 35 d2 bf c7 cf db bf 3b c8 8a be 59 81 ff be
       -1.6422689 -1.7172784 -0.2710589 -0.49903372
000050 eb 5f f4 bc f2 25 dc be 20 78 64 3d 24 4c 98 3f
       -0.029830894 -0.429977 0.055778623 1.1898236
000060 9b a7 2f 3f b4 16 a6 3f cd e5 c2 3f 6e 43 b4 bf
       0.6861512 1.2975678 1.522638 -1.4083078
000070 9d 1e fa bf 7e 74 e0 3f 1d 69 b9 3e 05 a9 55 be
       -1.9540592 1.753555 0.36213008 -0.20865257
000080 ba f8 31 3e 63 2f 1d c0 f5 37 4e bf 2e ed b8 bf
       0.17380038 -2.4560173 -0.80554134 -1.4447381
000090 89 77 85 3f 3d 6b 80 3f c5 d9 2a bf bf 12 f7 bd
       1.0427104 1.0032727 -0.6673854 -0.120641224
0000a0 15 e4 ff 3d 77 a2 d3 3f 69 56 17 bf 8c 22 65 3f
       0.12494675 1.6533955 -0.59116226 0.8950584
0000b0 b0 c9 cf 3e 1a 76 35 bf bb 0a 08 be c1 25 8d be
       0.40583563 -0.70883334 -0.13285343 -0.27567866
0000c0 2a 68 48 3e ad 83 6b 3f e3 11 e6 3e d1 ae 85 3f
       0.19570985 0.91997796 0.4493552 1.0443975
0000d0 d0 da 3b 3e 22 20 0d bf 24 83 40 bf e4 d5 31 bd
       0.18345189 -0.55127156 -0.75200105 -0.043416873
0000e0 e9 99 06 3f 0b 38 79 3d 3a bb 7b bf 3b c7 22 be
       0.525786 0.060844462 -0.9833256 -0.15896313
0000f0 21 08 30 bf 2c 1d be 3e 47 4d 3c 3e 8d 3f 94 3e
       -0.68762404 0.3713163 0.18388854 0.28954735
000100 18 bc bf 3e 2d d1 92 bf bf 53 08 3f d4 1c 3e 3f
       0.37448192 -1.1470085 0.53252786 0.7426274
000110 3c 02 1a 3e 78 44 ba be b5 72 f4 bd 5d de 58 bf
       0.15039915 -0.36380363 -0.11935941 -0.847143
000120 74 2b 1b bf ab 7a 47 3f 8a cf 33 bf 1d 43 b4 3e
       -0.6061318 0.7792155 -0.70238554 0.35207453
000130 3e 68 38 c0 aa b0 2f 3f d1 26 74 3e 09 b2 36 3f
       -2.8813624 0.6862894 0.23842932 0.7136541
000140 6c b2 50 be 77 40 84 be 8f 0c 0d c0 12 1d 21 3e
       -0.20380563 -0.25830433 -2.2038915 0.15733746
000150 8e bf 19 bf 18 10 74 3f 19 9c 35 bf f5 1d 01 3f
       -0.60057914 0.9533706 -0.7094131 0.50436336
000160 55 eb 0f 3f 55 67 1f c0 72 1d 5d bf 4d a0 73 3e
       0.56218463 -2.490682 -0.86373055 0.23791619
000170 ac 20 0a bd b7 04 0b 3f 8d 85 c8 3f 29 aa 8c bf
       -0.033722565 0.5430407 1.5665756 -1.0989429
000180 9b ba 2e bf 8c 2c d5 bf cb 07 60 be f7 73 07 bf
       -0.6825349 -1.665422 -0.21877973 -0.52911323
000190 a1 17 5d 3e d7 ef 96 3d 25 2d 4f 3f 42 ae 82 3d
       0.21591045 0.073699646 0.8092826 0.06380893
0001a0 f0 46 8f bf b4 68 6f bf d7 b8 0e bf 6a c5 f5 be
       -1.1193523 -0.9351914 -0.55750793 -0.48002177
0001b0 20 6e 7d bf d3 30 ab be 03 20 a5 3e cf 3b cf bd
       -0.9899616 -0.33435687 0.32250986 -0.101188295
0001c0 43 cb cc 3e ea 52 d4 3d 8e cb 8c 3f ed f9 19 3f
       0.39998826 0.10367377 1.099962 0.6014698
0001d0 4c cc 05 3e 47 7c 08 3f f0 90 ef bf b8 67 35 be
       0.13066214 0.5331463 -1.8716106 -0.17715347
0001e0 36 16 94 be 0d ce 1f be 24 85 53 bf 07 c7 53 3e
       -0.28923196 -0.15605946 -0.8262503 0.20681392
0001f0 64 fa 32 3f 90 d1 78 bf 23 b3 53 bf e2 27 f4 bf
       0.69913316 -0.97194767 -0.82695216 -1.9074671
000200 d0 aa d9 bf 1a d6 f2 3e 5c 0f 1b bf 1e 2e 89 3c
       -1.7005253 0.47428972 -0.6057031 0.016745623
000210 e4 0c 6c 3f 18 9b 1c 3f e5 cf 1d c0 b3 f7 2f bf
       0.9220717 0.61174154 -2.4658139 -0.68737334
000220 84 fd 80 3f 9d fa c5 be 64 69 da be d5 08 ab be
       1.0077367 -0.38667765 -0.42658532 -0.33405176
000230 39 dd 4c 3e c7 1f a6 bf b6 6b fa bf 84 fd 33 3d
       0.20006265 -1.2978448 -1.9564121 0.043942943
000240 dc ba 02 bd ee d3 9a be 2a 9d 66 3f bc 0d 08 3e
       -0.031916484 -0.30239815 0.90083563 0.13286489
000250 32 e8 a3 3f 59 bb e2 3e 0b c5 50 3f 25 a8 12 3e
       1.2805235 0.4428356 0.81550664 0.14321955
000260 0f 8c 6f 3f 43 ac bf 3e cb b5 25 3e b0 25 00 c0
       0.9357309 0.37436113 0.1618263 -2.0023003
000270 84 5e 94 bf 99 1f 7f 3f 2d 8f 8b be 18 44 d3 be
       -1.1591344 0.9965759 -0.27257672 -0.4126289
000280 bf 5c 9b be a3 7a 3a bf 73 ec 2e 3f b4 2b ec 3e
       -0.30344197 -0.7284338 0.6832954 0.46127093
000290 bc d7 32 3e bf a8 57 3f 80 8a 86 bf 64 7d 6d bf
       0.17465109 0.8424186 -1.0511017 -0.92769456
0002a0 00 65 9d bf 12 a6 24 bd 35 3e 01 bf f1 f8 0c 3f
       -1.2296448 -0.04019744 -0.50485545 0.55067354
0002b0 a2 07 9a 3e 08 b0 cd 3e 27 13 ee 3e d0 39 66 3f
       0.30083948 0.40173364 0.46498987 0.89931965
0002c0 c5 99 8e bf 58 52 12 bf 05 46 4a 3f f5 20 4d 3f
       -1.1140677 -0.57156897 0.7901309 0.80128413
0002d0 d1 d2 4a 3f d4 fc c7 bf cd 4f 31 3f 99 30 c8 bd
       0.7922793 -1.5624032 0.6926239 -0.09774894
0002e0 09 81 66 be 9f df 97 be 98 aa dc be a3 8d 83 be
       -0.2251016 -0.29662797 -0.43098903 -0.25693998
0002f0 91 b8 9d be fc ae 6d bf 50 ae 30 3e 8b 36 c1 3e
       -0.30804875 -0.9284513 0.17253995 0.37736925
000300 3e 20 3f be 7c 35 9b 3f 7d 53 02 3f 73 43 24 bf
       -0.18664643 1.2125697 0.50908643 -0.6416542
000310 e8 2f 00 3f c1 5b ab 3e 3a 8a 5b 3e 38 1e bc 3f
       0.500731 0.3346844 0.21439448 1.4696722
000320 da ec 89 3f ac d8 12 c0 f8 91 61 bf 9f f5 9b bf
       1.0775406 -2.2944746 -0.88113356 -1.2184333
000330 a3 f9 48 c0 87 7e cb 3e 83 22 dd be 04 61 1c bf
       -3.1402366 0.3974497 -0.43190393 -0.61085534
000340 af 3b e7 3e b2 06 c7 be bb 73 85 be 0a 69 03 3f
       0.45162722 -0.38872296 -0.26064858 0.5133215
000350 de c6 cc be 91 b4 9a bf 7a 35 83 be ec 31 57 3f
       -0.39995474 -1.2086354 -0.25626737 0.8406055
000360 c9 b0 d6 bf dc fb 4e 3e 4d a5 83 bf 4a f2 80 be
       -1.67727 0.20213264 -1.0284821 -0.25184852
000370 69 4e 54 3f 3e 0f 6d be db 92 a0 3f ae a2 88 be
       0.82932144 -0.23150346 1.2544817 -0.26686615
000380 8c 0f 48 3f b1 a1 58 3f e8 64 21 be 09 ad 80 bd
       0.7814872 0.8462172 -0.15761149 -0.06283004
000390 3c ed d1 3d 44 80 53 be 16 55 34 3f b1 04 5b c0
       0.10250327 -0.20654398 0.7044233 -3.4221613
0003a0 07 9c a1 3e 95 80 b7 bf d1 d6 2c be bd 83 37 3f
       0.31564352 -1.4336115 -0.16878821 0.7168539
0003b0 2f b2 19 bf b2 ae 73 3d c4 8f a4 bd 8f 7e 41 bf
       -0.6003751 0.059492774 -0.080352336 -0.7558374
0003c0 83 ff ad bf 74 6d 1d 3f a5 1b e8 be 5c 57 0c be
       -1.3593601 0.6149514 -0.4533359 -0.137052
0003d0 b2 11 18 be b8 cb fc be 0d 74 fe bf 8f a4 fa be
       -0.148505 -0.49374175 -1.9879166 -0.48953673
0003e0 b4 e4 bb be 87 88 bd bf f0 43 41 3e b9 c5 0f 3f
       -0.36697924 -1.480729 0.18873572 0.56161076
0003f0 42 b4 d9 bd e8 47 e0 3d bc 3b 2d 3f ca de 1f 3f
       -0.106300846 0.10951215 0.6766927 0.62449324

net.5.bias f4 [64]
000000 71 2f 1d c0 c0 c6 9a be 59 ba a5 be ea dc fd 3e
       -2.4560206 -0.3022976 -0.32368734 0.49582607
000010 f8 a4 82 be 63 8d ec 3e 15 d7 b1 3e 8b c0 ca bf
       -0.25516486 0.4620162 0.34734407 -1.584001
000020 79 be 0d 3f 26 c1 54 3f 91 b1 a7 be c1 54 23 3e
       0.55368763 0.8310722 -0.3275266 0.159503
000030 d1 d7 88 3f 69 eb 64 be 3b 0e 23 bf 70 a6 63 bf
       1.0690862 -0.22355427 -0.6369359 -0.8892584
000040 66 ae 2a bf cf 2f 0e c0 13 f3 68 bf ba 7b 2b 3e
       -0.6667236 -2.221668 -0.909959 0.16746417
000050 6a 36 f5 bf be 24 49 3e 9d 62 bd be bb f1 0b 3f
       -1.9157231 0.19642922 -0.36989298 0.54665726
000060 07 95 d8 be d0 82 ff bf 9c 77 6d bf 97 3a a1 bf
       -0.423012 -1.9961796 -0.92760634 -1.2596005
000070 42 1d f1 bd 8d ea d0 bf dc 5f 1f c0 5b 1a 0b be
       -0.117731586 -1.6321579 -2.4902258 -0.13584273
000080 b0 4b 51 bf ec 7b 01 c0 0d 3c 8a bf 97 3e 39 3e
       -0.81756115 -2.0231886 -1.0799576 0.18090282
000090 5d 73 cb bf ca a7 97 bf cc 73 01 c0 91 d9 b7 be
       -1.5894581 -1.184808 -2.0226927 -0.35908177
0000a0 71 a7 0c 3e d2 67 82 bf 7d a9 0b 3f 75 62 ef bf
       0.13735749 -1.0187933 0.54555494 -1.8701922
0000b0 89 ca 4d bf 59 a8 64 3f 9a ca 17 bf a3 b3 10 c0
       -0.8038717 0.8931938 -0.5929352 -2.2609642
0000c0 10 fa af bf 4e e7 52 be 9c 17 8a bf 60 3c ef 3e
       -1.3748188 -0.20596048 -1.0788455 0.4672575
0000d0 98 7d c5 bf 18 83 ac bf 01 14 d6 be 54 75 a4 bf
       -1.5428953 -1.3477507 -0.41812137 -1.2848306
0000e0 99 c3 34 bf c6 04 23 3f 53 14 4c 3e 5f 02 a6 bd
       -0.7061096 0.6367916 0.19929628 -0.08105921
0000f0 ce 7f cd bf 52 ee fc be 26 b3 16 3f ec cb 62 bf
       -1.6054628 -0.49400574 0.5886711 -0.8859241

net.7.weight f4 [64, 64]
000000 be a6 33 be 8c ad 53 3e 9a ea 32 bf ab 8a c7 3e
       -0.17544076 0.20671672 -0.69889224 0.38972983
000010 a3 a2 23 bf 3c e4 87 3f 3d d0 e1 3e b5 0e c1 bf
       -0.6392004 1.0616527 0.44104186 -1.5082613
000020 5c 6a ab 3d 79 f0 a0 3f b2 c0 1e 3f 3b 68 8a bf
       0.08369896 1.2573386 0.6201278 -1.0813059
000030 20 01 a3 3f 8e 56 67 3e bd ed 8a 3f a4 38 86 3e
       1.2734718 0.22591612 1.0853802 0.26215088
000040 76 9d ed 3e 68 cf 8e be 00 44 87 3e fd e5 c9 3c
       0.46409196 -0.27892613 0.26419067 0.0246458
000050 5b ff 0b 3f c8 ad 2a 3c 27 44 1d 3f 24 00 9a 3e
       0.54686517 0.010417409 0.6143212 0.30078232
000060 49 2a 8a bf 7b 09 86 bf 2c 23 e9 bf 82 38 48 bf
       -1.0794154 -1.0471643 -1.8213859 -0.78211224
000070 5d 0e 6f 3f 88 36 e2 be 65 d1 82 bf c8 26 0e 3f
       0.9338129 -0.4418223 -1.0220152 0.55527925
000080 13 15 c4 be 22 e8 5c 3e a1 b9 d6 be b7 48 c4 be
       -0.38297328 0.21572927 -0.419385 -0.38336727
000090 78 5e e9 bf f8 c9 2a bf ae f3 42 be 5e 5c 52 bf
       -1.8231955 -0.6671443 -0.19038269 -0.8217219
0000a0 6a 7e a5 bd ed 0d 87 3e ff f5 06 3e ba 91 aa 3d
       -0.08080752 0.26377812 0.13179778 0.083285764
0000b0 28 26 a7 3f 60 7c b2 3e 5f 8e f4 bf b3 08 94 bf
       1.3058519 0.34860516 -1.9105948 -1.1565155
0000c0 0e e1 da 3d 9a 6f 16 3e b9 a4 2a 3f 99 d5 a6 bd
       0.10687457 0.1469101 0.66657597 -0.08146209
0000d0 24 69 b8 3d af 54 c7 3e b3 af b0 be 72 54 32 bf
       0.09004429 0.38931796 -0.34509048 -0.69660103
0000e0 33 a8 e8 be e5 97 bc be ad 14 13 3f 98 61 51 3f
       -0.45440826 -0.36834636 0.57453424 0.8178954
0000f0 28 5d 09 bf 87 d3 be 3d c9 46 01 c0 86 50 0e be
       -0.5365777 0.093176894 -2.0199454 -0.13897905
000100 6a 7e 93 3c 16 9d b1 bf 34 e6 9e be 8c 2f 30 bf
       0.018004615 -1.3876064 -0.31035006 -0.6882255
000110 b2 e4 8c 3d 7b 37 a1 3c 14 5f 3b bf b0 f3 30 bf
       0.06879558 0.019679775 -0.7319195 -0.6912184
000120 44 77 a4 3f fb 9e 1d 3f 0d eb 0c 3f ba 37 3b 3f
       1.2848897 0.6157071 0.5504616 0.73131907
000130 c2 20 9f bf 87 9e 3d 3d 60 5f c0 bf 8a f1 ac 3d
       -1.2431872 0.04629376 -1.5029106 0.084445074
000140 4c d2 fb bc d6 53 9e be f4 94 fe be 39 85 6a be
       -0.030739926 -0.30923337 -0.49723017 -0.22902383
000150 a2 00 41 bf c1 97 0b 3f 56 2e f0 be 9c aa 95 bb
       -0.7539159 0.54528433 -0.46910352 -0.0045674574
000160 83 82 52 3e 31 a6 84 bd 0f c7 f0 be 41 e7 83 be
       0.20557599 -0.06477011 -0.4702687 -0.2576237
000170 50 7f 22 bf c4 78 d0 bf ef c2 92 bf 16 a0 1c 3f
       -0.63475513 -1.6286855 -1.1465739 0.6118177
000180 3b 65 a1 bf 4d 86 36 bf c8 9c 31 bf 0e c8 66 3f
       -1.2609018 -0.71298677 -0.69379854 0.9014901
000190 ab 08 1f 3f 5e bd 4b 3f 92 a9 3b be fd 3e cc 3e
       0.621226 0.79585826 -0.18326405 0.39891806
0001a0 4e d0 3c bf a1 d3 3f 3e 1b d3 a8 3d 5e 12 de bf
       -0.7375535 0.18733074 0.0824339 -1.7349355
0001b0 73 e0 cc 3d 31 f7 9e be e5 bd 4b bf 7f 3a 68 be
       0.10003748 -0.31047967 -0.7958663 -0.22678564
0001c0 9d 65 ce be ea fe b4 3f 2a d4 db be 84 bf db bd
       -0.403119 1.4140294 -0.42935306 -0.10729888
0001d0 c7 23 e3 be 79 19 ef 3f e7 5c 06 be 08 1a 87 bf
       -0.44363233 1.8679649 -0.13121377 -1.0554819
0001e0 91 43 f7 bd ac bb 18 be 9b 4d 1c c0 00 71 ec bf
       -0.12073434 -0.14915341 -2.4422367 -1.8471985
0001f0 6d 64 4a 3e a7 ca 1d bf 3f 63 a5 bd 3f 12 37 3e
       0.19764872 -0.6163735 -0.0807557 0.17878054
000200 f6 47 b8 bf 2f ed 38 bf 2f ef 06 3f 65 a4 c9 bf
       -1.4396961 -0.72236913 0.52708715 -1.5753294
000210 9c 93 00 be 7c bc 9f 3f 3f 3c 18 3f 5c 72 0c 3f
       -0.12556309 1.2479396 0.5946693 0.54862
000220 6e 3d 3d bf ee b9 0f c0 0e 6f 0b bd 55 ba cd be
       -0.7392186 -2.2457232 -0.034041457 -0.40181223
000230 92 81 bb be e4 09 40 bf e4 2a cf 3f 66 ed 66 bf
       -0.36622292 -0.7501509 1.6184964 -0.9020599
000240 95 7d 1d be c3 89 07 bf 8a 14 a0 be 5c 7f 5e be
       -0.15379937 -0.5294458 -0.3126567 -0.21728271
000250 a8 42 67 be df d9 ec 3d 22 96 a9 be c0 2a a0 3f
       -0.22584021 0.11564993 -0.33122355 1.2513046
000260 e3 33 4c 3e ad f4 09 bf 8a ab 81 bf 52 41 19 3f
       0.19941668 -0.5388897 -1.0130475 0.59865296
000270 64 ce ba 3f 29 d9 37 3f e6 2a 2e 3d 90 fc 19 c0
       1.4594235 0.71815735 0.04252138 -2.4060402
000280 f7 11 20 3f af 7f e7 be 80 28 e8 be e5 94 0f c0
       0.6252741 -0.45214602 -0.453434 -2.2434628
000290 5f 7d 14 c0 bb ff 83 bf 47 e3 03 3f 75 1b 37 3f
       -2.320152 -1.0312418 0.5151867 0.7152627
0002a0 4d af 62 3e e9 4e 31 3f a0 b9 92 3e 46 47 51 3b
       0.22137184 0.6926103 0.28657246 0.0031933351
0002b0 0d 81 15 3f 87 26 25 3d 43 04 ac bf ad 94 25 3f
       0.5840004 0.040319946 -1.34388 0.64679986
0002c0 3f 44 49 bf b4 f6 07 3e a1 d9 9f 3c 88 54 14 3f
       -0.7861976 0.13277704 0.019512953 0.57941484
0002d0 6c c7 84 3f e8 db 88 3e 64 4d d3 be fe 71 3e bf
       1.0373359 0.26730275 -0.41269982 -0.7439269
0002e0 fc c0 03 3e ec fc 3e bf 38 71 8b bf 21 1d 5e bd
       0.12866586 -0.7460468 -1.0893927 -0.054227
0002f0 43 59 ff bd 94 f8 16 c0 72 b6 0d 3f f3 24 8c bf
       -0.12468197 -2.358922 0.55356514 -1.0948776
000300 b7 ef c1 3e 2a 73 54 bf d6 6f 2b bf 4c 74 dd be
       0.378782 -0.82988226 -0.66967523 -0.4325279
000310 2e 6e de bd 69 5d fe 3e 00 cf 0c 3f f6 98 30 bf
       -0.10860859 0.4968064 0.55003357 -0.689834
000320 ce 3b 10 bf 7c 22 30 3f 94 b5 3b 3f 13 08 a5 bf
       -0.56341255 0.6880262 0.7332394 -1.2893089
000330 c4 63 2e 3f 0f 0b 5b bf 5c 79 8c 3e 6e 3b 99 3e
       0.6812098 -0.8556375 0.2743634 0.29928154
000340 b6 68 83 bf a7 cd d8 bf 6b 78 90 3e b4 fa 3d bf
       -1.026633 -1.693776 0.28216872 -0.7421067
000350 5c c0 53 bf de 91 c2 3e 80 59 1c be 8c 98 6b 3e
       -0.8271539 0.38001913 -0.15268517 0.23007411
000360 d3 3d 26 3f 0d 2e a1 bf 3c 5f 88 bf d1 eb 9e 3f
       0.64938086 -1.2592179 -1.0654063 1.2415715
000370 c1 13 05 3f 7b 01 5d c0 5a 6b 81 3e 9a 9d 14 bf
       0.5198327 -3.4532154 0.25277215 -0.5805298
000380 95 37 f5 3e 61 5f 08 be d8 f6 fa bd ad 58 47 bf
       0.47893968 -0.13317634 -0.12254113 -0.77869684
000390 31 26 d6 be d8 c8 82 bf f6 e1 f8 be a3 70 86 bf
       -0.41826013 -1.0217543 -0.48609895 -1.0503124
0003a0 02 e7 4a bf 31 8b 9c bf 20 6c fd 3d 88 95 74 3e
       -0.7925874 -1.2229978 0.12374139 0.23885167
0003b0 7c 5d 0a 3f 57 8b e1 3e 52 e1 7b 3d 3e 09 a3 bf
       0.54048896 0.4405162 0.06149418 -1.2737195
0003c0 25 a1 c0 bf e2 df ff be f5 14 8b 3e be ac b9 3e
       -1.5049177 -0.49975497 0.27164426 0.36264604
0003d0 1c 03 89 3f e9 6e 19 bf e0 f8 9b be 72 d8 d7 3e
       1.0704074 -0.5993486 -0.30463314 0.42157322
0003e0 5f f1 ce be dd 7d 94 3f bf b3 d1 bf f3 ee 49 be
       -0.40418527 1.160091 -1.6382979 -0.19720058
0003f0 27 44 70 bf 17 38 aa be c3 b3 f9 bb 99 94 5a bf
       -0.9385399 -0.33245918 -0.007620306 -0.8538299

net.7.bias f4 [64]
000000 a5 45 a5 3f b2 ab 1e c0 55 06 b0 be 44 6b f9 3d
       1.2911879 -2.4792295 -0.3437983 0.121786624
000010 db a0 d3 bf 8e 8f cb bf d0 b9 1d c0 61 c4 6c be
       -1.6533464 -1.5903184 -2.464466 -0.23121788
000020 53 ff 10 be e4 e0 97 3f 45 ad 4d 3f 70 0e 35 bf
       -0.14159898 1.1865506 0.80342513 -0.70725155
000030 2d 60 5b 40 7c 40 93 bf f0 99 a0 be 41 30 2e 3f
       3.427745 -1.1504054 -0.31367445 0.6804238
000040 19 ff cb 3e f0 65 b0 bf d5 00 03 bf 2d bd a9 bf
       0.39843062 -1.3781109 -0.51173145 -1.3260857
000050 ae b0 1e 3d 37 f9 7a 3d b0 34 47 be bf 1c e6 bf
       0.038742714 0.061272826 -0.19453692 -1.7977523
000060 02 f6 05 c0 56 7d b5 bf 3c a0 4c bf 70 2a 9d bf
       -2.0931401 -1.4178874 -0.79932 -1.2278576
000070 d7 e9 1e bd b0 e6 84 bf 58 29 fe bf 3f db 80 be
       -0.038797226 -1.03829 -1.9856367 -0.25167271
000080 2d 3d 9d ba 2f 1e b6 bf 3b d0 0c c0 8a 2d c5 bf
       -0.0011996381 -1.4227961 -2.2002094 -1.5404522
000090 4d 0c ba bf b7 4e 4e be e2 6a 2c 3f f9 ce 5a bf
       -1.4535004 -0.20147215 0.6735059 -0.85472065
0000a0 0c cc 45 bf 13 a3 06 c0 8e 23 59 3f cd 6b 6d bf
       -0.77264476 -2.1037033 0.8481988 -0.92742616
0000b0 cd f4 03 bf b1 27 67 bf 63 ce 3f bf 3b 4c c7 3f
       -0.5154541 -0.9029494 -0.74924296 1.5570139
0000c0 49 a8 19 3d 17 5f dd 3f 9b 09 f7 3d 1b d9 8f 3e
       0.037514005 1.7294644 0.12062379 0.28095326
0000d0 d6 8a a2 3e a1 31 0b bf 04 80 a5 bf ff 1e 92 3f
       0.31746548 -0.543726 -1.2929692 1.1415709
0000e0 78 c4 8a bf 7f 4f ff bf 54 53 3d 3e db 3c 94 bf
       -1.0841208 -1.9946135 0.18488818 -1.1581072
0000f0 4a c2 c7 bf 1f 0f 08 c0 f3 98 b0 bf 78 16 84 bd
       -1.5606167 -2.125923 -1.3796676 -0.06449598

net.9.weight f4 [7, 64]
000000 38 2e 54 bd 3b ea 19 be cd e4 49 3f f5 fd 9d c0
       -0.05180189 -0.15030758 0.7886475 -4.9372506
000010 d0 e3 a8 3e 7b a7 14 3f 42 43 26 3f c9 28 44 bf
       0.32986307 0.58068055 0.6494638 -0.76624733
000020 12 04 08 c0 25 d2 69 bf 7e 15 e2 be 70 95 16 be
       -2.1252484 -0.9133628 -0.44157022 -0.14705443
000030 69 78 d3 3e 7a 01 42 3f 14 2e 04 bf 95 b2 11 3f
       0.41302803 0.75783503 -0.5163281 0.5691312
000040 4a 43 ad bf cd 1b 4e 3e 46 0b 89 3e b0 61 03 3f
       -1.353616 0.20127793 0.26766413 0.51320934
000050 a8 1b 4f bf 70 b6 5a bf 54 2d 80 bf 50 61 a4 be
       -0.80901575 -0.8543463 -1.0013833 -0.32105494
000060 7e 37 d6 3e 23 4c 9b bd 95 97 db 3e ec 6c 67 3f
       0.41839212 -0.07582881 0.42889085 0.90400577
000070 be 4f 04 bf ad 29 9d be 33 4a e1 be f0 46 d8 bf
       -0.51684177 -0.3069586 -0.44001922 -1.6896648
000080 37 39 dc be 02 3d 6a 3f 7c 5d 02 3f d2 0c 03 3f
       -0.430124 0.9149934 0.50923896 0.5119144
000090 a8 d2 53 be cc 98 c8 3e 0c 1d 02 bf 3a 56 05 3e
       -0.20685828 0.39179075 -0.5082557 0.13021174
0000a0 7c ff e2 bd 7c 60 2a 3f 99 f9 cb be 7b 76 99 3e
       -0.11083886 0.66553473 -0.39838865 0.29973206
0000b0 a4 7c e2 bd 1a ee d3 3e 48 16 d7 bf 61 71 b2 be
       -0.110589296 0.41392595 -1.6803675 -0.34852126
0000c0 8a 12 62 3d a7 93 0b bf 99 f4 fe be 6d 41 27 be
       0.05519346 -0.54522175 -0.49795988 -0.16333552
0000d0 de 6e 13 bf cf 89 2c 3e f0 53 dc 3d 15 f8 8c bf
       -0.57591045 0.16849445 0.10758197 -1.1013209
0000e0 96 13 75 3f 0b 3e 70 3e 14 56 0f bf e0 59 a4 3f
       0.9573301 0.23461168 -0.5599072 1.2839928
0000f0 7d ed fe 3e 53 72 0a bf 4a 5a 1f 3f ad 4b 40 3f
       0.49790564 -0.54080695 0.62247145 0.7511547
000100 a4 a5 17 bf 97 0f 05 bf 20 a2 41 3f 8b 62 7d 3f
       -0.5923712 -0.51976913 0.7563801 0.9897849
000110 c9 3c 3b 3e 89 07 27 3e 3e e7 e0 3e 3a d6 44 3d
       0.18284906 0.16311468 0.43926424 0.048055865
000120 30 ab d6 3e 83 69 42 bf db ff 30 bd 8c 2a 2c c0
       0.4192748 -0.7594225 -0.043212753 -2.6900969
000130 77 14 f6 be ba 3f 08 3e 63 e6 f9 3e 65 dc 48 bf
       -0.48062488 0.1330556 0.48808584 -0.78461295
000140 38 df bb 3e 8f 25 82 3f de fe 79 3e a6 aa bb be
       0.3669374 1.0167712 0.2441363 -0.36653632
000150 44 ee f8 3e 02 b2 0e 3f 4f 91 86 3d 73 f3 4c bf
       0.48619282 0.5574037 0.06570684 -0.80058974
000160 50 56 8a 3f 1b 6e 30 3f 2b 21 55 be b0 0c 93 3f
       1.080759 0.6891801 -0.20813434 1.1488247
000170 0a e8 74 3d 96 c7 fd 3d 08 2f 92 3e 89 a4 19 3f
       0.059791602 0.123915836 0.28551507 0.60016686
000180 90 cd a5 3e 0a bc 04 be 7e 17 97 3f e0 00 2c be
       0.32383394 -0.12962356 1.1804044 -0.16797209
000190 16 31 01 3f 73 f9 04 3f 9b 5b f2 be 6e 48 68 be
       0.50465524 0.5194313 -0.47335514 -0.2268388
0001a0 c5 c9 00 3d 38 44 a3 be 00 d6 b2 3e 53 5a ac 3e
       0.031442422 -0.31887984 0.34928894 0.33662662
0001b0 1d d2 80 be 67 1f 1a be 08 db c4 3e 53 be a9 bc
       -0.25160304 -0.15051042 0.38448358 -0.020720636
0001c0 a2 a7 fa 3e 50 c9 e2 bf be 74 11 c0 40 92 c1 3d
       0.4895602 -1.7717686 -2.2727504 0.09451723
0001d0 86 e5 f6 3e dc a7 24 3f 28 78 ad bd 8f 00 0c c0
       0.48221987 0.64318633 -0.084701836 -2.187534
0001e0 89 7f 85 3f 01 24 1a bf e2 8d 09 bf c0 9e a4 be
       1.0429546 -0.6021119 -0.5373212 -0.32152367
0001f0 e2 b7 29 3f cc b7 a7 3e 50 2d 06 bf 02 a0 35 3f
       0.6629621 0.32757413 -0.5241289 0.7094728
000200 1d a1 f6 3e 8b 61 c9 3e 4f 79 60 be ea 9f ba bf
       0.48169795 0.39332232 -0.21921276 -1.4580052
000210 04 28 b8 bd 7b 6c 8a 3f be 72 6c 3f db 89 53 3f
       -0.089920074 1.0814356 0.9236258 0.82632226
000220 5e 6f bb be 4b 8f 6d bc 5d 64 24 bf 1f 8a f4 be
       -0.36608404 -0.014499496 -0.6421564 -0.47761628
000230 6d 20 bb 3e cc e2 f1 be d6 ec 8d 3e 52 19 5f 3e
       0.36548176 -0.47243345 0.27719754 0.21787003
000240 af c9 16 3f a5 b7 59 3f 69 4f 56 3f e2 60 c8 39
       0.58901495 0.85045844 0.8371492 0.00038219156
000250 3f bb 19 3f 8e 50 1c 3e c3 5e 74 3d 81 bc f3 3e
       0.6005134 0.15265104 0.059660684 0.47604755
000260 ba 20 85 be 68 82 2f be c7 ed 2c 3f 73 99 80 3f
       -0.2600153 -0.1713959 0.6755032 1.0046829
000270 b1 0a 08 3f ce 57 de be b6 19 41 bd 68 4e c1 3e
       0.53141314 -0.43426365 -0.04714366 0.37755132
000280 58 73 e1 3e 95 57 a6 3e 1e 22 b6 3e a6 42 19 3f
       0.44033313 0.32488695 0.35572904 0.5986732
000290 42 05 68 3e 40 21 36 3f 64 ff dd 3e ce a2 48 3e
       0.22658256 0.71144485 0.4335891 0.19593355
0002a0 46 6f 1a 3f 9e d2 69 be 66 ef f5 3d a4 4c 40 3f
       0.6032604 -0.2283425 0.12008552 0.75116944
0002b0 20 dd 64 3e bc 5b 73 3d b1 68 5e bf a6 98 ff 3e
       0.22349977 0.059413657 -0.86878496 0.4992115
0002c0 46 a3 ea 3e c7 57 a1 3e c5 5b 82 be ce 95 5a 3e
       0.45827693 0.3151228 -0.2546064 0.21346208
0002d0 47 a7 26 3d d5 b3 a0 be 85 a0 85 3e 70 93 18 3f
       0.04068687 -0.313872 0.2609903 0.5959997
0002e0 89 95 77 bc 32 c7 23 3f 03 64 df be ac 8a c5 3f
       -0.015111336 0.6397582 -0.4363099 1.5432944
0002f0 58 26 b5 3e 24 82 29 3d 4b 20 89 be 92 e7 12 3f
       0.35380816 0.041383877 -0.2678245 0.573846
000300 c2 d5 91 bd 7d 83 5b 3f 03 b0 c6 3e 72 0c 15 c0
       -0.07120849 0.8574751 0.3880616 -2.3288846
000310 07 c5 53 3f 02 af 48 3f b2 fa 4e 3e 5a 04 1a 3f
       0.82722515 0.7839204 0.2021282 0.6016289
000320 a1 7e bf 3e 49 00 66 3e 47 b9 78 3e b8 e7 1d 3e
       0.37401298 0.22461046 0.24289428 0.15420425
000330 2d d8 a7 3e 98 99 87 3e 35 c2 19 bf dc e0 e5 3e
       0.32782117 0.2648437 -0.6006196 0.44898117
000340 a0 97 f2 3e e8 d0 91 3f 28 b8 2e 3f be 81 3b 3f
       0.47381306 1.1391878 0.6824975 0.73244846
000350 12 b3 59 be 58 e1 ea 3e 49 3e 07 3f 36 94 2c be
       -0.21259716 0.4587505 0.52829415 -0.16853413
000360 9b e5 38 3f bd 59 16 3f 67 7f ac be c6 29 12 3c
       0.7222535 0.5873068 -0.3369095 0.008921092
000370 08 c7 db 3e 6c 42 22 3f ef c7 98 3e 74 92 3b 3d
       0.42925286 0.633826 0.29840037 0.045793965
000380 5e 98 f1 bc 47 39 44 3f bd 3a 98 3f d5 15 ee 3e
       -0.0294916 0.766499 1.1892926 0.46501032
000390 f4 3d eb bd 65 24 65 3e 1e 08 95 3e 7b 72 09 3f
       -0.11486426 0.22377165 0.29107755 0.5369031
0003a0 c0 a2 9c 3e f8 15 51 3f a6 99 9b 3d 97 25 0b be
       0.30592918 0.81674147 0.075976655 -0.13588558
0003b0 87 ba 86 3c 1e 1f e7 3e 55 11 72 3e 45 e2 1c 3e
       0.016446365 0.45140928 0.23639424 0.1532069
0003c0 9d 28 e8 3c ec 89 3f 3d 85 ce 03 3f 27 6c ba 3e
       0.028339678 0.046762392 0.51487 0.3641064
0003d0 07 c0 24 3f 5a 23 ad 3e 47 c8 5b 3f 6b 7d d1 3e
       0.6435551 0.33816034 0.85852474 0.40916
0003e0 e2 0a a3 3e 17 92 b7 3e 01 ea 05 3e 9d 0a 85 3e
       0.3184424 0.35853645 0.13077547 0.2598466
0003f0 2b ea 7c bd a5 5f 87 be 25 b3 03 bf e3 ad eb 3d
       -0.061746757 -0.26440158 -0.5144523 0.11507776

net.9.bias f4 [7]
000000 b3 d9 82 3e 4d 2e 8e 3e 9d 44 23 3e 90 74 81 3e
       0.25556716 0.277697 0.15944143 0.25284243
000010 86 3c 85 3e e4 ba 88 3e ad 7e 77 3e
       0.26022738 0.26705086 0.24169417
