experts/DQN/net_configs/adversary_dqn.pth (torch, 59407 bytes, 10 tensors)

net.0.weight f4 [4, 1, 3, 3]
000000 ba f7 6b 3f 0d d9 ce 3f 8c e3 c3 3d 85 9c f9 3d
       0.92174876 1.6159989 0.095648855 0.12188057
000010 5e 56 ce bf a7 65 80 be ae 9c 21 bf 8f 4a b8 bf
       -1.6120107 -0.25077555 -0.631297 -1.4397753
000020 98 f1 39 bf 54 63 e7 bf e8 75 b0 3e e0 8d 92 3f
       -0.7263427 -1.8077188 0.34464955 1.1449547
000030 84 77 b6 3c 12 4e 7b be b1 eb a1 3f ef 99 54 bf
       0.022273786 -0.245415 1.2650052 -0.83047384
000040 f2 0b 7e 3e 62 4c 65 3f eb 81 16 bf fb c2 22 be
       0.24809244 0.89569676 -0.5879199 -0.15894692
000050 0f cc 12 c0 2c dd a7 be bf 28 d2 bd f9 02 03 40
       -2.2937047 -0.32785928 -0.10261678 2.0470564
000060 4e 06 ae bd a1 93 a3 3d bb e7 2c c0 e2 dd e9 3e
       -0.08497296 0.07987142 -2.7016437 0.45677096
000070 a4 7f b7 3d 8a ef 20 40 a0 c4 82 be 25 b2 0a be
       0.089598924 2.5146203 -0.25540638 -0.13544519
000080 3c a2 04 40 3a bd 5e 3f f5 1d 55 3d 8a a1 d7 3d
       2.072402 0.87007487 0.052030522 0.10528858

net.0.bias f4 [4]
000000 43 2c 52 3d 13 4c 30 bd 17 83 49 3f 46 74 c7 3d
       0.051311743 -0.0430413 0.7871565 0.09738974

net.3.weight f4 [64, 80]
000000 fb b3 08 bf 21 a8 34 be 6e df 11 3d 99 86 65 be
       -0.5339963 -0.17642261 0.03561347 -0.22414626
000010 77 a6 99 be 28 37 71 3e 5a 73 26 be 63 0b 88 be
       -0.30009815 0.23556197 -0.1625494 -0.26571187
000020 76 c0 35 3f 1e 89 c3 be 9e f9 98 3f 9c 2b 4a 3f
       0.709968 -0.3819055 1.1951177 0.7897279
000030 14 fc 06 3e 98 14 6f 3e 7b cf a4 bf ad a8 22 bf
       0.13182098 0.233477 -1.2875818 -0.6353863
000040 8c 2a c9 3e d9 53 48 3f 51 a2 ce 3f ba 41 00 bf
       0.39290273 0.7825294 1.6143285 -0.5010029
000050 02 94 39 bf 4a 68 c7 bd 2c 46 4a bf 18 f4 1d 3f
       -0.72491467 -0.097366884 -0.79013324 0.6170058
000060 9e 24 60 3f d6 7b 0e bf 8e 2c 30 be ed 24 ce be
       0.87555873 -0.5565771 -0.17204496 -0.40262547
000070 3a 8a d2 3e 07 4b 92 3f b7 51 6a be 01 ed 22 3f
       0.41121083 1.1429147 -0.22882734 0.6364289
000080 31 07 c5 bf 67 b2 0d 3d 0c 8a a3 3f 17 23 94 3f
       -1.539282 0.034593966 1.2776504 1.1573209
000090 c2 2a 48 bf f3 a2 05 bf d4 93 bb 3e a2 cd f1 3c
       -0.78190243 -0.52201766 0.3663622 0.029516999
0000a0 c3 b0 e8 be 47 d1 24 bf e2 38 9d 3d 54 bc 82 bf
       -0.45447358 -0.6438183 0.07676865 -1.0213723
0000b0 8f 81 d9 bf ec 65 97 3f 38 c5 fe be 30 4b 20 3f
       -1.6992663 1.1827979 -0.4975984 0.6261473
0000c0 66 3b 15 bf 4b 04 8a bf 35 bc 38 c0 33 1d a6 3e
       -0.5829376 -1.078256 -2.8864872 0.32444152
0000d0 16 b6 9b 3f 95 a8 f8 be 12 11 9d 3f 33 57 7d 3e
       1.2164943 -0.48566118 1.2270834 0.24740295
0000e0 54 8a 4f 3f 83 c7 96 3f d1 0d 8e 3f 18 14 b9 3e
       0.81070447 1.1779636 1.1097966 0.36148143
0000f0 ff 75 9c bf f0 6d f2 be c2 fa bc 3f 3e 1b 5a 3c
       -1.222351 -0.473495 1.4764025 0.013312159
000100 51 4d 8b bf 58 5a a8 bf 43 d7 99 be b8 f1 30 bf
       -1.088297 -1.3152571 -0.30047044 -0.69118834
000110 90 63 31 3f 51 fb 71 bf 40 95 52 3f 07 62 3f 3f
       0.69292545 -0.94524103 0.8225899 0.7475895
000120 f2 32 cd bf 51 4b 99 3e 4a 66 8c 3e 10 ba 23 3f
       -1.6031172 0.29940274 0.2742179 0.63955784
000130 fd c8 14 3f e8 31 54 bf 20 38 36 3f 27 8d 0b 3f
       0.58119184 -0.8288865 0.7117939 0.54512256
000140 c7 63 21 3f 72 67 a2 3d 0a 71 df bd fe 3e d8 3e
       0.63042873 0.07929887 -0.10910232 0.4223556
000150 ff e3 d6 be 88 f5 fc 3f d1 e7 1f 3e 7a f9 d3 3e
       -0.41970822 1.976243 0.15615775 0.41401273
000160 c5 7f 8f 3e 2d 03 99 3f 49 8f a9 3e 99 31 bc bc
       0.28027168 1.1954094 0.3311713 -0.022972869
000170 35 56 15 be bb c6 91 3f 73 dc 0b bf ef be 1d 3f
       -0.14583667 1.1388773 -0.54633254 0.61619467
000180 ad 53 b6 bc e3 86 54 be 14 2e be bf b8 72 14 bf
       -0.022256697 -0.2075458 -1.4857812 -0.57987547
000190 63 7e be 3e 4d fb 09 c0 5f 7c 1c 3f a6 2a f6 be
       0.372058 -2.1559632 0.61127275 -0.48079413
0001a0 53 0a 14 c0 9e bd 71 3f b9 6f d9 3e 48 10 12 3e
       -2.3131301 0.9442996 0.4246805 0.14264023
0001b0 bc da a4 be 50 81 cc be d1 ff 2c 3f 7f 7a 05 40
       -0.3219813 -0.39942408 0.67577845 2.0856016
0001c0 8e 9a 2d 3e 44 70 09 bf a8 0f 7c bf e8 7d 55 bf
       0.16953489 -0.5368693 -0.9846139 -0.8339524
0001d0 6d 45 f9 3e 78 d2 10 3e 36 ae 1d 3e 29 17 d0 3f
       0.4868578 0.14142787 0.15398487 1.6257068
0001e0 88 a4 82 be 38 d8 86 bf 08 6c cf bf 77 0e f9 be
       -0.25516152 -1.0534735 -1.6204844 -0.48643848
0001f0 86 c7 07 bf 48 bb ce be 4a df 18 bf f7 f2 64 be
       -0.53038824 -0.4037726 -0.5971571 -0.22358309
000200 29 16 3e bf 95 74 de bf 7b 5a fd 3d 3a 47 b9 bf
       -0.74252564 -1.7379328 0.123707734 -1.4474862
000210 ac 0f 18 c0 c3 32 68 bf 01 c6 dc bf 49 ca 70 3f
       -2.3759565 -0.90702456 -1.7247926 0.9405866
000220 63 72 0a be 0d d4 8b bf f8 0b 01 3f d1 2f d5 bf
       -0.13520198 -1.0924088 0.5040889 -1.6655217
000230 e3 ff 21 bf e3 f2 e1 3e c2 b8 1e 3c ec e9 fa be
       -0.6328108 0.4413062 0.009687604 -0.49006593
000240 dd b7 0b 3f 84 c3 64 bf f3 57 4e bf 88 9c 91 3d
       0.5457743 -0.89360833 -0.8060295 0.07109934
000250 b3 ce 94 be 0f 89 c5 bf f5 8a 03 c0 58 3a d4 be
       -0.2906395 -1.5432452 -2.0553563 -0.41450763
000260 55 9f f6 3e b8 71 c3 be ff e0 1e 3d 3e 2f b3 bf
       0.48168436 -0.38172698 0.03878879 -1.3998792
000270 b4 e0 79 3f f8 f4 49 bf 78 3e 5e be e9 ff 54 3f
       0.97608495 -0.7888942 -0.21703517 0.8320299
000280 4c e1 0b bd 9e 10 97 bf 2d 04 cb 3f 78 10 99 3f
       -0.034150407 -1.1801946 1.5860649 1.1958151
000290 1d 33 f3 be 89 5d 4f 3f db 18 82 bf 5e d8 98 3f
       -0.47499934 0.810021 -1.0163835 1.194103
0002a0 94 8b 74 3e 93 63 0f 3f 02 e8 07 3f e9 e8 d9 3e
       0.2388137 0.56011313 0.5308839 0.4256051
0002b0 ed 50 86 be 69 cf 5d be ca 24 6f bf 2e 68 9d bd
       -0.26233616 -0.21661152 -0.9341551 -0.07685886
0002c0 0c f0 52 3f 87 d2 3d 3f cb e8 be bf 5f 83 7a 3e
       0.8239753 0.74149364 -1.4914793 0.24464177
0002d0 80 a8 12 bf 64 bc a3 3f c9 5c fa 3c 89 75 68 3f
       -0.5728836 1.2791867 0.030561822 0.90804344
0002e0 12 a1 33 bf 8b 89 c2 3f 8d df f7 bf f9 eb 73 3f
       -0.7016765 1.5198225 -1.9365097 0.9528194
0002f0 a2 ac 9f 3f 4b 75 72 3f ff 3f 2e 3f 83 43 c7 3e
       1.2474558 0.94710225 0.680664 0.38918695
000300 d8 58 d8 3e 73 c7 01 3f 78 d5 42 bf fc 8e 00 3e
       0.42255282 0.5069496 -0.7610698 0.12554544
000310 b1 05 b4 be 8b 53 eb be 0c b9 17 bf 37 4e fc 3d
       -0.35160592 -0.45962176 -0.59266734 0.12319606
000320 eb b8 cc bf b2 a3 67 3f 82 27 42 3f 46 9b 88 be
       -1.5993932 0.90484154 0.75841534 -0.26680964
000330 f5 a2 19 c0 3c 69 ea bf ea fd e4 3e 9b 05 84 3f
       -2.400571 -1.8313365 0.4472497 1.0314211
000340 a3 19 2d bf 5c b5 95 3f 6c 24 aa bf 03 be 0f 3f
       -0.67617244 1.1695971 -1.3292365 0.5614931
000350 d7 6a 08 3f e8 60 fd 3e f6 36 2d c0 2a 72 ba bf
       0.53288025 0.49487996 -2.7064795 -1.456609
000360 11 42 54 be e1 05 8c bf f2 b0 f9 be f0 72 91 3f
       -0.20728327 -1.0939294 -0.4876781 1.1363201
000370 ee 7f 7b bf c8 ed d8 be e8 d8 fa 3e 96 ee 14 bf
       -0.9824208 -0.42368913 0.4899361 -0.58176553
000380 0b 7c 08 bf a4 0c 0b bf db 2a 0f bf fc d0 9d be
       -0.53314275 -0.54316163 -0.5592477 -0.30823505
000390 e1 81 d7 3f db 28 40 3d 7b 0c 24 3f 2a e8 28 bf
       1.6836511 0.046913963 0.64081544 -0.65979254
0003a0 39 00 6f be 2b 6e 0e 3f 5a dd 13 bc 41 9e 14 3d
       -0.23339929 0.5563685 -0.009024942 0.036283735
0003b0 c8 52 31 3f 79 20 98 3f a0 2c f6 be 4a 47 2c 3f
       0.6926694 1.188491 -0.4808092 0.6729628
0003c0 49 a3 97 3f d1 8c 67 3f 48 ff 29 be d0 e7 17 be
       1.1846706 0.90449244 -0.16601288 -0.14834523
0003d0 46 62 af 3f d3 4d ec bd 26 ff 5c 3f cf 31 21 3f
       1.3701866 -0.11538281 0.86326826 0.62966627
0003e0 27 76 c1 3d ea 6b 6b bf b7 3b 9b 3e 28 34 bd 3f
       0.09446364 -0.9196154 0.30318996 1.4781542
0003f0 41 d5 b7 3f 08 b2 1f 3f 5b 76 87 3e 70 15 eb bd
       1.4361955 0.6238103 0.26457486 -0.11478698

net.3.bias f4 [64]
000000 85 b3 51 bf 4a 76 a2 bf 3a 97 cf be a3 e2 10 bf
       -0.8191455 -1.2692349 -0.40545064 -0.5659582
000010 c5 9e fb be fb 57 ac bf 64 bb 76 bf 71 ee b4 be
       -0.4914457 -1.346435 -0.96379685 -0.35338166
000020 30 94 8d bf bb e6 2f bf 9c c9 52 bf 35 85 41 be
       -1.1060848 -0.6871144 -0.8233888 -0.1889847
000030 b3 d2 45 be 6c 01 c5 be cb 0e 61 bf 46 be 0f be
       -0.19318657 -0.38477647 -0.879132 -0.14037427
000040 08 93 43 bf d4 7d 2f bf 61 33 4f bf 88 20 3c bf
       -0.76396227 -0.68551373 -0.80937773 -0.7348714
000050 b5 ac 84 bf 58 ea dd 3d 7c 1b 56 bf b5 e5 b3 be
       -1.0365206 0.10835713 -0.8363569 -0.3513619
000060 6b b0 25 bf 02 45 41 bf 73 51 a6 bf a1 48 97 bf
       -0.6472232 -0.7549592 -1.2993606 -1.181904
000070 cf 26 a3 bf 19 dc 0f 3f 4d 1d ce be c2 48 93 bf
       -1.2746218 0.5619522 -0.4025673 -1.1506579
000080 f3 e7 24 be 57 99 31 bf 38 74 3a be 4b 29 22 bf
       -0.16104107 -0.69374603 -0.18208396 -0.6334426
000090 ac a2 6d bf 32 9b f3 be c6 f5 9e be 9c e4 16 bf
       -0.9282634 -0.47579342 -0.31046885 -0.5894258
0000a0 d5 0e c0 bf ad 7e 0e be 92 e1 46 bf 77 0e 03 bf
       -1.5004526 -0.1391551 -0.77687943 -0.51193947
0000b0 47 dd aa bf 5e 0c 62 3e 95 88 d6 bf 0f 47 09 bf
       -1.3348778 0.2207503 -1.6760432 -0.5362405
0000c0 fa ea 72 bf 0f b7 f5 be 32 18 54 bf ca 78 13 bf
       -0.94889796 -0.47991225 -0.8284942 -0.57606184
0000d0 05 3b 81 be 4f 82 16 bf f0 92 fa be 5a b3 e4 be
       -0.2524034 -0.58792585 -0.4894023 -0.44668084
0000e0 61 7e 69 bf c2 33 22 bf c9 a9 84 be cc d6 29 bf
       -0.91208464 -0.63360226 -0.25910786 -0.6634338
0000f0 35 cf 99 be d3 7f 00 bd c0 61 08 bf 47 e1 57 bf
       -0.300409 -0.031371903 -0.53274155 -0.8432812

net.5.weight f4 [64, 64]
000000 55 c6 29 bf 9a 79 1c 3f b1 85 90 bf 0f ed 8b 3f
       -0.66318256 0.6112305 -1.1290799 1.093172
000010 bf bb b1 be 06 53 df 3d f2 3e b4 3e 55 ae 8f 3f
       -0.3471355 0.10904507 0.35204273 1.1225077
000020 89 0a 38 be 86 de 65 be 49 bb cd be 73 07 23 3e
       -0.17972769 -0.22448167 -0.4018195 0.1592081
000030 75 b7 63 3f e2 29 08 3d 78 a3 20 3f ca ac 67 be
       0.8895181 0.033243068 0.62749434 -0.22624508
000040 25 07 d7 bf 99 7c a5 bf de a4 39 bf 80 f0 01 bf
       -1.6799055 -1.2928649 -0.7251719 -0.507576
000050 70 b8 08 bf f5 fd d6 be f7 76 48 3f 0f 4e 06 3f
       -0.5340643 -0.4199063 0.78306526 0.5246286
000060 29 79 20 3f b6 7d c5 3f 94 78 f0 3f 04 be b3 bf
       0.62684876 1.5428989 1.8786798 -1.4042363
000070 c1 b9 c5 bf c3 00 f3 3f fa b5 08 3e 9e 50 55 bf
       -1.5447313 1.8984607 0.13350669 -0.8332614
000080 54 4f 01 3f f9 6f 2f c0 ae e7 92 bf b3 37 6a bf
       0.5051167 -2.7412093 -1.1476953 -0.9149124
000090 b4 0d c1 3f 26 9b b7 3f 09 64 39 bf 66 2e 2d bf
       1.5082307 1.4344223 -0.72418267 -0.67648923
0000a0 b2 a5 8c bc b0 04 cb 3f 44 0c c1 be af b7 96 3f
       -0.017168853 1.5860806 -0.3770467 1.1774806
0000b0 30 54 39 3f 0d 40 95 be f0 67 cb be c6 6a b7 bd
       0.72394085 -0.2915043 -0.39727736 -0.08955912
0000c0 fd 00 0e 3f 2f ff 7e 3f 82 4b 8c 3f bf 63 b9 3f
       0.5547026 0.9960813 1.0960543 1.4483565
0000d0 ee 9f 3c be 49 47 e0 bd 2c 35 43 3e 95 af de 3d
       -0.18420383 -0.109510966 0.19063252 0.10873333
0000e0 b3 b8 02 3e 1c 61 19 3e b4 35 1c bf a6 22 a7 3e
       0.1276577 0.1497845 -0.61019444 0.32643622
0000f0 7b 77 b9 bf 60 56 38 3f 6f 8a 10 bf 22 f2 73 3d
       -1.4489588 0.720068 -0.5646123 0.059557088
000100 bf 69 f2 3e c0 a1 74 bf 70 51 a5 3e da 0a c8 3f
       0.47346303 -0.9555931 0.32288694 1.5628312
000110 d9 72 0c 3d 6b 94 06 bf 86 76 85 3e 15 4d 5b bf
       0.034289215 -0.5257022 0.2606699 -0.8566449
000120 8f cb 93 bf 12 bd b0 be 0b 75 85 bf b2 a4 08 3f
       -1.1546496 -0.3451925 -1.0426344 0.53376305
000130 4a 34 73 c0 4a 0e 13 3f 3a 8f 9c 3e 7f 2e 98 3f
       -3.8000665 0.5744368 0.30578023 1.188919
000140 a3 ee 48 3e 2e 68 99 bd 72 99 0e c0 56 1e b0 3e
       0.19622283 -0.07490574 -2.2281156 0.34398144
000150 57 2c f3 be 1e 44 1e 3f 0b 29 a0 bf 04 48 f3 3e
       -0.47494766 0.6182269 -1.2512525 0.4751588
000160 ad 1b 75 3f dd e3 ff bf 1e 6b 36 bf d4 68 a3 3d
       0.95745355 -1.9991413 -0.712572 0.07978979
000170 bf d5 6e bf 54 97 a5 bd 79 19 96 3f 82 9a 00 bf
       -0.932949 -0.08085504 1.1726524 -0.5023576
000180 b0 8e 35 bf 72 62 22 c0 0d 11 0e bf d1 38 0f bf
       -0.7092085 -2.5372586 -0.5549477 -0.5594607
000190 8e 5c 9c 3f 1f 05 bb 3e 9c 58 88 3f f3 4a 15 bd
       1.2215745 0.36527345 1.0652041 -0.03644843
0001a0 04 be 15 c0 ac a7 14 bf 77 17 42 bf 50 38 46 bf
       -2.3397226 -0.58068347 -0.75817055 -0.77429676
0001b0 52 47 ae be 05 84 ee be f2 bd ca 3e 30 d7 0b 3b
       -0.34038788 -0.46585098 0.39598042 0.0021337979
0001c0 84 7c 91 bd c6 e4 14 3f ae 09 a0 3f da 62 43 3f
       -0.071038276 0.5816158 1.2502954 0.7632271
0001d0 8f 4e 48 3f 99 a0 03 3f eb 3a 21 c0 64 25 49 3e
       0.7824487 0.5141693 -2.519221 0.1964317
0001e0 a8 54 12 be ac e9 4c bf f3 18 46 bf 37 e7 b7 be
       -0.14290106 -0.80044055 -0.7738182 -0.3591859
0001f0 79 94 03 3f 54 a5 2c c0 8e df a9 bf 53 a4 0a c0
       0.51398426 -2.6975908 -1.3271348 -2.1662796
000200 20 81 2e c0 d3 32 83 3f 50 66 04 bf 52 17 57 3e
       -2.7266312 1.0249885 -0.51718616 0.2100499
000210 d8 ba 3a 3f 26 97 4e 3f 2e cb 4b c0 dc 88 92 bf
       0.7294135 0.80699384 -3.184276 -1.1448016
000220 b8 75 7a 3f 6e 80 3b bf df c8 1f bd 82 d9 c3 bf
       0.97835875 -0.73242843 -0.039009925 -1.5300753
000230 97 54 22 3f 5f 73 05 c0 cc 7e 1c c0 21 63 62 3f
       0.63410324 -2.0851667 -2.445239 0.8843251
000240 72 48 b3 be ea 6e 9b 3d 63 7c 48 3f a3 d5 c1 be
       -0.3501621 0.075895146 0.783148 -0.37858304
000250 fa d6 7f 3f 30 87 1d 3f 5a 89 a9 3e 62 ff d6 be
       0.99937403 0.61534405 0.33112603 -0.41991717
000260 37 c5 6a 3f 82 4b 66 bd f0 c4 7a 3e 84 44 f0 bf
       0.91707176 -0.056224354 0.24489188 -1.8770909
000270 43 38 4c bf 45 83 d4 3f 00 f9 82 bd e4 a2 b5 be
       -0.7977335 1.660256 -0.06395149 -0.35475838
000280 a4 ed a3 be a7 74 c7 be 52 ed 87 3f 88 36 80 3e
       -0.32017243 -0.38956186 1.06193 0.25041604
000290 77 3d cb bd 49 b5 98 3f 48 55 4e bf 5f 65 af bf
       -0.09923833 1.1930324 -0.8059888 -1.3702811
0002a0 2d 44 24 c0 81 66 bf be 22 0d ec be 46 c0 16 bd
       -2.5666611 -0.37382892 -0.4610377 -0.03680446
0002b0 b9 98 63 3d 1f cc 65 be ef c7 32 3f 6d d9 aa 3f
       0.05556557 -0.22441147 0.69836324 1.3347603
0002c0 8d 45 89 bf d7 f1 fa bf f5 d6 23 3f 31 1e 95 3f
       -1.072435 -1.9605054 0.63999873 1.1649839
0002d0 82 cf 2c 3f 1a e9 e7 bf e6 82 4f 3f 07 c6 55 be
       0.6750413 -1.8118012 0.8105911 -0.20876323
0002e0 64 4c af be 7b ff 05 bf 96 16 9d be 81 c3 df be
       -0.3423797 -0.5234296 -0.30681294 -0.43703845
0002f0 77 66 d3 3c da e2 77 bf f8 d8 c7 3e cb 30 eb 3e
       0.025805695 -0.96830523 0.39032722 0.45935664
000300 6d db 4d 3e 89 55 b7 3f 32 6b 9a 3f c7 7c e4 be
       0.20103236 1.4322978 1.2063963 -0.44626448
000310 02 41 88 3f 87 49 07 3e a4 3d eb 3e df ee ac 3f
       1.0644839 0.13211642 0.45945466 1.3510398
000320 f3 11 c6 3f 2d ca 83 bf a6 db 8a bf 5f dd 80 be
       1.5474228 -1.0296074 -1.0848281 -0.25168893
000330 47 90 5a c0 63 7a 88 3f db 0c ee be 87 28 fb be
       -3.415056 1.066235 -0.46494183 -0.49054357
000340 f5 da 94 3e c1 f3 4c bc 62 25 7f bf 08 18 e7 3e
       0.290733 -0.012509287 -0.99666417 0.45135522
000350 64 d4 a6 be d7 fd 99 bf 60 1c 51 3f 5a 51 65 3f
       -0.32583916 -1.2030591 0.8168392 0.8957726
000360 73 c2 c6 bf ca 7b bd 3e 83 91 33 bf dc 27 cf be
       -1.5528091 0.37008506 -0.7014391 -0.40460098
000370 24 54 c0 3f bb a1 dd 3e 1a 8d 9b 3f 77 65 69 3e
       1.5025678 0.43287453 1.2152436 0.22792612
000380 c3 0f 9d 3f 34 cd 95 3f ba b7 40 3d ed 34 b9 be
       1.2270435 1.1703248 0.047050215 -0.36173192
000390 49 35 0c bf 57 80 26 bf 60 0d be 3f 98 67 11 c0
       -0.54768807 -0.6503958 1.4847832 -2.2719479
0003a0 f9 23 23 3e 1f 61 b6 bf 63 65 b1 3e ac e7 73 3f
       0.15931691 -1.4248389 0.34647664 0.9527538
0003b0 29 61 ad be f7 2e 00 3f ac 8f a1 3e 9d b7 35 bf
       -0.3386319 0.5007166 0.31554925 -0.70983297
0003c0 c6 ea 85 bf db b4 0e 3f 80 fe a5 3e da fb d4 3d
       -1.0462272 0.55744714 0.3242073 0.103995994
0003d0 10 3a c5 3d db d2 7a bf 8c a7 1d c0 50 3b 8c be
       0.09630215 -0.9797799 -2.4633512 -0.27389002
0003e0 1e a2 cb be eb 9d ef bf 46 df 6e be b9 26 ab bd
       -0.39772123 -1.8720068 -0.2332736 -0.08356995
0003f0 76 96 1a be 7f 4e 72 3e 32 0d a4 3f 13 74 86 3e
       -0.15096459 0.23662756 1.2816527 0.26260433

net.5.bias f4 [64]
000000 f7 0f 2b c0 1c 8e ce be b2 cd e7 be 2f 56 1b 3f
       -2.6728494 -0.40342796 -0.4527412 0.6067838
000010 da 18 c1 bd 36 2c e7 3e 8e 02 a2 3e 08 e1 e7 bf
       -0.09428568 0.45150918 0.31642574 -1.8115549
000020 81 2a 91 3e e1 30 38 3f 51 1a 09 bf 82 15 b1 be
       0.2835274 0.71949583 -0.5355578 -0.34586722
000030 99 d4 a8 3f 11 79 ce 3e 78 40 68 bf eb f8 6b bf
       1.318988 0.4032674 -0.9072337 -0.92176694
000040 a0 01 d6 be f4 43 16 c0 34 28 01 bf 17 0d 14 3c
       -0.41798115 -2.3478975 -0.5045197 0.009036324
000050 da a9 02 c0 fa 86 0d bf dc 54 05 bf 6d f8 78 3d
       -2.041617 -0.5528408 -0.5208261 0.060783792
000060 df a6 26 bf ee 73 24 c0 ab a5 a3 bf 37 5e 03 bf
       -0.65098375 -2.5695758 -1.2784933 -0.51315635
000070 1c 73 aa bd 52 10 f7 bf 42 0d 32 c0 b9 d5 2f bf
       -0.083227366 -1.9301856 -2.7820592 -0.6868549
000080 39 ba ea be 55 4b ed bf 09 ca 85 bf c7 27 7c be
       -0.45845202 -1.8538615 -1.0452281 -0.24624549
000090 be 5b fb bf 72 d9 a3 bf 2b 68 0e c0 43 b7 6b be
       -1.9637372 -1.2800734 -2.225108 -0.23019128
0000a0 f5 cb 9c 3e 17 9f 63 bf b4 e4 4e 3f 4b 5f 15 c0
       0.30624357 -0.88914627 0.80817723 -2.3339412
0000b0 2f 53 31 bf 83 f7 5e 3f e3 cf a4 be 33 12 07 c0
       -0.69267553 0.8709642 -0.32189855 -2.1104858
0000c0 f5 9f d1 bf ff 83 56 bf 9d 55 c4 bf 64 7e 02 3f
       -1.637694 -0.8379516 -1.5338627 0.50974107
0000d0 bf 08 f1 bf 00 c3 a9 bf 1f 99 96 bf 6a a2 a8 bf
       -1.8830794 -1.3262634 -1.1765479 -1.3174565
0000e0 e8 52 1b bf 31 dd ae bd 43 ad f2 3e d1 82 e8 3d
       -0.6067338 -0.08538283 0.47397813 0.11353076
0000f0 97 73 de bf 45 02 a6 be 45 81 39 3f 7f b4 60 bf
       -1.7379025 -0.32423607 0.72462875 -0.87775415

net.7.weight f4 [64, 64]
000000 ba ef 05 be ca 67 02 be ea 1d 46 bf 84 4f a1 be
       -0.1307973 -0.12734905 -0.77389395 -0.31505978
000010 58 e0 b3 bd 44 73 4d 3f 95 5f 85 3f 9b 00 92 bf
       -0.087830245 0.80254006 1.0419794 -1.1406435
000020 7b 56 5c bf c9 26 07 40 00 d3 9d 3f 02 39 b8 bf
       -0.8606946 2.1117423 1.2330017 -1.4392397
000030 0c 05 52 3f 20 25 6d 3f 61 c7 7a 3f b4 0e 9f 3e
       0.8203895 0.92634773 0.9796048 0.31065905
000040 cd 0f 37 3f 53 00 9b be 3a c7 ab 3e 72 af 2e be
       0.71508485 -0.30273685 0.33550435 -0.17059115
000050 49 6c bf 3e cd 86 f3 3e f6 05 25 bd 1f d1 7f 3f
       0.37387303 0.47563782 -0.040288888 0.9992847
000060 e5 38 4c bf d0 64 a2 bf f8 e2 0e c0 41 21 e2 be
       -0.79774314 -1.2687016 -2.232603 -0.44165996
000070 67 00 0a 3f a5 e8 7d bf 45 f3 4d bf da ac 32 3f
       0.53906864 -0.9918311 -0.80449325 0.69795
000080 e5 9c 85 be 50 96 3f 3d 03 89 10 be 27 84 9e be
       -0.26096264 0.04677421 -0.14114766 -0.309602
000090 2e 97 4c bf f1 52 91 bf f6 71 69 be c1 ad 68 bf
       -0.7991818 -1.1353437 -0.22797379 -0.9089013
0000a0 93 cf 2e be 71 4a 10 3f a4 97 c6 bc 8c 52 5d 3e
       -0.17071371 0.5636359 -0.02424223 0.2161352
0000b0 8d 11 b6 3f 52 e1 1e 3e 06 ea 0d c0 ed d0 84 bf
       1.4224106 0.1551564 -2.2174087 -1.0376259
0000c0 c7 c5 63 be 12 a5 62 be ea f8 b3 3d 94 13 45 3c
       -0.22243415 -0.22133282 0.08787711 0.012028594
0000d0 02 7d c8 be 00 b0 6b 3f bd ce 82 be 43 03 a3 be
       -0.39157873 0.9206543 -0.25548354 -0.31838426
0000e0 98 ed c6 be c6 b2 6d 3f 50 5d 2c 3f 2e 0a 75 3f
       -0.38853145 0.9285091 0.67329884 0.9571866
0000f0 7b ec 5a be c0 4a da be 69 13 1e c0 38 38 7d 3e
       -0.21379273 -0.42635155 -2.4699347 0.24728477
000100 c6 4e c7 3e 51 ce ac bf c5 95 1f bf 78 a1 45 3c
       0.38927287 -1.3500463 -0.62337905 0.012062423
000110 25 32 17 3f f9 f4 15 3e 9e 95 0f bf 19 66 08 bf
       0.5906089 0.14644231 -0.5608767 -0.5328079
000120 01 e3 9d 3f 6c d4 cd 3e e2 bd fe 3e c7 6a 21 3f
       1.2334901 0.40201128 0.49754244 0.63053554
000130 cc 72 b6 bf b8 31 30 3e 70 cf bf bf 8d 6c 34 3e
       -1.4253783 0.17206466 -1.498518 0.17619534
000140 36 18 27 bf c5 be 67 be e0 d2 ea bd 18 6d 99 bf
       -0.6527132 -0.22631367 -0.114660025 -1.1986418
000150 f7 d9 b0 bf 97 93 63 3f 9b f7 4a bf 96 a0 71 be
       -1.3816518 0.8889708 -0.79284066 -0.23596415
000160 b6 25 17 3e 22 6e c5 ba 46 9a 0d 3e d9 e0 08 bf
       0.1476048 -0.0015062729 0.13828382 -0.5346809
000170 6d fe 00 bf 2b 46 d3 bf 9c 64 82 bf 4b 78 6e 3f
       -0.5038822 -1.6505789 -1.0186954 0.931523
000180 b2 37 64 bf b2 63 67 be 26 ad 2f bf 43 d4 3f 3f
       -0.89147484 -0.22596624 -0.6862358 0.7493326
000190 43 0a 3d 3f 3d 26 73 3f a5 06 85 bc 00 0a a6 3e
       0.73843783 0.9498022 -0.01623852 0.32429504
0001a0 cb cb bf bf 2a cc 8b 3f 03 3e 8b 3e 6d c8 b3 bf
       -1.4984068 1.0921681 0.2719575 -1.404554
0001b0 23 68 39 3e f8 c5 b9 be da a1 36 bf 52 62 84 bf
       0.18106131 -0.3628385 -0.71340716 -1.0342505
0001c0 3b e4 a4 be b3 71 dc 3f e8 13 52 bf 8b bb 96 ba
       -0.32205376 1.7222198 -0.82061625 -0.0011499984
0001d0 a1 ec 4b bf 52 c4 8d 3f 90 c4 b4 3e f3 19 d5 bf
       -0.7965794 1.1075537 0.35306215 -1.6648544
0001e0 11 2c 3e be 41 e6 a1 be 29 90 2d c0 5f 98 59 bf
       -0.18571497 -0.31620982 -2.7119238 -0.84998125
0001f0 b6 08 8e 3e f7 4b 11 bf 60 cf 0e bc f6 2d 10 bc
       0.2774102 -0.5675654 -0.008716434 -0.00880002
000200 95 ca dd bf 9b 1a c6 3e 6d a1 d3 3e 30 f9 13 c0
       -1.7327448 0.38692173 0.41334096 -2.3120842
000210 55 8e c8 bd 26 00 f5 3f 9b 17 90 3f 11 98 29 3f
       -0.09792773 1.914067 1.1257204 0.6624766
000220 06 3d 55 bf 87 fe 30 c0 45 d0 0a bf 69 50 04 be
       -0.8329624 -2.765535 -0.54224044 -0.12921299
000230 51 26 a5 bf 0f 22 79 bf 74 28 a3 3f 82 29 18 bf
       -1.2902318 -0.97317594 1.274672 -0.59438336
000240 b1 b0 79 3e ef 42 98 be 32 84 1e bf b7 22 b3 3d
       0.24383809 -0.29738566 -0.61920464 0.08746856
000250 26 15 6c bf fb 1e bb bc 6e 07 ef be bd 30 4f 3f
       -0.9221977 -0.022841921 -0.46685356 0.80933744
000260 20 7b 46 3e ff ac 66 be 07 6a 84 bf c1 d3 e1 3e
       0.19382906 -0.2252693 -1.0344857 0.44106868
000270 2f bf d5 3f 5d 0e f9 3e c0 08 3d 3c 54 b9 21 c0
       1.669897 0.4864377 0.011537731 -2.5269365
000280 54 c7 03 3f 02 fd 89 bf 8d 1f 1c bf df 74 c2 bf
       0.51476026 -1.0780337 -0.6098564 -1.5191916
000290 73 84 20 c0 41 ae c0 bf 4f bb 89 3f 02 6f 38 3f
       -2.508084 -1.5053178 1.0760287 0.72044384
0002a0 7b 8b a2 be 0b 1b 9c 3e 59 fa b5 be 52 52 94 be
       -0.3174704 0.30489382 -0.35542563 -0.28969055
0002b0 e9 d8 0f 3e 35 44 b9 be 21 b6 2a bf 5b 4c 21 3f
       0.14047588 -0.3618485 -0.66684157 0.63007134
0002c0 00 c4 bf bf c8 46 af 3e ed 7b 81 3d 3e 4f db 3e
       -1.498169 0.3423369 0.06322465 0.42833894
0002d0 d5 f5 15 3f e4 3d 39 be 76 05 ec bd b5 f2 70 bf
       0.58578235 -0.18090016 -0.11524479 -0.9412034
0002e0 9f 60 9f 3e 92 85 a4 bf 48 75 bc be 5f 5c c8 be
       0.31128404 -1.2853262 -0.36808228 -0.39132974
0002f0 14 46 54 bf fe 5d fe bf e8 bc ac 3f ba 0e 75 bf
       -0.8291943 -1.9872434 1.349515 -0.95725596
000300 05 9d 6c 3e f5 a1 fc be 48 b0 2e bf c2 22 5b be
       0.23106773 -0.49342313 -0.68237734 -0.21399978
000310 3e 99 5b bc 5e a0 17 3f 56 5b 58 3f 71 89 a1 3c
       -0.013403235 0.59229076 0.8451437 0.019718857
000320 09 30 1a bf e3 1a 44 3f a6 7a 64 3e 93 7d 46 bf
       -0.60229546 0.76603526 0.22312412 -0.7753536
000330 68 f1 8b bd a0 b8 6d bf 3a f0 c5 3c a9 c7 96 be
       -0.06833154 -0.9285984 0.0241624 -0.29449204
000340 25 a4 61 bf 12 e2 e1 bf 34 b0 f7 3c 69 d5 98 be
       -0.8814109 -1.7647116 0.030235387 -0.2985032
000350 b3 fa 95 be ca 49 a8 3e f2 15 90 bd 3b 7e 03 3d
       -0.2929283 0.32868797 -0.07035436 0.032102805
000360 e2 74 0f be 99 de 07 bf 14 cf 99 bf 39 01 9d 3f
       -0.14009431 -0.5307403 -1.201632 1.2265998
000370 e5 e5 2e 3f e7 c9 56 c0 c2 7a e0 3e 3d fc c7 bf
       0.6831954 -3.3560731 0.43843657 -1.5623852
000380 b5 b5 54 3f ea a1 0e 3e b9 91 87 3e ae 38 21 bf
       0.8308976 0.13928953 0.26478365 -0.6297711
000390 5d c5 ba bf 7a d2 98 bf 07 e1 a4 bf 4f 09 f3 be
       -1.459148 -1.1939232 -1.2881173 -0.4746804
0003a0 df 97 ae bf 6a ab a8 bf c6 ae ad 3e 58 5a 90 3e
       -1.3640097 -1.3177311 0.33922404 0.28193927
0003b0 3a 78 8e 3f 0f a1 97 3d 49 c3 43 3d 9d e8 ab bf
       1.113044 0.07403766 0.04779366 -1.3430363
0003c0 01 fd 94 bf fe c3 ae bd 3e 40 d0 3e 03 40 ff 3e
       -1.1639711 -0.08533476 0.40674013 0.49853525
0003d0 35 44 b2 3f 7c d4 5d bf 2a 5f 7c be 88 f4 0f 3f
       1.3927065 -0.8665235 -0.24645677 0.562325
0003e0 31 37 eb be 86 99 aa 3f bf 73 03 c0 05 f3 82 3e
       -0.45940545 1.3328102 -2.0539396 0.25576034
0003f0 75 0e fe bf 72 fb 72 bf 13 77 a7 be f0 4c a2 3d
       -1.9848162 -0.94914925 -0.32708034 0.07924831

net.7.bias f4 [64]
000000 8d 08 cb 3f fe f1 4c c0 0a d0 7a bf 69 b9 a7 3c
       1.5861984 -3.20227 -0.9797369 0.020474153
000010 8b c2 d7 bf 06 89 c7 bf b5 ce 2c c0 88 a2 41 bf
       -1.6856245 -1.5588691 -2.7001164 -0.7563863
000020 bb 69 78 3f a7 01 eb 3f e7 b0 fc bd aa c7 a3 bf
       0.9703633 1.8359879 -0.12338429 -1.2795308
000030 a7 e2 6d 40 74 44 01 c0 71 5f 67 bf 49 88 1b 3f
       3.7169588 -2.019803 -0.9038001 0.6075483
000040 2f b9 5c be bd 2a 11 c0 4a 79 0b bf 9e 34 a0 bf
       -0.21555017 -2.2682335 -0.5448195 -1.2516057
000050 ab 3a a3 3e d7 52 a2 be c8 a5 5e be 47 ff 0f c0
       0.31880698 -0.31703827 -0.21742928 -2.249956
000060 73 9a f3 bf 72 b0 ee bf 4f f6 b6 bf 84 33 03 c0
       -1.9031509 -1.8647597 -1.4293917 -2.0500193
000070 eb db d8 be da 25 67 bf a7 79 3b c0 3c 93 03 bf
       -0.42355284 -0.9029213 -2.9293 -0.51396537
000080 42 31 e8 bc dd 26 bf bf 62 17 09 c0 4a bb b3 bf
       -0.0283438 -1.4933735 -2.1420522 -1.4041531
000090 03 0c d4 bf 43 97 b9 be 0f 88 93 3e 30 99 d9 bf
       -1.6566166 -0.36248216 0.28814742 -1.6999874
0000a0 c2 6e 20 bf f5 bb 1e c0 4b 18 a4 3f 33 af b2 bf
       -0.62669003 -2.480222 1.2819914 -1.3959717
0000b0 d1 1d 81 bf 5e 74 dd bf 2c 62 90 be ed 9b b9 3f
       -1.0087224 -1.7301137 -0.281999 1.450071
0000c0 5a b7 10 3f d5 c2 09 40 7b 1b 84 3e cb c3 19 be
       0.5652977 2.1525166 0.25802216 -0.15016095
0000d0 2c 65 82 3e 8f f6 52 bf 60 7a 4a bf c8 8d 8b 3f
       0.25467813 -0.8240747 -0.7909298 1.0902643
0000e0 56 22 97 bf b5 22 ae bf d1 3b 37 3e 06 04 ad bf
       -1.1807353 -1.3604342 0.17893912 -1.3516853
0000f0 78 ef e9 bf 32 81 39 c0 bb 7b eb bf 6f ec 1a bf
       -1.8276205 -2.8985105 -1.8397135 -0.6051702

net.9.weight f4 [7, 64]
000000 ef 18 44 be 1d c7 55 bd ba 41 ae be d7 1a 95 c0
       -0.19150136 -0.052191842 -0.3403452 -4.6595263
000010 d7 ec ac 3f 45 31 36 3e ca 51 49 3f e8 4c a5 3e
       1.3509778 0.17792232 0.78640425 0.32285237
000020 5f 0c 44 c0 9c 51 d6 bf 7d 5f a4 bf ba 3c e9 be
       -3.063255 -1.6743655 -1.2841641 -0.45554143
000030 20 80 18 3f 67 dd 8a 3f f6 f3 39 3f 85 49 10 3f
       0.59570503 1.0848817 0.7263788 0.5636218
000040 6c c8 1d c0 23 2d 94 3f e7 3c 07 be be 88 0a 3f
       -2.4653578 1.1576275 -0.13206826 0.541149
000050 30 5a ac be f1 1c 56 be cc a4 fc bd a7 f3 be be
       -0.33662558 -0.20909478 -0.1233612 -0.37295267
000060 65 c8 75 3e b9 21 33 3f 22 bb 30 3e b6 f8 9a 3f
       0.24002226 0.6997333 0.17258886 1.210715
000070 22 18 e2 be d3 f7 82 be 58 e0 25 3f 96 5b 94 bf
       -0.44159037 -0.255797 0.64795446 -1.159045
000080 3a b9 e6 be e7 aa 5d 3f 73 a7 93 3e 4f 13 8e be
       -0.45063192 0.865889 0.2883869 -0.27749106
000090 d8 04 23 3f 46 f7 31 3f 4d 03 fb 3e 74 b1 d7 3e
       0.63679266 0.69517934 0.49025956 0.42127573
0000a0 75 a7 9b be c4 98 89 3f 31 fe b7 bf bc 20 82 3f
       -0.30401197 1.0749745 -1.4374448 1.016624
0000b0 a6 03 31 3f c7 10 ac 3e c1 72 73 c0 2a 2d 04 c0
       0.6914619 0.3360655 -3.803879 -2.0652566
0000c0 a9 69 ae bc bb c9 30 bf 23 6e ca be 38 cc 3e be
       -0.021290617 -0.69057816 -0.39537153 -0.18632591
0000d0 bc 70 19 3f 36 53 82 3f 05 e8 74 3e 78 b6 c3 bf
       0.59937644 1.0181644 0.23916633 -1.529006
0000e0 eb 9a 28 3f 2a bb 64 bf 03 d8 9a be 54 9a 97 3f
       0.65861386 -0.8934809 -0.3024293 1.1843972
0000f0 68 66 4c 3f 5a 78 08 bf d9 6a 2c 3f 0f 0b 37 3f
       0.7984376 -0.5330864 0.67350537 0.7150125
000100 af 1a 02 be d6 ce fe be ec a8 40 3f da 54 83 3f
       -0.12705491 -0.49767178 0.75257754 1.026027
000110 f3 0b 2e 3f f2 ea 39 3e de 14 ac 3e 94 02 fa be
       0.67986983 0.18156031 0.3360967 -0.48830092
000120 4a e0 1a bf de 45 87 bf 2d 90 ed 3e d6 7c 3a c0
       -0.6049849 -1.0568197 0.4639906 -2.9138694
000130 48 33 c3 be 77 d6 ca 3e ea d9 43 3f f7 90 01 3e
       -0.38125062 0.3961675 0.76504385 0.12652956
000140 90 d1 55 3e 17 0a 1d 3f 17 22 97 be ea 6f ab be
       0.20880723 0.6134352 -0.29518196 -0.3348382
000150 1a ce 22 3f 96 03 32 3f b6 67 d0 3e de 72 8e bf
       0.63595736 0.6953672 0.40704125 -1.1128805
000160 4d 53 ac 3f fb 35 30 3f e5 dd 37 c0 60 52 a2 3f
       1.3462921 0.6883237 -2.8729184 1.2681389
000170 ad 58 98 3d a5 16 32 3e 4c d9 30 3e 26 21 e2 3e
       0.074387886 0.1739145 0.17270392 0.44165915
000180 6e 40 72 3e 7f a4 9c 3d ff 2b 91 3f 17 12 26 3e
       0.2365739 0.07648563 1.1341552 0.16217838
000190 c2 d7 dd 3b 7f 10 84 bf 71 41 ee be 07 e0 bb 3d
       0.006770105 -1.0317534 -0.46534303 0.09173589
0001a0 03 59 ef be 15 3a f6 3c 07 2a 13 3f 45 a7 7c 3d
       -0.46747598 0.030056993 0.57486004 0.06168296
0001b0 66 34 2c 3f c5 d4 5f bf d1 1c 90 c0 bd 90 3d bf
       0.67267454 -0.87434036 -4.5035176 -0.7404898
0001c0 f9 17 0f 3f f7 fa 81 bf 56 6a 06 c0 97 d4 9e 3e
       0.55895954 -1.0154713 -2.1002402 0.31021568
0001d0 68 6c e6 3e 78 ba f8 3e 68 20 ad be 32 02 0f c0
       0.45004582 0.48579764 -0.33813787 -2.234509
0001e0 cf 53 18 3e 68 60 b3 3e d7 9a 8a 3c a5 9a 43 bf
       0.1487572 0.3503449 0.016919537 -0.76407844
0001f0 1e 21 4e 3f b3 37 8f bd 5a b3 41 3d 6e 4c 16 3f
       0.8051928 -0.06993046 0.047290184 0.5871037
000200 ca c0 e0 3e 09 34 68 3f e1 6b cd bd c3 41 0a bf
       0.43897086 0.907044 -0.10030342 -0.54006594
000210 b8 3b d7 3e 1f d3 4d 3f d6 2f 74 3f 0c 20 84 3f
       0.4203775 0.8040027 0.9538549 1.032228
000220 75 e1 d5 be 6a 10 5c 3e c3 bb 59 be 3c 37 a9 bd
       -0.41773573 0.21490636 -0.21263032 -0.08262488
000230 81 88 30 3f ba a6 38 bf 04 28 b3 be e8 98 92 3e
       0.6895829 -0.72129405 -0.34991467 0.28632283
000240 c3 4e ac 3e 10 58 6d 3f b9 46 b4 3f e6 f6 2f be
       0.3365384 0.927125 1.4084083 -0.17184028
000250 9c 25 31 3f 37 3e 3a bd bf b2 83 3d 03 06 49 3f
       0.6919801 -0.04546949 0.064305775 0.785248
000260 58 c3 f5 3e 6a 76 20 be 54 47 81 3f a6 bd 62 3f
       0.48000598 -0.15670171 1.0099893 0.8857063
000270 90 df 32 3f e6 c4 03 bf d0 6c b1 bd 3f 40 da 3e
       0.6987238 -0.5147232 -0.086633325 0.4262714
000280 a6 39 d2 3e d5 96 c9 3e 92 19 f7 3e 89 bb 2b 3f
       0.41059607 0.39372888 0.48261696 0.6708303
000290 d7 b6 9b 3e a3 30 1c 3f 88 4d f2 3e a3 76 31 3f
       0.30412933 0.61011714 0.47324777 0.6932165
0002a0 95 7d 49 3f 66 86 a2 3d b1 27 76 3e 42 18 6c 3f
       0.7870725 0.07935791 0.24038579 0.92224514
0002b0 b0 bf 2d be ac bc af 3e 90 76 14 bf b8 a5 d9 3e
       -0.16967654 0.34323633 -0.5799341 0.42509246
0002c0 6d 58 eb 3e bf 57 e6 3e bf b5 0c bd 72 cb 91 3e
       0.459659 0.4498882 -0.034353014 0.2847553
0002d0 06 35 fc 3d c4 17 a3 3e 7b 06 03 3f 9d 7d f9 3e
       0.12314801 0.3185407 0.51181763 0.48728648
0002e0 e8 f2 7b 3e 99 62 31 3f 64 f0 18 bd 73 89 a2 3f
       0.2460438 0.69291073 -0.03733863 1.2698196
0002f0 a2 4f f0 3e db a5 0a 3e 2b 31 b3 3e 75 fa 10 3f
       0.46935755 0.13539831 0.3499845 0.5663217
000300 70 18 22 3e 35 b4 65 3f c9 de ab 3d 83 26 4f c0
       0.15829635 0.897281 0.08392102 -3.2367256
000310 1c 32 bb 3f d5 a1 37 3e 27 8c 9f be b7 fd 4b 3f
       1.4624667 0.17932828 -0.31161615 0.79684013
000320 9f df ad 3e 49 44 84 3e b1 55 15 3e a5 59 ad 3e
       0.33959672 0.25833347 0.1458347 0.33857456
000330 96 16 ba 3e 19 bd 8c 3f d5 91 ec 3e c4 65 10 3e
       0.36345357 1.0995208 0.4620501 0.1410132
000340 6b fb 96 3e 5d 94 a5 3f 51 33 98 3f 3d e6 c4 3e
       0.29488692 1.2935902 1.189066 0.38456908
000350 ae 8c 9c 3d c9 44 2c 3f 5f c7 f7 3e 62 30 80 3d
       0.0764402 0.6729246 0.48394296 0.06259228
000360 f2 71 81 3e 41 83 fd 3e 8b 5c 5a bf 9d ff 7d bd
       0.25282246 0.495142 -0.8529746 -0.06201135
000370 71 e0 e4 3e 76 88 61 3f 3d fe 0d 3f 6c aa 82 3e
       0.44702485 0.8809885 0.5546606 0.25520647
000380 cf 87 4f 3e 2d 7c 99 3f be ae bb 3f 5c 14 dc 3e
       0.2026665 1.199102 1.4662702 0.42984283
000390 06 b0 98 3e ab 31 1d 3f 7a 54 09 3f 6c 80 34 3f
       0.29821795 0.6140391 0.53644526 0.70508456
0003a0 13 6d 42 3e df 2e a9 3f 76 ab 6f be 33 a1 5d 3f
       0.18986921 1.3217429 -0.23405251 0.86574095
0003b0 4a fe 7d bd 25 7d 33 3f ed 96 8c c0 34 d3 3f bf
       -0.062010087 0.7011283 -4.3934236 -0.74931645
0003c0 32 16 f5 3e d9 38 17 bf ba d8 03 3f 93 03 f9 3e
       0.47868496 -0.5907112 0.51502573 0.4863554
0003d0 16 c8 44 3f 4d 0d 63 be 06 fd 70 3f e7 a5 dc 3e
       0.76867807 -0.22173043 0.94136083 0.43095323
0003e0 01 77 a2 be 91 bd e1 3e 95 c9 f9 3d 82 54 76 be
       -0.31731418 0.4408994 0.12196652 -0.24055675
0003f0 51 36 a4 be f1 9e 1d bd 0e 02 4e 3e b0 3a b1 3d
       -0.3207269 -0.038481656 0.20117971 0.08653772

net.9.bias f4 [7]
000000 3e 74 30 3f ff 3a 2f 3f e9 3a db 3e 79 48 39 3f
       0.6892737 0.68449396 0.42818382 0.7237621
000010 d7 97 03 3e e7 20 f4 3e 9d 34 e9 3e
       0.12850891 0.47681352 0.45547953
