experts/DQN/net_configs/adversary_dqn.pth (torch, 160587 bytes, 8 tensors)

net.0.weight f4 [128, 42]
00000000: b718 f2bd 4bd3 3f3e 8823 db3d 6c2f 35be
00000010: 3b05 983e 8320 3dbe 228a 9bbe bd97 693e
00000020: 981c 9bbd 1305 943e 0fcd 8a3d aafc 853d
00000030: a36f a9bc 7b1d 53be c905 fdbd 1c1c fdbe
00000040: 3c55 01be 3386 b3be 3d3a 053e 4afe e2be
00000050: 556f 1dbe bdad 82bd bb60 8cbc 9e47 093f
00000060: 3af1 7c3e b237 723d 8e22 3a3e dacb 37be
00000070: 51e9 b03d 837c ad3b 0596 90be 507a 2abe
00000080: fefc 533d 06a0 00bd 5680 b23e 2f3a f43b
00000090: 1399 e3bd 277a 83be b3e5 d2bd 4265 a33e
000000a0: 9f57 263d b192 55bd 54d9 613d fa7e bcbd
000000b0: 84aa 38bb adc8 a8bc d820 0abe bccb 9f3e
000000c0: b8c6 55bd 27da 1dbd 8950 f63c 907d 523e
000000d0: e10f 2bbe 6bcc efbe 56fd 96be 0b51 efbe
000000e0: 4cd4 a23b badb 993e cc70 223e c1a1 453e
000000f0: aa18 91bd dd26 0a3e bf25 873e 9fee 2cbe
00000100: bf33 d8bc f7d0 febb 290f ad3b aef5 353d
00000110: 351f 883e 3bb1 99be 9828 283e 330b 00bf
00000120: 0265 78bd 6a9c 2a3e 2b98 2dbe 21ba 713d
00000130: 3162 543d 5a66 e33d 6f6f 8e3d 4f1f 763e
00000140: db3a eabd 4acb b03c e267 93be bc51 cabb
00000150: fe08 95bd b9f1 19bf 63fe 483e b8be 0abf
00000160: 8c45 5fbe d480 8fbe 5007 d0bd 016b 82bd
00000170: 9e79 6ebe 7777 87bd ed91 de3b 5d3a 0cbe
00000180: c5f7 553c 9ec5 5abe 2023 ecbb 14a7 edbe
00000190: a0b0 4e3e 606a c73e cee8 9a3e 0439 c33e
000001a0: 7ed9 74be 72d2 4dbe 38b6 8fbd 8068 bd3d
000001b0: a32f 9dbe c0d5 0abe 69d1 3dbe 09e6 a33c
000001c0: 8da5 783e a659 a3be 2705 4c3c 4538 be3d
000001d0: 7808 a83e 88a4 773e 055f 583c 394f 763d
000001e0: 5e74 63bd 4211 75be 2a6a cdbe ef51 ba3d
000001f0: a220 d13d 1714 db3d fe82 823e 589d 62bd
00000200: d996 293e e501 883e d9e4 8bbe 417c 20be
00000210: e8dd 2bbe 2d13 b0be b5b3 99bc d26a 0ebc
00000220: da4c d83d 5121 7f3e 378f a83d 2f95 c9bd
00000230: 5eb5 1abb 4ffa 763e ea34 eabd 61f1 87bc
00000240: acd4 54be 28aa 26ba a614 e63d c151 6f3e
00000250: 2656 853d 8b42 b13e ace8 c1be 7265 43be
00000260: c17c 0abe 7486 83bd 1e78 8e3e df00 1f3e
00000270: 2db6 123d 5575 943e 3a10 b7bd 27db 47bc
00000280: e0ae 42bd 4e4c 47be 99fd 553d 72da 3d3d
00000290: a3ab 423c e8fc f6bd d712 98be ceab 733e
000002a0: 3822 ecbb c037 46bd 47a8 2f3d 666f 0fbd
000002b0: 9510 423e 15a0 25be d108 b83d eb4e 88be
000002c0: be67 4d3e d71c 3abe 99c8 92bd 20b2 523e
000002d0: 1260 5abe 0dad 2ebe 70a6 44bf feb4 793e
000002e0: 87bf fa3d ad8d 7fbe f6f4 de3d 2257 86bd
000002f0: 6dcc f83d 899b 91be 309c 593e 33aa 57be
00000300: 22da 29bf 46b4 a6bd 3e89 a0bd 8334 f33b
00000310: c250 da3e 4890 7cbe c62b fbbd 1204 b13c
00000320: f433 debd b240 33be 5c93 98be 0c0a 1f3e
00000330: 8f5d 27be 940e b23d 87f6 aa3d 0606 c73e
00000340: 6623 2d3c b610 cfbd 858f 58be b6c9 7a3e
00000350: 731a 2e3d 64a2 a03e 8280 ddbd 4441 593d
00000360: f7c6 a0bc 0145 f7bd c380 043e 5b36 c33d
00000370: a616 123d 9529 3e3e 1f3c b83d c52c 683e
00000380: 8301 78be a4d7 e2bd 60c8 653d df29 bcbe
00000390: db58 353e 3beb 873e 5e08 bd3e 1d71 9e3e
000003a0: 488b 74be 15ba 62be da79 84bd 647f 2b3d
000003b0: 0846 b23e 5769 42be 5506 643e 7165 34be
000003c0: e740 3dbc e2f1 8e3d 9e35 70be f6b4 1cbc
000003d0: 9c57 b23e e762 75be 2aa0 f9bd 8032 8cbe
000003e0: 3f93 a03e 285f afbd a929 d73d eb5d 79be
000003f0: 830f 2d3e 63b7 cebd 8e7f b93c 3b23 8fbe
-0.1182112 0.18732946 0.107001364 -0.17693871 0.2969149 -0.18469433 -0.30378824 0.2281179
-0.07573813 0.2891012 0.06777393 0.065423325 -0.020683115 -0.20616715 -0.12354619 -0.49435508
-0.1263017 -0.35063323 0.13010497 -0.44334632 -0.15374501 -0.06380794 -0.017135968 0.53624904
0.24701396 0.059135146 0.18177244 -0.17948857 0.086382516 0.005294384 -0.28239456 -0.16648221
0.051754944 -0.03140261 0.34863538 0.007453225 -0.11113181 -0.25679132 -0.10297718 0.3191319
0.040610906 -0.05214185 0.0551389 -0.09203906 -0.0028177807 -0.020603502 -0.13489091 0.31210124
-0.052191466 -0.038538124 0.030067699 0.20555711 -0.16705276 -0.46835646 -0.29490155 -0.46741518
0.0049691554 0.3005045 0.15863341 0.19299985 -0.070847824 0.13491388 0.26395985 -0.16887902
-0.026391862 -0.0077763754 0.0052813482 0.04442375 0.2658631 -0.3001803 0.16421735 -0.5001709
-0.060643204 0.1666123 -0.16952579 0.059015397 0.051851455 0.111035064 0.06954848 0.24035381
-0.11437007 0.02158131 -0.28790194 -0.0061742943 -0.07277106 -0.60134465 0.19628291 -0.54197264
-0.21803874 -0.28027976 -0.10157645 -0.063680656 -0.23288581 -0.06614583 0.006792298 -0.13694139
0.013059561 -0.21364447 -0.0072063357 -0.46416533 0.20184565 0.38948345 0.3025574 0.38129437
-0.23911092 -0.2009981 -0.07017177 0.092484474 -0.30700406 -0.13558102 -0.18536915 0.02000715
0.24281903 -0.31904334 0.0124524 0.09288076 0.3281896 0.24183857 0.013206248 0.060134146
-0.0555309 -0.23932365 -0.4012006 0.09097659 0.10211302 0.10697191 0.25490564 -0.055325836
0.1656145 0.26563945 -0.27323034 -0.15672399 -0.1678387 -0.3438963 -0.018762449 -0.00869246
0.10561533 0.24915053 0.08230441 -0.09842908 -0.0023606638 0.24118923 -0.11435874 -0.01659459
-0.20784253 -0.0006357753 0.11234407 0.2337103 0.06510572 0.3462108 -0.37872827 -0.19081667
-0.13524152 -0.06422129 0.27826017 0.15527676 0.035818268 0.28995767 -0.08938642 -0.012198246
-0.047530055 -0.19462702 0.052243803 0.046350904 0.011881742 -0.12059957 -0.29701874 0.23796007
-0.0072062276 -0.04839301 0.04288509 -0.035018347 0.18951638 -0.16174348 0.089860566 -0.2662271
0.20059106 -0.18175064 -0.07167167 0.20575762 -0.2132571 -0.17058201 -0.76816463 0.2438545
0.12243562 -0.24956389 0.10886566 -0.06559588 0.12148366 -0.28438976 0.21250987 -0.2106102
-0.6634847 -0.08139853 -0.07838677 0.0074220314 0.42639738 -0.24664414 -0.122642085 0.021608386
-0.10849753 -0.17505148 -0.29799926 0.15531176 -0.16344284 0.08694187 0.083478026 0.38871783
0.010567522 -0.10110609 -0.21148498 0.24491009 0.042505693 0.31373894 -0.108155265 0.053040758
-0.019626124 -0.12073708 0.12939744 0.09531852 0.03566613 0.1857055 0.08995842 0.22673328
-0.24219327 -0.110762864 0.056099296 -0.36750695 0.17709677 0.26546654 0.36920446 0.30945674
-0.23881257 -0.22141297 -0.06468554 0.041869536 0.34819055 -0.18985496 0.2226804 -0.17616822
-0.011551118 0.06979729 -0.23457953 -0.009564629 0.34832466 -0.2396351 -0.12188752 -0.27382278
0.3136234 -0.085630715 0.10505993 -0.24352233 0.16900449 -0.10093572 0.02264383 -0.27956566

net.0.bias f4 [128]
00000000: 0109 0c3e d782 43be 5abb 0a3e e3fa 0c3e
00000010: 66de d7bd 40a9 28bd 45ad 26be 4353 18be
00000020: ffbd 8d3e 3592 ccbe c991 3dbe 5423 cebd
00000030: 8f49 74be 324d 883d 865d b63d 1871 e0bd
00000040: 13ec 0dbc b375 e4bd 0c9c cabd 0675 86be
00000050: 7cff 993d a994 32bc 1c39 85bd 5455 183d
00000060: d0fd 25be 966c fdbd da1a 69be 34b2 e33d
00000070: 8c50 7e3d 5083 073d e8ba 41bd 75d3 51be
00000080: face 26be c1d6 13be 877f 25bd b25e 64bd
00000090: d096 103e a42c 65bd 13c5 92bd 9c3a 27be
000000a0: 8937 2cbd c079 07bc 10d0 15be c843 47bc
000000b0: 64d7 24bd df08 93bd 63f3 4bbe 2e6e deba
000000c0: d75c c9bd 8510 28be 317a 563d e038 0ebe
000000d0: 7d61 91be 7e38 98bd b1dd c7bd da67 34be
000000e0: 4c0d a6bd 5188 e1bd 5201 81bd 8a2f 86bd
000000f0: 1344 793d 944e 31be 149a 253e d1a3 a0bd
00000100: 67b5 70bd 9ea9 0d3c e8f1 05bc c86d 0c3e
00000110: 9b9b 93be 5cea 223e c0f3 a1bc e5b7 3c3d
00000120: 021b 5fbe f407 883d 1b07 de3d 55af febd
00000130: 29ea 52be 28b0 66be bb9a 11bd 9346 053d
00000140: fc49 81be cc59 3a3d b2fd 69be 9e4e 28be
00000150: 33ce 82be 3088 11be dccb 14be 7fc7 523d
00000160: fd8c babd 73f8 31be 3b4f 1abd 819b 5c3d
00000170: ff3e 5e3d e867 8c3e 48ae 36be ec7a b7bd
00000180: bd28 483d 5b6b 893e 5de5 5e3e bb13 7cbe
00000190: 8ff0 0bbe 7ac2 c2bd 5c75 b93d 9ef7 88be
000001a0: 24ec 1e3e 5af6 31be 790e 0cbc dd92 253e
000001b0: ce02 6c3c 1dda 453d 4128 a83e 6295 a0bd
000001c0: cb44 8cbe 3d89 04bd b39c 2fbc 28db 58bb
000001d0: ec28 32be 288e 01be 0002 07be bed7 f8bd
000001e0: 6f23 d2bc f309 8abd 33c7 56be ff78 b1be
000001f0: 080f 693d 0584 32be 3e66 2e3e 293c a1be
0.1367531 -0.1909288 0.13548031 0.1376758 -0.10540466 -0.041177034 -0.16277035 -0.14875512
0.27684018 -0.39955297 -0.18512644 -0.10065332 -0.23856185 0.06655349 0.08904557 -0.10959071
-0.0086622415 -0.11155262 -0.09893045 -0.26261157 0.07519433 -0.010899701 -0.065050334 0.03719075
-0.16210103 -0.12374227 -0.2276415 0.11117974 0.062088534 0.033084214 -0.04729739 -0.2049082
-0.16289893 -0.14437391 -0.040404823 -0.05575437 0.1412003 -0.055950776 -0.07166495 -0.16330951
-0.04204515 -0.008268774 -0.14630151 -0.012162156 -0.040244475 -0.071794264 -0.19917063 -0.0016970092
-0.09832161 -0.16412552 0.052362625 -0.13888884 -0.2839469 -0.0743265 -0.09759081 -0.17617741
-0.08108005 -0.110123284 -0.0629908 -0.06552036 0.060855936 -0.17315131 0.16172057 -0.078437455
-0.05876675 0.008646397 -0.008175351 0.13713753 -0.28829655 0.15909714 -0.01976955 0.046073813
-0.21787646 0.06642142 0.10841199 -0.12435786 -0.20597138 -0.22528136 -0.035547953 0.032538008
-0.25251758 0.045495793 -0.22850683 -0.1643624 -0.25547943 -0.14212108 -0.14530891 0.051459786
-0.09108923 -0.17379932 -0.037673216 0.053859238 0.054259297 0.27423024 -0.1783992 -0.08958992
0.048866976 0.26839718 0.21767183 -0.24616902 -0.13665985 -0.0950975 0.09055588 -0.26751417
0.15519768 -0.17379132 -0.008548372 0.16169305 0.014404966 0.048303712 0.3284321 -0.078409925
-0.27396235 -0.032357443 -0.010718512 -0.0033089612 -0.17398423 -0.12651885 -0.13184357 -0.121505246
-0.025651662 -0.06740179 -0.20974426 -0.34662625 0.0568991 -0.17433174 0.1703119 -0.3149121

net.2.weight f4 [128, 128]
00000000: 771d 683e aade eebd 0493 d5bb a955 0ebe
00000010: b08a fcbb 15ce d9bd 2377 093e 94e6 fa3d
00000020: 7eb2 b0be 0891 853e 29ac c13e 9bbf bc3e
00000030: 734b ae3d cf55 47bd d01a 21bd 1992 093e
00000040: ceb5 bebe c46c a73e 4a9c d1bc 13a2 743e
00000050: 5379 c1be 155d 18be d739 dd3d 2ee9 5e3c
00000060: 3db8 8cbc 324d 8cbe 35be 69be 0c09 1a3c
00000070: 8d7e dc3d 1473 a53d a445 33bd acc6 993d
00000080: 169f ba3d 9f61 163e 8beb f2be 8f2d 3d3e
00000090: 6e86 6d3e aabc 733e 168e 1a3e 6a0c 0cbe
000000a0: f122 f5bd 0316 bcbe c2d0 3cbe 82a5 d0be
000000b0: e21e 1e3e b35c b3bd 7d90 993d ceaf e63c
000000c0: 79db dcbd 741e 923d b4a5 b9be 72fa 3c3e
000000d0: 8d01 f93d 9c8f 08be 1995 3d3e 3db7 69be
000000e0: d1b7 d5bc e4cf 6d3c 255e d23d 9f5e c23d
000000f0: 3143 243e 8448 c7be 9003 95be d26f d73d
00000100: 9b4d 733e 5290 66be e4bb 16be 1e94 00be
00000110: f2d3 613e 8f10 4cbf 0475 893e 1c34 02be
00000120: 332c a53d 2725 983e 95a6 9e3c 4f33 363d
00000130: 1850 823d 88e8 85be 7ee2 83bd 1f20 b93d
00000140: 926c 07be e6b0 183e cdcc e0bd c12c 9cbd
00000150: 6bae 073e b65b 90bd cb9b 3dbe d263 fabe
00000160: f34a c8be 252e 283d aa49 d63d 947a 43be
00000170: 3586 b5be 4ea3 a0bc 2cfc 463c 10fe 5c3e
00000180: 51fe 15be d900 4f3e 7f58 303d c3ef c9be
00000190: 3de5 c83c 603a 77bd 4e0a 63bc 56de b73d
000001a0: 178a 0fbe e280 9dbd 375e 00bf f8d5 1fbe
000001b0: eaa1 73be 1394 a6bd e316 55be c65a 92be
000001c0: 89d2 2abd 77a1 9bbc 7937 323e e0dd 61be
000001d0: 553a 863e c0b1 50bd 596f c53c 7a77 d83d
000001e0: d6d5 dcbd a861 2d3e 3ae4 c73d ddcc 1a3e
000001f0: 5436 313e 31dc 733e a5ed a4bc e927 7abe
00000200: eaf2 77bc 2646 d1bd 4378 083d 208e 08bc
00000210: ce05 d5bd a1ff 19bb e01a d0bc 525a b63c
00000220: ff70 c5bb 8e76 5d3b b369 c4bd 2359 bebd
00000230: aa08 c9bd c4f9 63bd 58a8 c0bd 74fb 0fbd
00000240: 2a9d 813d 0f6d 6a3d 64c1 6e3c 4585 4f3d
00000250: 4a37 d23c 40e9 51bd b160 82bd d50f 6cbd
00000260: 4d74 ed3c b463 223c 248b a5bd d4d7 6fbd
00000270: 7119 5bbd a9e2 ac3c f1a7 973c fd39 26be
00000280: 14c4 46bd 874e bc3c 3d1e 4c3d dd17 afbd
00000290: 61e4 04be 6a65 3ebd 506c 16be df90 053d
000002a0: 0a8e fa3c b343 82bd 0219 37bd b102 1abe
000002b0: 1a10 b7bc f06d d53b e44f b13b e738 cdbc
000002c0: cf85 2d3d ed69 8fbd 9a79 d33b fe9d f4bd
000002d0: 305f abbd d2fd efbb b039 5abd 07f6 4b3d
000002e0: 9c62 7bbc be41 74bd 0df4 b0bd 831e d93a
000002f0: 5a6d aa3c 2c89 56bd c165 a5bd f4de 1ebd
00000300: 3cd1 92bc 095c a8bc f32f ffbd c327 bcbd
00000310: 0315 a9bd 9b0e b4bd 64eb f73c 4584 7cbd
00000320: d5bf c7bd b39c 383d 673f a4bd 6a19 1abd
00000330: 704f 24bd 3c2c 0d3d 4661 21bd 4739 f3ba
00000340: 012c b7bc 3a07 d2bd 9ee5 3ebd 3919 c1bd
00000350: 27cf a1bb c58d d3bb 5753 22bd 4b72 19bd
00000360: 3bd0 68bd be99 85bc c3d8 4fbd 7be3 8cbd
00000370: 85ae c1bd 0217 bebd 7cd0 14bd 9891 11bd
00000380: 1bea afbd 3cc5 a4bd c51d 8bbd bf66 a43d
00000390: 4bdc c8bd 0125 d53c 05b4 993c 89c4 9bbd
000003a0: c8d1 97bd f658 2dbb 9fc8 4b3b fa71 a7bd
000003b0: c5cf 803c 4cd9 99bd 701c bb3c 6bd8 b43d
000003c0: 3845 b9bd a1d4 1dbd 64d8 38bd 3fd3 033c
000003d0: 1b2f aabd 9908 96bd 665d 1bbd cb69 b4bd
000003e0: 5109 72bc 2645 61ba 5112 40bd 8127 fdbd
000003f0: f444 6f3b 510b 85bd 4954 9dbd 8883 b03c
0.2266749 -0.116635635 -0.00651777 -0.13899864 -0.0077069625 -0.1063501 0.13424353 0.122510105
-0.3451118 0.26087213 0.3782666 0.36864933 0.085104845 -0.048665818 -0.03933221 0.13434638
-0.3724808 0.3270017 -0.02558722 0.23889951 -0.37787876 -0.14879258 0.10802048 0.013605399
-0.017177695 -0.27402645 -0.22826464 0.009401571 0.10766325 0.0807859 -0.043767586 0.07508597
0.091123745 0.14685677 -0.4744533 0.1847441 0.23195812 0.23802438 0.15093264 -0.1367661
-0.11969555 -0.36735544 -0.1843901 -0.40751272 0.15441468 -0.08757915 0.07498262 0.028160002
-0.107840486 0.07134715 -0.36259234 0.18454912 0.12158499 -0.13336033 0.18513907 -0.22823806
-0.026088627 0.014514897 0.10271863 0.09490704 0.16041256 -0.38922513 -0.2910428 0.10519375
0.23760073 -0.22515991 -0.14720112 -0.12556502 0.22053507 -0.79712766 0.26847088 -0.1271519
0.08065071 0.29715845 0.019366542 0.044482525 0.06362933 -0.2615397 -0.06439684 0.0903933
-0.1322501 0.14911231 -0.10976563 -0.07625724 0.13250129 -0.070487425 -0.18516462 -0.48904282
-0.39119682 0.04105963 0.10463269 -0.19089729 -0.35453954 -0.01960912 0.012145083 0.21581292
-0.14647795 0.20215167 0.043053146 -0.39440736 0.024523372 -0.060358405 -0.013857437 0.08977954
-0.14017521 -0.07690598 -0.5014376 -0.15608966 -0.23792234 -0.08133712 -0.20809512 -0.2858488
-0.04170469 -0.01899789 0.17403974 -0.22057295 0.2621638 -0.050950766 0.024100946 0.10569663
-0.107829735 0.16931784 0.09760328 0.15117212 0.17305881 0.23814465 -0.020132849 -0.24429287
-0.015133599 -0.10218458 0.033317816 -0.0083346665 -0.10401498 -0.0023498314 -0.02540344 0.022259865
-0.006025433 0.0033792588 -0.09590473 -0.09294345 -0.09816106 -0.055658117 -0.09407109 -0.035151914
0.06328805 0.057232913 0.014572475 0.050664205 0.02566113 -0.051247835 -0.06366099 -0.057632286
0.02898612 0.009911466 -0.080831796 -0.05855544 -0.05349106 0.021104174 0.018512698 -0.16233058
-0.04852684 0.022986664 0.049833525 -0.085494734 -0.12977745 -0.046483435 -0.14689755 0.032608863
0.030585308 -0.06360569 -0.044701584 -0.15040089 -0.022346545 0.0065133497 0.005411135 -0.025051547
0.042363938 -0.070026256 0.006453705 -0.11944197 -0.08367765 -0.007323959 -0.05327767 0.049795177
-0.0153433345 -0.05963301 -0.08640299 0.0016564879 0.020804096 -0.05237691 -0.08076049 -0.038786843
-0.017922036 -0.020551698 -0.124603175 -0.091872714 -0.08255961 -0.08791848 0.03026361 -0.06164958
-0.09753386 0.045071315 -0.080199055 -0.037621893 -0.04011482 0.034466013 -0.039399408 -0.0018556499
-0.02235985 -0.102552846 -0.0466057 -0.09428639 -0.0049380246 -0.006456109 -0.03963026 -0.037462514
-0.05683921 -0.016308662 -0.05074383 -0.06879326 -0.09457115 -0.09281732 -0.03633164 -0.03553924
-0.08589574 -0.08045432 -0.067927875 0.0802741 -0.098076425 0.026018621 0.018762598 -0.076058455
-0.074130595 -0.002645073 0.0031094921 -0.08176036 0.015724072 -0.07512149 0.022840708 0.08830341
-0.090464056 -0.038532857 -0.04512824 0.00804597 -0.08309766 -0.073258586 -0.03793087 -0.08809241
-0.014772729 -0.0008593373 -0.046892468 -0.123610504 0.0036509605 -0.06496299 -0.07682092 0.021547094

net.2.bias f4 [128]
00000000: 36ee f3bd 1dda 043d 331c bbbd 6038 dc3c
00000010: 264f 84ba 308a 34bb f25f 58bd 24f4 d2bd
00000020: db6b 2d3d 5bae 87bd bfa8 443d 4280 71bd
00000030: b52d 9b3d ef9e f0bd 107f d6bd cb37 003d
00000040: 4af2 b83d e119 b8bd a46e 5bbd f5aa ccbd
00000050: d571 f5bd b3ab 02be 872e 7e3d b883 e5bd
00000060: 1190 203c 40f7 71bd ae5d 87bd f551 27bc
00000070: 99dd 26be 4f3a 21be 5746 acbd 81be 87bd
00000080: a035 cfbd b943 04bd 889e 243b 5eff 21bd
00000090: 62eb 17be ba6e 843b d60d c63d b2c8 af3d
000000a0: 8d23 e0bd 28cc e2bd 8254 05be dc0a 423e
000000b0: 04f1 dabc 089d 03be 3b66 d2bd 75a8 16bd
000000c0: eb74 ba3d 2f2d 99bd a0eb 09bd 9a1e 873c
000000d0: 8c38 09be 03bd 42be c9e5 09be f80b 9437
000000e0: 8213 ac3c fda1 3ebe aa1d fe3b a312 103c
000000f0: aa66 873c fb37 4f3c e04f d2bd 80c8 dbbd
00000100: 792f 89bd 75bf bcbd 6ae8 8b3d 5837 e33b
00000110: 804d de3c b9f2 1dbd bcb6 71bd d358 313e
00000120: a6ac 143d 1764 c0bd 8bf4 cabd cfd1 1ebe
00000130: 8c16 dd3d 6b76 23be 810b 25bd abd0 b3bd
00000140: fc32 21be 4688 27bd bca2 c2bd 74a3 9fbd
00000150: 2f14 54bd 0d4c 53bd df7b c9bc 1a10 1d3e
00000160: 4854 c1bd e828 25bd fb8d fe3b 632c bfbd
00000170: ad1b 74bd d862 923d 3c75 5d3d b9f6 bcbd
00000180: 982b 19bd f375 c63d 2e87 77bd d66b ab3d
00000190: d586 2abd 2409 f53d 5ce4 913d 947f 38bc
000001a0: 071d b5bd 458b b83d 563d a4bd ffb8 b8bd
000001b0: fcf1 6cbd a04d 01be 30bf f9bc 8d77 a5bd
000001c0: b15d ddbd 37c1 edbd 1c1b 99ba c8f7 2dbc
000001d0: 664c e8bd c05e edbd 9f59 fabd 48d1 9d3c
000001e0: 2684 52bc ce47 e13c bed4 07bd 6c00 3b3e
000001f0: 0629 c1bd 02cd 91bd 1ca1 ecbd 9fbc 08bd
-0.119106695 0.03243457 -0.09136238 0.02688235 -0.0010094389 -0.0027548186 -0.052825876 -0.103004724
0.042339187 -0.066250525 0.04801249 -0.058960207 0.07577077 -0.11749064 -0.10473454 0.03130321
0.09030588 -0.08989311 -0.053572312 -0.09993545 -0.11984602 -0.1276081 0.06205609 -0.11206764
0.009799973 -0.059073687 -0.06609665 -0.010212411 -0.1629547 -0.15744899 -0.08411854 -0.066281326
-0.1011765 -0.032291148 0.0025118906 -0.039550178 -0.14835885 0.00404152 0.09670608 0.085832015
-0.10944281 -0.11074096 -0.13020518 0.18949455 -0.026726253 -0.12852871 -0.10273405 -0.036781747
0.091043316 -0.07479321 -0.033671975 0.016494084 -0.13400477 -0.19017415 -0.13466562 1.7648548e-05
0.021005396 -0.18616481 0.007755001 0.008793506 0.016528446 0.012647624 -0.10269141 -0.10731602
-0.06698508 -0.09216205 0.06831439 0.0069340877 0.027136564 -0.038561556 -0.05901216 0.1731904
0.036297463 -0.093940906 -0.09909924 -0.15509723 0.10795316 -0.15963142 -0.040294174 -0.08780035
-0.15742105 -0.040901445 -0.09503695 -0.07794848 -0.05177706 -0.0515862 -0.0245952 0.15338174
-0.094399035 -0.040322214 0.0077683902 -0.09334638 -0.059596706 0.07147759 0.05406688 -0.09226746
-0.03739509 0.09690466 -0.06043165 0.083701774 -0.041632492 0.11964634 0.07123634 -0.011260886
-0.08843427 0.090109386 -0.080195114 -0.0901966 -0.05784796 -0.12627268 -0.030486673 -0.08079443
-0.10808886 -0.116091184 -0.0011681053 -0.010618158 -0.11342697 -0.11590338 -0.12224125 0.019264832
-0.012848889 0.02750006 -0.03316187 0.1826188 -0.09431653 -0.0711918 -0.11554167 -0.033383008

net.4.weight f4 [128, 128]
00000000: d67e 1c3e 08be 9bbd faba 9bbe 4428 c5bd
00000010: b87b e13d 0fa8 31be a7b3 293e 3adf f9be
00000020: f481 463e fb4b c0bd decb e7be 4ab2 80bd
00000030: 9ad6 6e3e c972 94be 1738 cc3e 0674 4a3e
00000040: 486e 63bd 337f e23d 71bc 4dbe e45b 9fbe
00000050: 762b 9a3d 79c2 28be ebec 25bd 2627 87bd
00000060: fb76 223e bfe0 8ebe 2aba bf3e b419 a43e
00000070: fe1d 40be c471 1c3d 839a b33e c34c b03d
00000080: 9a44 7fbd a6a3 903e befb 8ebe 5c95 cf3d
00000090: 176d 52be 074b 20bd 74cc c8bb 11d6 973e
000000a0: 2c8a 59be 6cde b5bd d4a0 7cbd 0576 fabe
000000b0: 7c7a 683e 6931 db3d 86b4 d9bd ecc5 513d
000000c0: 4ab2 1a3e d913 2a3e 52e6 153e 8669 76bb
000000d0: 7f7e cdbd 84fe 153e 4427 333e 7942 9e3d
000000e0: 53b0 16bd 9c3d 3a3e d52a 60be 405f 263a
000000f0: 675c c53d c3d2 7ebb 1ce8 963d a37d 623d
00000100: 7ffb debe 29ae 743d 5c69 02be 2776 bdbc
00000110: 44ca 8b3e 659c b83c 867b f4be 881c 1dbf
00000120: 171c eb3c 76f3 89bd 6ae3 3abe 7dbc eb3d
00000130: 75e1 f4bb 6307 90be 0763 753b 357f d43d
00000140: 5e46 113e ef63 eb3d 18b5 08bd 9fef 083e
00000150: 21e5 803e ffde f83d 6a2e 3b3c 8c07 ab3b
00000160: 7fa8 623e a8cd 923e 5b63 4e3d 6a82 08bd
00000170: 7d08 c9bc 57b4 3f3e 897a 203e 9618 b5be
00000180: 42ca a43c 2fab ec3e ded6 11be 6a16 0b3e
00000190: c6f8 d0be 2a01 cdbd ef5e 3abe 8da8 403e
000001a0: f492 95bc 565d d03d d1d0 3d3e 5076 00be
000001b0: f90a 5c3e 6a01 81be b1a8 8dbd 9f75 32be
000001c0: 4127 703d f39f 7e3e c8c6 42be 40a7 253e
000001d0: ba58 253e 3791 123e 8f16 7fbd 6502 28bf
000001e0: e6e9 03be abeb 9d3d e068 5d3d 9c9c 2abf
000001f0: a86f 8ebc d8df 91bd a694 2f3e 1488 bf3d
00000200: 53dd 1a3e 5742 86ba 65be 31be a811 bfbe
00000210: ebe0 f3bd 2679 a0be 5eb5 f63e 9282 23be
00000220: 4c57 683c 3a4f 823e b357 2abd 2366 0cbd
00000230: e56c 183e de47 97be aa66 9abd ab48 313d
00000240: 57dd a33c 76a1 5a3e 1fd5 883e 7067 6dbe
00000250: b10f 533c 82fd 14be d54f fe3d 8c31 29be
00000260: 8bc0 553d d13b b9be e264 4f3e 46a8 ac3d
00000270: 45aa 62bd 906e 553d 6f61 9c3d c591 143d
00000280: e725 6abd c5dc 693d 973e 0fbf 8242 f8bd
00000290: 4448 e8bd f222 6f3d 3332 67bd a026 e93b
000002a0: 195d 2fbe b47a 59bc 6e7c 2dbe aadc e1be
000002b0: 4978 803e ecb5 cfbd 86f9 333e 797a 77bd
000002c0: 3b97 773d f0c4 803e 9a48 583d 8d62 dc3e
000002d0: 5d7c 2d3d a95b 27be 4d42 8b3d f193 1a3e
000002e0: ce67 17b9 6025 e93d 552e 1dbe 986e 6e3e
000002f0: 28fe b33c 1408 613e 98ea 8c3e 9846 ae3c
00000300: 38d6 18bf ed10 dabc 43a0 383e b644 83bd
00000310: 8293 513e ff9d d3bd cc5b bd3d 460c b43c
00000320: 7881 f7be ae77 583e 17eb a1bc c57b 9b3d
00000330: fc34 e5bc ae88 313b 1418 c43d 4c2f 543e
00000340: 9e67 8bbe 89af 3c3e be3e 63be e19c 6a3e
00000350: 5545 183e 9b4b 043d 1b85 6a3d dec7 ae3e
00000360: 011f f4bd e297 403e 10e1 0e3e a854 4bbd
00000370: acac babd f436 f73d 2acb 8e3e 0388 0fbf
00000380: 9d61 47bd 3211 bc3c 5149 95be 7c99 ef3d
00000390: 55f1 64be a2b3 4e3e 4b39 a5be dc5e 5abe
000003a0: ba53 b2be bd37 fe3d 7182 0bbf 5bca d93c
000003b0: 7666 fbbc c370 35be 4e0b 573d f35b 12be
000003c0: 3cce 383d 156e 463e a19d e73d c689 333e
000003d0: e001 8cbd f2b9 773e 7dce f039 9f78 72be
000003e0: 89a5 a6bd a1e3 403e 4597 e33d b0c4 c13e
000003f0: 9239 88be 5346 1dbe 5abd 4e3e 4272 18bd
0.15282759 -0.07604605 -0.3041609 -0.09626821 0.110099256 -0.17349266 0.16572438 -0.4880312
0.1938551 -0.09389492 -0.45272726 -0.06284006 0.23324051 -0.28993824 0.39886543 0.19770822
-0.055525094 0.110594176 -0.20091416 -0.31124794 0.07527821 -0.16480435 -0.040509146 -0.06599264
0.158657 -0.27905843 0.3744672 0.3205086 -0.18761441 0.038194433 0.3507882 0.08608391
-0.062321283 0.28249854 -0.2792644 0.1013591 -0.20549427 -0.03913405 -0.0061278883 0.29655507
-0.21244115 -0.08880314 -0.061676815 -0.48918167 0.22702974 0.107027836 -0.10630135 0.051214144
0.15107074 0.16609134 0.14638641 -0.0037599518 -0.10033893 0.14647871 0.17495447 0.077275224
-0.03678925 0.18187565 -0.21891339 0.0006346591 0.09636765 -0.0038882948 0.0736849 0.055295598
-0.4355125 0.059736405 -0.12735504 -0.023127628 0.27302754 0.022535512 -0.4775049 -0.6137166
0.028699918 -0.067358896 -0.18250814 0.11510561 -0.0074731656 -0.28130636 0.0037443058 0.10375825
0.14186999 0.1149367 -0.03337583 0.13372658 0.2517481 0.12151908 0.01142464 0.0052194055
0.22134589 0.28672528 0.05038772 -0.033327498 -0.02454018 0.18721138 0.15671743 -0.3537032
0.020115975 0.46224353 -0.14242122 0.13582769 -0.408148 -0.10009988 -0.18200277 0.18814297
-0.01825855 0.101740524 0.18536688 -0.12545133 0.2148856 -0.2519639 -0.06916941 -0.17427681
0.058631185 0.24865703 -0.19021142 0.16177082 0.16147128 0.14313208 -0.062277373 -0.65628654
-0.12882194 0.07710966 0.054055095 -0.66645217 -0.017387226 -0.07122773 0.17146549 0.09352127
0.15123491 -0.001024316 -0.17357786 -0.37318158 -0.11908134 -0.3134243 0.48185247 -0.15967777
0.014180969 0.2545107 -0.041587543 -0.034277093 0.1488529 -0.29547018 -0.07539113 0.043282192
0.020003004 0.21350655 0.26725098 -0.2318399 0.012882159 -0.1454983 0.124175705 -0.16522807
0.052185576 -0.3617845 0.20253327 0.08430533 -0.055338163 0.052107394 0.076357715 0.03627183
-0.057165053 0.057095308 -0.5595488 -0.1212206 -0.113419086 0.058382936 -0.056444358 0.0071152
-0.17125358 -0.013273884 -0.16941997 -0.44113666 0.2509177 -0.10142121 0.17575654 -0.060419533
0.06044696 0.2515025 0.052803613 0.43043938 0.04235493 -0.1634356 0.06799755 0.15095498
-0.00014439152 0.11384082 -0.15349706 0.23284376 0.021971777 0.21975738 0.2752273 0.021273896
-0.5970187 -0.026619399 0.18029885 -0.0640959 0.20466426 -0.1033287 0.092460245 0.021978509
-0.48340964 0.21139404 -0.01976542 0.075919665 -0.027979366 0.0027089524 0.09574905 0.20721167
-0.2722749 0.18426336 -0.22191903 0.22911407 0.14870198 0.032298665 0.057255846 0.34136862
-0.11919976 0.18807939 0.13953042 -0.04964128 -0.09114966 0.12071028 0.27889377 -0.5606691
-0.048677076 0.022957418 -0.29157498 0.11699197 -0.22357686 0.20185712 -0.32270274 -0.21325248
-0.34829503 0.12412975 -0.5449591 0.026585748 -0.030688506 -0.17718796 0.052501015 -0.14292888
0.045118555 0.1937793 0.11309362 0.17533025 -0.06836295 0.24192026 0.00045930213 -0.23678826
-0.08137042 0.18836834 0.11112837 0.37845373 -0.26606423 -0.15358858 0.2018942 -0.03721834

net.4.bias f4 [128]
00000000: e415 b13d 5617 873c 6e2d d53d cbb4 8abd
00000010: acab 03bd 467a b8bd 8526 96bb c722 08be
00000020: 0b1a 3e3d ac9d f1bd ea4f afbd e360 093d
00000030: b7fb db3c 1850 813b 3c37 a93d 9c34 9fbd
00000040: 1359 0abe 6b36 e0bd d5cd 9f3c 8432 1ebe
00000050: f57b bdbd eaa9 033b 98f0 d63d 27f5 223e
00000060: b44a b6bc a77d 953d 50ef ffb9 5977 8f3d
00000070: 29c5 b3bd a49f 3fbd db84 843c d547 da3c
00000080: d777 993d 483d 733d 98db 86bd 9dab 003e
00000090: 9535 b13d c579 f43d 32ea bbbd bab2 1e3e
000000a0: f60a 3fbc 0538 a63d b654 eb3c 0fbc d1bc
000000b0: f9b7 f7bd de08 b1bd 1c30 3ebd db6d 883d
000000c0: f237 75bd 5b25 5bbb 14a6 043d 5224 8ebd
000000d0: cc5b 36be adca d5bd dce1 cebd 5d28 f53c
000000e0: ac18 22be a13d ce3d 9c49 093e dfaa f3bb
000000f0: d0a3 cebd 29fd ed3d ca92 d9bd 82d1 b73d
00000100: aec9 bf3d ee99 d13c e920 333e b039 d43d
00000110: b1cf d53c d95f c5bd e0c2 383e de2c d239
00000120: ea88 293c dfa7 f93d ba16 293e 885e 2cbe
00000130: babc 063e 3228 55bd c1ad d8bd cb01 c73d
00000140: 8cb1 1d3d ef8e 863d a7a2 b3bc 88ed 15bc
00000150: 90f9 a7bb 3fa4 6d3e f0b9 adbc 1608 963d
00000160: 7842 a1bd 15ce a33d f2ef 35bd 3d42 533c
00000170: 96ea 803d ea3f c0bd 177b 96bc fd85 25be
00000180: 7cea a73d 5593 5abd 6355 b73d 3815 a3bc
00000190: 8b25 353e 9cee d33d 4c8c 03be 50cf 243e
000001a0: 00ea 003e 4737 93bc 719f 70bb 9d91 6fbd
000001b0: a57d c53d 3557 4dbd 06ca 803d 8ecd b83c
000001c0: f5eb 49bd 08f9 d73d 32d8 80bc 7ca1 b23b
000001d0: d6d3 fe3d a614 02be 86de 553c 6388 333d
000001e0: a9e0 a0bd 7091 bb3d 218d 7abd 691a 673d
000001f0: f9b9 0f3d a7e3 43bc 177d 5e3e 102a 8d3d
0.086467534 0.01649062 0.10409056 -0.06772765 -0.03214614 -0.09007697 -0.0045822286 -0.13294517
0.046411555 -0.11797652 -0.08560164 0.033539664 0.026853425 0.0039463155 0.08262488 -0.07773706
-0.13510542 -0.109478794 0.019507328 -0.15448958 -0.092521586 0.002009029 0.10495108 0.1591383
-0.022252418 0.07299357 -0.00048815692 0.07005186 -0.0877784 -0.046783105 0.016176632 0.02664558
0.07493561 0.059384614 -0.06584853 0.12565465 0.08652798 0.11937288 -0.091755286 0.15497866
-0.011660328 0.08116154 0.028726917 -0.025602369 -0.12095637 -0.086442694 -0.0464326 0.06661578
-0.059867807 -0.0033439014 0.032384947 -0.06940521 -0.17808455 -0.10439048 -0.10101673 0.029926473
-0.15829724 0.100703485 0.13406986 -0.007436141 -0.100898385 0.11620552 -0.10623701 0.08975507
0.09364639 0.025586095 0.17493023 0.103625655 0.026100012 -0.09637422 0.18043089 0.0004008775
0.010347584 0.12190222 0.16512576 -0.16832936 0.13157931 -0.052040286 -0.10580016 0.09717139
0.0384994 0.06570231 -0.021928145 -0.00915087 -0.0051261857 0.23207186 -0.021206826 0.07325761
-0.07874006 0.079982914 -0.044418283 0.01289421 0.06294744 -0.09387191 -0.01836924 -0.16164394
0.08199021 -0.053363163 0.08951833 -0.019907579 0.17690103 0.103482455 -0.12846488 0.16094708
0.12589264 -0.017970694 -0.0036716128 -0.058488477 0.096431054 -0.050131995 0.06288533 0.022558954
-0.04929729 0.10545546 -0.01572809 0.0054513793 0.12442748 -0.12703189 0.013053542 0.04383124
-0.078553505 0.091585994 -0.061169747 0.05642167 0.035089467 -0.011956132 0.21727405 0.068927884

net.6.weight f4 [7, 128]
00000000: 1645 febd 0a78 d93d d1f8 793d 7424 ac3e
00000010: ae0e b0bd 2cf5 ae3e 97eb 943d 7500 ad3e
00000020: 1b75 eb3d 7f4b 403e 2539 7b3e 7cc8 b2bc
00000030: 576a 4c3e ef82 33bf d3ce a73d 26d2 203e
00000040: e36f 893e ae4a 8dbd ca17 5d3e fa1f 1d3f
00000050: 4419 f1bd e0ab 8c3e dedd b3be d507 2b3f
00000060: b5f9 14be a516 323d 160b 42bf 90e1 223e
00000070: 8411 7abe 03f6 b03e 328b e33e 4e51 a7be
00000080: c443 933e 6170 e23c 873a feb9 f7c2 49bf
00000090: 8988 763e 1d2e d3be 3819 1ebd dc87 a2be
000000a0: 0d8e 95bd 8454 89bd 13f3 66bf ecc9 c13e
000000b0: 343b 363e e27f b83e 29cd 7abc 5f02 5cbf
000000c0: fe76 bc3e 2f03 9ebe 631e b33e fd51 8cbd
000000d0: f9d8 ba3d e70f 3dbe 2458 8c3d 1846 903e
000000e0: a517 f13d fb46 65bf 7e77 293e 2f4d 743e
000000f0: 5650 2bbe f86f 053e c857 bfbd 00cf 2bbe
00000100: 1eed 24be 9d18 cfbd 3905 b93e f895 81be
00000110: 7697 0f3e 6a4b 213f 63f3 9d3e 9cab 483e
00000120: 735b 46be 580d afbe 2b1d ecbc 9e5a a3bd
00000130: 092e aabe 1712 82bf 2dbe 523d df4e c0be
00000140: ec9b fdbf 294c 8b3e a2e2 f5be d234 613d
00000150: a83e cdbd 9b95 36bd c0de a73e 95ff 733d
00000160: 7d63 173e e27b 92be 4738 86bd c70f 7e3d
00000170: 8cbd 183e de3c 733e 8103 7d3e 0b9f 13be
00000180: a3d7 0d3e 6083 4dbe ca60 95bb 93e5 adbd
00000190: 7681 e0be 1fc0 7a3e 187a 013e 595c c7be
000001a0: 5779 0f3e 859f b13e 18d5 dcbe eac3 873d
000001b0: 9059 ea3d 30c9 d0be c865 2b3e 16fd d83e
000001c0: e3f7 633d 3450 5dbb 788d 10be 2ea0 44bb
000001d0: d342 a03d a581 ac3b c78b 763e 8ead 14bf
000001e0: 6b6c 69bf 063a 5bbf abaf 6abf 6999 9ebf
000001f0: 6b45 dcbc 6477 c13e 5a25 ebbe aca7 40bf
00000200: b224 fcbd ec3c 683c 8be2 9a3e 64ed a73d
00000210: c7fe 1abd f140 e93d 4880 adbe 0843 cabd
00000220: c3d4 55be 8ff2 373e dcd0 fab8 2d3d 0b3b
00000230: 2234 d83d 9161 6abe a297 89bd b49c 253e
00000240: 28a9 4cbf 3b62 253c dc20 de3d 0a0e 67bf
00000250: dd53 a03d 6924 d2bc 801a 7fbf 4bdc cebe
00000260: f795 d73d 7a57 2e3e 3d63 013f 2fc6 873d
00000270: f8ec 53be c2a6 303d 1092 823e 8d95 573e
00000280: c366 d3bc 7663 e4be 556f 133e 5bd4 b53c
00000290: aa3b 3cbe d1d4 153e 8e5f 35bd 7f66 8d3e
000002a0: 5463 5bbf b202 f4be 5f03 483e 222b 213e
000002b0: e393 1a3d 491c 783e cf02 0f3e 9654 f4bd
000002c0: 3bbe e53e cd23 de3e 9311 36bf da87 ddbd
000002d0: 473d d5be 2ed3 563e d30e 0d3d bd9b 17bf
000002e0: 5c72 84bc 0b89 853e 2aa7 4e3e 49ab e93d
000002f0: b4a3 f53e e17b aa3d 755c 0a3e 5a7e 113e
00000300: 2635 0e3e 1a0d 613e 02ac 053e 7bcd ba3e
00000310: 1f80 42bc fe6c cc3d 75a3 5ebf 4dae 9a3d
00000320: 8a28 8dbe 648f 0b3f 2312 debd c50f 08be
00000330: 181b 20be 2c01 043e 743b 313d 531c 8e3e
00000340: 6376 233e 34c8 113e 9513 cb3d 3613 bc3d
00000350: 607f cbbe d838 a33e 7b7e bd3c 74d8 dcbe
00000360: 94c3 523e 597b 40bf f2aa 5a3d 12d2 2a3d
00000370: 4ed3 49be 5618 00bd e986 21bd 5aa8 22bf
00000380: 3b0b 483e a6b3 cc3d 6eaa 6a3e 93e0 42bf
00000390: a8ea 29bf f806 c9be a56a 8c3e 5137 c0bd
000003a0: 3ab9 e4be 9787 4dbe afd6 5e3e 85bc e83e
000003b0: d135 8dbf 34dd e03d 2d96 9c3d fd6d fd3d
000003c0: 84cb acbd 6f28 c1be 26ed 0a3e 63e7 a93e
000003d0: dbd2 c8be 8322 3f3e 11ef 963e 8d34 16bf
000003e0: 013c 7b3e 3e9a ca3e 2840 283d 5141 803d
000003f0: 8db1 debe 6630 b0bc f812 0f3f a2cb 38bf
-0.12415521 0.10618599 0.061028305 0.33621562 -0.0859655 0.34171426 0.07271498 0.3378941
0.114969455 0.187788 0.24533518 -0.021824114 0.1996244 -0.70121664 0.081937455 0.15705165
0.26843175 -0.0689901 0.21591106 0.6137692 -0.11772397 0.2747488 -0.3513021 0.66808826
-0.1454838 0.043478627 -0.75798166 0.15906358 -0.24420744 0.34562692 0.44442135 -0.32679218
0.2876264 0.027641477 -0.00048490262 -0.7881312 0.24075522 -0.4124612 -0.03859827 -0.31744277
-0.07302485 -0.06705573 -0.9021465 0.37849367 0.17796022 0.36035067 -0.015307703 -0.8594112
0.36809534 -0.30861804 0.3498412 -0.068515755 0.091234155 -0.18463098 0.06852749 0.28178477
0.11772088 -0.8956143 0.16549489 0.23857568 -0.16729864 0.13030994 -0.09342915 -0.16778183
-0.16106078 -0.101121165 0.36136797 -0.2530973 0.14022622 0.630057 0.30849752 0.19596714
-0.19370823 -0.34189868 -0.028822502 -0.07976268 -0.33238247 -1.016177 0.051450897 -0.37560174
-1.9813209 0.27206543 -0.4802447 0.054982014 -0.10021716 -0.04457627 0.32787132 0.059569914
0.14784046 -0.2861014 -0.06553703 0.062026765 0.14916056 0.23753688 0.24708368 -0.14416139
0.1385179 -0.20069647 -0.0045586573 -0.084910534 -0.4384877 0.24487351 0.12644231 -0.38937643
0.14011131 0.34692016 -0.43131328 0.066291645 0.11442864 -0.40778494 0.16738045 0.4238059
0.055656325 -0.0033769729 -0.14116466 -0.00300027 0.07825246 0.0052644783 0.24076758 -0.58077323
-0.9118106 -0.8563541 -0.916743 -1.2390567 -0.02688857 0.377864 -0.45926934 -0.75255847
-0.123116866 0.014174681 0.30250964 0.081995755 -0.03784063 0.1138934 -0.33886933 -0.098760664
-0.20881943 0.17963623 -0.00011959832 0.002124618 0.105568185 -0.22888781 -0.06718375 0.16173059
-0.7994561 0.010094221 0.10846111 -0.90255797 0.07828496 -0.025652127 -0.9964981 -0.40402445
0.105266504 0.17025557 0.5054205 0.066295974 -0.20695865 0.043127783 0.25502062 0.21053143
-0.025805837 -0.44607133 0.14397939 0.022195986 -0.18382135 0.14631964 -0.04428058 0.2761726
-0.8569844 -0.47658306 0.19532536 0.1573911 0.037738692 0.2422954 0.13965915 -0.11930196
0.44871697 0.4338669 -0.71120566 -0.10816927 -0.41648313 0.20978996 0.034437966 -0.5922201
-0.016167812 0.26081118 0.20180956 0.11409623 0.47976458 0.08324409 0.13511832 0.14208356
0.13887462 0.21977654 0.13053897 0.36484894 -0.011871367 0.09981726 -0.86968166 0.075527765
-0.2756999 0.5451567 -0.10843303 -0.13287266 -0.15635335 0.12891072 0.04326959 0.27755985
0.1596313 0.14236528 0.09915844 0.09183352 -0.39745617 0.31879306 0.0231316 -0.4313389
0.2058242 -0.75188214 0.053385682 0.041704245 -0.19709513 -0.03127321 -0.0394353 -0.63538134
0.19535534 0.09995203 0.22916576 -0.76123923 -0.6637368 -0.3926313 0.27425113 -0.09385551
-0.44672567 -0.20071255 0.21761583 0.4545633 -1.1032048 0.10979691 0.07645831 0.12374494
-0.08437255 -0.3772616 0.13567027 0.33184347 -0.3922337 0.18665509 0.29479268 -0.58673936
0.24534608 0.39570802 0.04107681 0.06262458 -0.43494835 -0.021507453 0.5588832 -0.7218572

net.6.bias f4 [7]
00000000: 3497 26bd 6c27 5e3b 4771 06be f4a9 613c
00000010: e9b1 62bd 4216 f73d 92d4 d4bd
-0.040671542 0.003389801 -0.1312915 0.01377343 -0.05534545 0.12064792 -0.10392107
