experts/DQN/net_configs/adversary_dqn.pth (torch, 160587 bytes, 8 tensors)

net.0.weight f4 [128, 42]
0	0x3f127971	0.57216555
1	0x3fad43cd	1.3536316
2	0x4036fa44	2.859025
3	0x3e908212	0.28224236
4	0xbefb6a24	-0.49104416
5	0xbf8a1544	-1.078774
6	0xc081a42c	-4.0512905
7	0x3f58393b	0.84462327
8	0x3de94f01	0.11392022
9	0x3f020755	0.5079244
10	0x3fb9fd14	1.4530358
11	0x3ed4074d	0.4141182
12	0xbfba5ec0	-1.4560165
13	0x3ffc757b	1.9723352
14	0x3f9ef0f2	1.2417281
15	0xbf95da10	-1.1707172
16	0xc040644b	-3.0061214
17	0xbf7ad322	-0.97978413
18	0xbfaa0d29	-1.3285266
19	0xc04889ed	-3.1334183
20	0xbf31c506	-0.6944126
21	0x3f4052f3	0.7512657
22	0x3f1ce14f	0.61281294
23	0x3faa6389	1.3311626
24	0x3e81ef5e	0.25377935
25	0x3fac7ae0	1.3474998
26	0xbf33e9e3	-0.7027876
27	0xbf959f2e	-1.1689203
28	0x3fcdd6ce	1.6081178
29	0xbee523a0	-0.44753742
30	0xbfdde83f	-1.7336501
31	0xc0385677	-2.8802774
32	0x3e8468fe	0.25861353
33	0x3eeafb7f	0.45895
34	0xbecdbd76	-0.4018361
35	0xbf31de71	-0.69480044
36	0x3d888f2d	0.066679336
37	0xbfc2aa64	-1.5208249
38	0x3e149daf	0.14513277
39	0x3fb32ef9	1.399871
40	0xbe8f1cbb	-0.27951607
41	0x3e2a3cd8	0.16624773
42	0xbf2e0969	-0.6798311
43	0xc00a9ba7	-2.1657503
44	0xc064a53d	-3.5725853
45	0x3fdc507e	1.7212064
46	0xbed241b6	-0.41065758
47	0x3fb2de74	1.3974137
48	0xbe74141d	-0.23835798
49	0x400b096e	2.1724505
50	0xbfeeb374	-1.8648515
51	0xbe6f066a	-0.2334229
52	0xbeda03b4	-0.4258095
53	0xc05059f9	-3.2554915
54	0xbf1fed92	-0.6247188
55	0xc05f5e36	-3.4901252
56	0x3ce7455c	0.028231315
57	0x3f2be728	0.6714959
58	0x3f349fcb	0.70556325
59	0xbf6f6035	-0.93506175
60	0x3fb0612c	1.3779655
61	0x3f8affdc	1.0859332
62	0x4028ee42	2.639542
63	0xbf6a71a0	-0.9157963
64	0xbf406a2d	-0.7516201
65	0x3f30d695	0.69077426
66	0xbef79fda	-0.48364145
67	0x3f3fc1cc	0.74905086
68	0x3ff8a6f3	1.9425949
69	0xbfa3742a	-1.2769825
70	0xbfccf537	-1.6012334
71	0xc05e2c6e	-3.4714618
72	0x3fc6b901	1.5525209
73	0x3fca0dfc	1.5785518
74	0xbfa504c4	-1.2892079
75	0x3f0968b0	0.53675365
76	0x3f16dee2	0.5893384
77	0xbe69f2d5	-0.2284654
78	0xbe04bede	-0.12963435
79	0x3f605817	0.87634414
80	0xbf9291dd	-1.1450764
81	0x3f14b3fe	0.58087146
82	0xbf026d93	-0.50948447
83	0x3eab66a3	0.33476743
84	0x3f8c1762	1.0944636
85	0xbe78436f	-0.24244474
86	0x3fbd28f2	1.477812
87	0xbfda2291	-1.7041799
88	0x3f28956c	0.65853
89	0xc0157029	-2.3349707
90	0xc06cdac2	-3.700852
91	0x3efa5e23	0.48899946
92	0xc000e399	-2.0138915
93	0x3fb93cf8	1.4471731
94	0xbf1f2df9	-0.62179524
95	0x3f7136f5	0.9422448
96	0x3e19bbea	0.1501309
97	0xbfcbadc1	-1.59124
98	0x3fcbbb72	1.5916579
99	0xc06a4d97	-3.6609857
100	0x403cede5	2.95202
101	0x3fe1b1a2	1.7632334
102	0x3edb8fe6	0.42883223
103	0x3e645906	0.22299585
104	0xbf4c3908	-0.7977452
105	0x3e1b1c4c	0.15147513
106	0x3fc4e103	1.5381168
107	0x40242b10	2.5651283
108	0x3e07e9b0	0.13272738
109	0xc052222b	-3.2833354
110	0x3ebf871f	0.37407777
111	0xbf0a7702	-0.5408784
112	0x3f3061ad	0.6889904
113	0xbfb9ba1e	-1.4509923
114	0xbfe84f07	-1.8149117
115	0xbf298569	-0.6621919
116	0x3fb5ec23	1.4212688
117	0x3f1a4821	0.6026631
118	0x3f19bd6b	0.60054654
119	0x3e9a36ae	0.30119842
120	0xbe4aa86e	-0.19790813
121	0xbe03dcc8	-0.1287719
122	0xbf228f46	-0.6349987
123	0x3f83cf20	1.0297585
124	0xbe992fd9	-0.29919317
125	0x3e2d5236	0.16925892
126	0x3fca4eac	1.5805259
127	0x3f840e5c	1.0316882
128	0x3f949116	1.1606777
129	0x3e322482	0.17396739
130	0xbe37ed4a	-0.17961612
131	0xbfcac007	-1.5839852
132	0xc0373945	-2.8628705
133	0xc054d517	-3.325506
134	0x3f18ab96	0.5963682
135	0xbf44bd36	-0.7685121
136	0x3e84f9f9	0.25971964
137	0x4028d70f	2.6381261
138	0xbf56059b	-0.83602303
139	0x3ea093c4	0.31362736
140	0x3e1836b9	0.14864625
141	0x3fb76f0f	1.4330767
142	0xc03b7f39	-2.92964
143	0xbfaf3ec2	-1.3691027
144	0xbf4eac34	-0.8073151
145	0x3f745379	0.9543987
146	0xbffda9a3	-1.9817394
147	0x401fdc37	2.4978158
148	0xbfeffe11	-1.874941
149	0x3fa707b6	1.3049228
150	0xbfb85829	-1.4401904
151	0xbeaad404	-0.3336488
152	0xbfb627b2	-1.4230864
153	0xbf9ed636	-1.2409122
154	0x3fd5fc46	1.6717613
155	0xbe030f18	-0.12798727
156	0x3d97a7f7	0.074050836
157	0x3fe33096	1.7749202
158	0x3f17f303	0.5935518
159	0x3d923d2a	0.07140572
160	0xbd7afbc8	-0.061275274
161	0xbe30aaaf	-0.1725261
162	0xbf40613a	-0.75148356
163	0x3e454d58	0.19267786
164	0xbdce9f08	-0.100889266
165	0xbda58812	-0.08082594
166	0xc010e8b4	-2.264203
167	0x3f28ea6a	0.6598269
168	0xbf9e94be	-1.2389143
169	0x3f384d00	0.7199249
170	0x3ffdb2cb	1.9820188
171	0xbf8b70d3	-1.0893806
172	0x40049782	2.0717473
173	0xc01b6f60	-2.4286728
174	0x40079d58	2.1189785
175	0xc06f1b97	-3.736059
176	0x3f4cb9ee	0.79971206
177	0xbe1aa519	-0.15102042
178	0x3ea6eec3	0.32604036
179	0x3d9592ee	0.07303415
180	0xbd6d418c	-0.05792384
181	0x3f7315ce	0.94955146
182	0xc095e290	-4.6839066
183	0x4002568b	2.0365322
184	0xbe171e54	-0.14757663
185	0x3f4fd416	0.8118299
186	0x3fd4d474	1.6627336
187	0x3fb74ee5	1.4320952
188	0xbed7efb3	-0.42175063
189	0xbfdeb5ab	-1.7399191
190	0x3e3c242d	0.18373175
191	0x3f0d51ea	0.55203116
192	0xc03a01e2	-2.906365
193	0x3fa14f9e	1.2602422
194	0x3f7358a7	0.9505715
195	0x3f3b615a	0.7319542
196	0x4045f485	3.0930493
197	0xbf4bb7dc	-0.7957742
198	0x3edccbe0	0.43124294
199	0xbf107411	-0.56427103
200	0xbf9b3e93	-1.2128471
201	0xbef610c2	-0.4805966
202	0xc020d117	-2.5127618
203	0x3f23a27c	0.63919806
204	0xbf32e6c7	-0.6988339
205	0x3e927527	0.28605005
206	0xbe97f97a	-0.29682523
207	0x3ef2a5c3	0.4739209
208	0xbfac1d73	-1.3446487
209	0xbf287c80	-0.6581497
210	0xbf77c80c	-0.9678962
211	0x3f991e89	1.1962444
212	0xbe8ddd88	-0.27708077
213	0x4000f107	2.0147111
214	0xbfe271f9	-1.7691032
215	0x3fa639bd	1.298637
216	0xbf5fc42b	-0.87408704
217	0xbe23d2ac	-0.15998334
218	0x3f7e9b6a	0.99455893
219	0x3e8efe90	0.2792859
220	0x3ed28183	0.41114435
221	0x4009e391	2.1545146
222	0xbfc98b21	-1.5745584
223	0xbeebdb86	-0.4606592
224	0xc02b61ec	-2.6778517
225	0xbee05ff6	-0.43823212
226	0x3e02c1cc	0.1276924
227	0xc009320f	-2.1436803
228	0x400a1f08	2.158144
229	0x3f34932d	0.7053707
230	0x3fd66df6	1.6752307
231	0x3f697ab3	0.9120285
232	0xbf41bf28	-0.75682306
233	0x3f3f40fc	0.74708533
234	0xbeabd6a4	-0.33562195
235	0x3f74b63f	0.95590585
236	0x3ec200ca	0.37891227
237	0xbf94cde1	-1.1625329
238	0x3d932212	0.07184233
239	0xbebc1645	-0.3673574
240	0x3fa37114	1.2768884
241	0xbe3d4a2d	-0.18485327
242	0xbf97a74a	-1.1847928
243	0x3ea6c593	0.32572612
244	0x3f4d2400	0.80133057
245	0xbfc5722f	-1.5425471
246	0xbfb4ee45	-1.4135214
247	0xbff8f9b3	-1.9451202
248	0x3f9f2eed	1.2436196
249	0xbde89b27	-0.11357718
250	0xbf57a0f8	-0.84229994
251	0xbebdae9f	-0.37047288
252	0x3fd1694a	1.6360257
253	0xbf9693b3	-1.1763824
254	0x3ee9a24a	0.4563163
255	0xbecbf74c	-0.3983711

net.0.bias f4 [128]
0	0xbe56a57d	-0.20961566
1	0xbff8850e	-1.9415605
2	0xbf2b1cdb	-0.66840905
3	0xbe844737	-0.25835583
4	0xbdccd0c5	-0.10000757
5	0xbf881560	-1.0631523
6	0xbf86f20c	-1.0542617
7	0xbf6507a4	-0.89464784
8	0x3e508f3b	0.20367138
9	0xbff7428a	-1.9317181
10	0xbf81ee53	-1.0150856
11	0xbfe2e220	-1.7725258
12	0xc01126ca	-2.2679925
13	0xbf04da26	-0.5189537
14	0xbf0677f5	-0.5252679
15	0xbf0fb416	-0.56134164
16	0xbf3e42fb	-0.74320954
17	0xbfbc6cb6	-1.4720676
18	0xbfa3c577	-1.2794636
19	0xbfd6437d	-1.6739346
20	0xbead4433	-0.33841094
21	0xbf89df59	-1.0771285
22	0xbf92cde5	-1.1469084
23	0xbfb071cd	-1.3784729
24	0xbf0d6df6	-0.5524591
25	0xbe707971	-0.23483826
26	0xc01a9ffe	-2.4160151
27	0xbf0f82d1	-0.56058985
28	0xbf766409	-0.9624639
29	0xbf22f375	-0.63652736
30	0xbfa2dc92	-1.2723563
31	0xbfcad8d8	-1.5847425
32	0xbfca4d9d	-1.5804936
33	0xbf97b73a	-1.1852791
34	0xbe593d21	-0.21214725
35	0xbfc1c923	-1.5139507
36	0xbf96825a	-1.175853
37	0x3e1fc957	0.15604149
38	0xc01a1606	-2.4075942
39	0xbfded2c3	-1.7408069
40	0xbfa325f6	-1.274596
41	0xbf819cb8	-1.0125952
42	0xbf1a4598	-0.6026244
43	0xbf614779	-0.87999684
44	0xbf31c0ad	-0.69434625
45	0xbf345c60	-0.70453453
46	0xbf200d8b	-0.62520665
47	0xbee5059e	-0.44730848
48	0x3b5e1dd4	0.003389229
49	0xbf15b686	-0.58481634
50	0xbfcaf3db	-1.5855669
51	0xbfc8e210	-1.5693989
52	0xbfa4696f	-1.2844676
53	0xbcaa01ef	-0.020752875
54	0xbfcd9501	-1.6061097
55	0xbf2b124a	-0.6682478
56	0xbfde75d1	-1.7379705
57	0xbff30372	-1.8985426
58	0xbf936a13	-1.1516746
59	0xbf3a4656	-0.72763574
60	0xbf4ebc75	-0.8075631
61	0xbfb1936a	-1.3873112
62	0xbea9019a	-0.33009034
63	0xbd865455	-0.06559054
64	0xbfa6a503	-1.3019108
65	0xbf1665dc	-0.58749175
66	0xbfd56638	-1.667182
67	0xbf197a85	-0.59952575
68	0xbf2b8a2b	-0.670077
69	0xbe89ce60	-0.26915264
70	0xbf6dab17	-0.9283919
71	0x3de6d6c4	0.11271432
72	0xbfed8f4b	-1.8559355
73	0xbeeee0e2	-0.46655947
74	0xbe98973c	-0.29802883
75	0xbf715d19	-0.9428268
76	0xbf31e26d	-0.69486123
77	0xbf9c6e67	-1.2221192
78	0xbf19a63a	-0.60019267
79	0xbf755d34	-0.9584534
80	0xbf4bad11	-0.79560953
81	0xbf41daf5	-0.75724727
82	0xbfed2bf4	-1.8529038
83	0xbc856586	-0.016283762
84	0xbfb761bf	-1.4326705
85	0xc0118454	-2.2737017
86	0xc010b38c	-2.2609587
87	0xbf8634b7	-1.0484837
88	0xbfa026b2	-1.2511809
89	0xbf9e3c3b	-1.2362131
90	0xbfbe4ea0	-1.4867744
91	0xbf6ec880	-0.9327469
92	0xbf37b61b	-0.71762246
93	0x3e46d0b8	0.19415557
94	0xbe0f187c	-0.13974184
95	0xbfa1cb97	-1.2640256
96	0xbe204734	-0.15652162
97	0x3ee28f80	0.44250107
98	0xbf0a89bc	-0.54116416
99	0xbff9eed6	-1.9526012
100	0xbfa6fcec	-1.3045936
101	0xbfdfac1d	-1.74744
102	0xbe797faa	-0.24365106
103	0x3df13210	0.11777127
104	0xbd1e41ce	-0.038636975
105	0xbf378dd8	-0.7170081
106	0xbf1a30ae	-0.6023053
107	0x3d01a525	0.031651635
108	0xbf8c856e	-1.097822
109	0x3dc6f748	0.09715134
110	0x3ed96d56	0.4246623
111	0x3de690e9	0.11258108
112	0xbf34b351	-0.70586115
113	0xbf2c05d8	-0.67196417
114	0xbdd65935	-0.10466234
115	0xbf9df89b	-1.2341493
116	0xbfc40bf6	-1.531615
117	0xbf8b7cb3	-1.089743
118	0xc00e4c39	-2.2234023
119	0xbe9298eb	-0.28632292
120	0xbf3d93fd	-0.7405394
121	0xbf2081c4	-0.62698007
122	0xbeebaf71	-0.4603229
123	0xbfa10ffd	-1.2583004
124	0xbf312ce5	-0.6920913
125	0xbf6c6433	-0.9234039
126	0xbec9cd00	-0.39414215
127	0xbfc98249	-1.5742885

net.2.weight f4 [128, 128]
0	0xbf1212d3	-0.57059973
1	0xbf6d8507	-0.9278111
2	0xbf2f4623	-0.68466395
3	0x3ec41fcf	0.38305518
4	0xbf386ec9	-0.72044045
5	0xbff5223c	-1.9151073
6	0x3ff1a1ef	1.8877543
7	0x3f98695c	1.1907153
8	0x3f76f841	0.96472555
9	0x400ed814	2.2319384
10	0x3f379444	0.7171061
11	0x3f9e5f4d	1.2372833
12	0x3f7816e0	0.96909904
13	0xbfad301e	-1.3530309
14	0xbf81fdd2	-1.0155585
15	0xbf5a4403	-0.8526003
16	0xc02515e0	-2.5794601
17	0x3fc7fab1	1.562338
18	0xc0214529	-2.5198462
19	0x3ea58ba1	0.3233309
20	0xbf5ae3a3	-0.85503596
21	0x4007237a	2.1115403
22	0x3f830995	1.0237299
23	0x3f0c4fa0	0.54809
24	0xbb1d99e4	-0.0024048025
25	0xc016338c	-2.3468962
26	0x3fa99fec	1.3251929
27	0x3f06b582	0.5262071
28	0x3feb1d73	1.8368362
29	0xbf737a1d	-0.95108205
30	0xbf681b76	-0.906669
31	0x3f630e86	0.88694036
32	0x3ef24e93	0.47325572
33	0xbe275ad8	-0.16343248
34	0xc0133d62	-2.3006215
35	0xbff217e7	-1.8913544
36	0x3ff29d5e	1.8954275
37	0x3f78fc48	0.9725995
38	0xbfbd6fa1	-1.4799691
39	0x3f4ca813	0.7994396
40	0xbf9df2eb	-1.2339758
41	0x3fcca3c3	1.5987476
42	0x3e277861	0.16354515
43	0xbdf7fc47	-0.12108665
44	0x3ff50b3f	1.9144057
45	0x3eaf262b	0.34208807
46	0x3f646ed0	0.89231586
47	0xbebad088	-0.36487222
48	0xbf3e1720	-0.74254036
49	0x3e87976e	0.2648272
50	0x3f061f66	0.5239166
51	0xc0230d6a	-2.5476937
52	0xbfe4157e	-1.7819059
53	0x3efe094a	0.49616462
54	0xbd14e293	-0.03634889
55	0xc013057a	-2.2972093
56	0xbba7e8b3	-0.0051241755
57	0x404eaa58	3.229147
58	0x3fabde39	1.3427192
59	0xbd835ea2	-0.06414534
60	0xbd9e1cb9	-0.07720322
61	0x3e68ee93	0.22747259
62	0xc01f85c7	-2.4925401
63	0x40020e03	2.0321052
64	0x3ff7f3e4	1.9371305
65	0x3f18fdf6	0.59762514
66	0x3f7cfaf0	0.988204
67	0xbf3e4c5f	-0.74335283
68	0xc001e9aa	-2.0298867
69	0xc0ecd87a	-7.4014254
70	0xbf80e8e9	-1.0071079
71	0x3f6b007c	0.91797614
72	0xbff0cdde	-1.8812826
73	0x3cf5cdae	0.030005302
74	0xbdfbcc23	-0.12294795
75	0x3f3552fc	0.7082975
76	0x3f80112a	1.0005238
77	0x3de1d3c4	0.11026719
78	0x3f715f16	0.94285715
79	0x3fae047f	1.3595122
80	0xbf50a3a4	-0.81499696
81	0x3f3a263e	0.727146
82	0xc00e3226	-2.2218108
83	0x3f65e768	0.8980622
84	0x3d8203fc	0.06348416
85	0xbf100058	-0.56250525
86	0xbf269d39	-0.6508365
87	0xbf96653c	-1.1749644
88	0xbfbb00bd	-1.46096
89	0xbf410be1	-0.7540875
90	0x3f530ee7	0.82444614
91	0xbf533ba6	-0.8251289
92	0xc029e687	-2.6546953
93	0xbf31f63f	-0.69516367
94	0xbfc306a5	-1.5236403
95	0x3ebdd54d	0.37076798
96	0xbe22d240	-0.15900517
97	0x3f33dfac	0.7026317
98	0xbfc712fe	-1.5552671
99	0xc00b4b1d	-2.1764596
100	0xc00da7cb	-2.2133663
101	0xbc231559	-0.00995382
102	0xbf3cae35	-0.7370332
103	0xc02acb50	-2.6686592
104	0xbf00e662	-0.50351536
105	0xbe5effd6	-0.21777281
106	0xbf8e13d7	-1.1099805
107	0x3f432d1f	0.76240724
108	0xc01b52ee	-2.4269366
109	0x3fa3a9e3	1.278622
110	0xbeec868e	-0.46196407
111	0x3f903290	1.126543
112	0x400d862e	2.2113147
113	0x3f51e1d2	0.819852
114	0x3e7b2f52	0.2452977
115	0xbf22cf6d	-0.63597757
116	0xbf2168d4	-0.6305058
117	0xbd0f0442	-0.03491617
118	0x3f91c561	1.138836
119	0xc027e3a2	-2.6232686
120	0x3f19b7a6	0.6004585
121	0xbfb081ea	-1.3789647
122	0xbf4533a4	-0.7703192
123	0x3f592a4c	0.84830165
124	0x3fc81895	1.5632502
125	0x3fc81b33	1.56333
126	0xbff11e23	-1.8837322
127	0xbda0984c	-0.07841548
128	0xbf54812a	-0.8300959
129	0xc01ca7ce	-2.447742
130	0xbfa51744	-1.2897725
131	0xbf867591	-1.0504628
132	0xbe79d4ce	-0.24397585
133	0xbeb7acd8	-0.35874057
134	0xbe7c5b9f	-0.24644326
135	0xbf8aa866	-1.0832641
136	0x401623cb	2.3459346
137	0xbfa348d2	-1.2756598
138	0xbedb6c16	-0.428559
139	0x3f8f56dd	1.1198384
140	0xbebeb9a5	-0.3725101
141	0xbf6757bb	-0.9036824
142	0xbda01ec5	-0.07818369
143	0xbf0359c2	-0.51308835
144	0x3fe65b71	1.7996656
145	0xbe79c6fc	-0.24392313
146	0x3ec0302e	0.37536758
147	0x3fc98cb4	1.5746064
148	0xbec3a060	-0.38208294
149	0xbf8c05ed	-1.0939308
150	0x3d9a10df	0.07522749
151	0xbf49cc10	-0.78827
152	0xbf73d689	-0.9524923
153	0xbf948fd4	-1.1606393
154	0xbfa1b9e0	-1.263485
155	0x3e1544d5	0.14577039
156	0xbebd7a52	-0.37007385
157	0xbeb2762a	-0.34855777
158	0xbe31e1fa	-0.1737136
159	0xc036a522	-2.853829
160	0xbf90d1fc	-1.1314082
161	0xbee6f153	-0.4510599
162	0xbd973c52	-0.07384552
163	0xbff7a4e7	-1.9347199
164	0x40259b66	2.5876098
165	0xc00afd23	-2.1717002
166	0x3de948cb	0.11390837
167	0x3fd9eb1f	1.7024878
168	0xbfbc6a3c	-1.471992
169	0x3f9b7d02	1.2147524
170	0xbf1dea43	-0.6168558
171	0xbe34ab1f	-0.17643403
172	0x402adf23	2.6698692
173	0xbede61e0	-0.43434048
174	0xbf2e98aa	-0.68201697
175	0x3f61069b	0.87900704
176	0xc0219373	-2.5246246
177	0x3f87d076	1.0610492
178	0x3fde17a2	1.7350962
179	0x3e45fe69	0.19335331
180	0xbf637c74	-0.88861775
181	0x3f383946	0.7196239
182	0x3fb55daf	1.4169215
183	0x3f936003	1.1513675
184	0x3fd016b5	1.625693
185	0x3f921d9b	1.1415285
186	0xbf187fe5	-0.5957015
187	0x3f98d61d	1.1940342
188	0x3ea646df	0.32475945
189	0x3e4e23dc	0.20130867
190	0xbea3e04f	-0.3200707
191	0x3f63aab3	0.8893234
192	0x3f953705	1.1657416
193	0x3f86f18f	1.0542468
194	0x3ececcd0	0.40390635
195	0xbef9426f	-0.48683497
196	0xbec54cdd	-0.38535205
197	0x3f03605b	0.513189
198	0x3e12542e	0.14289925
199	0xbfab2ee3	-1.3373684
200	0x3e7bdfc6	0.24597082
201	0x3f47991b	0.77967995
202	0xbf0518ab	-0.51990765
203	0x3eb6f642	0.35734755
204	0xbf461ad5	-0.7738469
205	0x3f871cc3	1.0555652
206	0xbf22354a	-0.6336256
207	0xbfdd8838	-1.7307196
208	0xbf34d51e	-0.7063769
209	0xbed5fa7e	-0.41792673
210	0xbf0839e9	-0.53213364
211	0xbf70d697	-0.9407744
212	0x3ee393cb	0.44448695
213	0x3fd71566	1.6803405
214	0xbf804c19	-1.0023223
215	0x3f3f9685	0.7483905
216	0x3f8a7388	1.0816507
217	0x3f4ada62	0.79239476
218	0xbd4a4339	-0.049380515
219	0xbfd1fcbc	-1.6405253
220	0xc0006359	-2.0060637
221	0xc00130c1	-2.0186007
222	0xbf9b5fa9	-1.2138568
223	0x3ef17cdb	0.4716557
224	0x3eb3bed2	0.35106522
225	0xbf297b2a	-0.6620356
226	0xbe9b169e	-0.30290693
227	0x3ebd5eb9	0.3698633
228	0x3eb1de63	0.3473998
229	0x3ff68802	1.9260256
230	0x3e5cdccb	0.21568601
231	0xbf9e301d	-1.2358433
232	0x3f16082f	0.5860624
233	0xbf7cf105	-0.98805267
234	0x3e53f125	0.20697458
235	0x3e43562a	0.19075838
236	0xbf21b48c	-0.6316612
237	0x3f7006a5	0.9376014
238	0xbe8807fe	-0.26568598
239	0x3f370909	0.7149816
240	0x3f6c5f4b	0.92332906
241	0xbf93ac81	-1.1537019
242	0xc0139ecb	-2.306567
243	0x403b6615	2.9281056
244	0xc02c44b3	-2.691693
245	0x3da35a16	0.07976167
246	0xc009fedf	-2.156181
247	0xbef90cd7	-0.4864261
248	0xbf90c916	-1.1311367
249	0xc067ef7d	-3.6239922
250	0xbff5375c	-1.9157519
251	0x3f0827ca	0.53185713
252	0x3f88c0ae	1.0683801
253	0x3c81ca52	0.015843544
254	0xc055e530	-3.3421135
255	0xbec7a5e5	-0.38993755

net.2.bias f4 [128]
0	0xbfc47816	-1.5349147
1	0xbea20917	-0.3164756
2	0xbf87ef91	-1.0619985
3	0x3ed34bab	0.41268668
4	0xbf970c2a	-1.1800587
5	0x3ec6ecb6	0.3885247
6	0xbf4f3c74	-0.8095162
7	0xc02365a1	-2.553078
8	0xbf4b2661	-0.79355437
9	0xc00836a3	-2.1283348
10	0xbec484bb	-0.38382515
11	0xbe3b38d2	-0.18283394
12	0xbf1d1950	-0.6136675
13	0xbf4e1209	-0.8049627
14	0xbf46c75c	-0.7764795
15	0xbf144d53	-0.5793049
16	0xbf2f8c50	-0.68573475
17	0xbffd5e77	-1.9794453
18	0xbf750fc1	-0.95727164
19	0xbf87a048	-1.0595789
20	0xbe53ce7a	-0.20684233
21	0xbf4edab4	-0.80802464
22	0x3e2991b8	0.16559494
23	0xbf22369e	-0.6336459
24	0xbefaafce	-0.48962253
25	0xbf6072de	-0.87675273
26	0xbea9e949	-0.33185795
27	0xbf238002	-0.638672
28	0x3e13a9c6	0.14420232
29	0x3fbbe9f9	1.4680778
30	0xbe9f2ca3	-0.31088743
31	0x3c244463	0.01002607
32	0x3e6e5669	0.2327515
33	0xbe1fd23e	-0.15607545
34	0xbe055db7	-0.1302403
35	0xbeb82f6c	-0.3597368
36	0xbf98cfcc	-1.1938415
37	0xbe91acff	-0.28452298
38	0xbf8074cf	-1.0035647
39	0xc00d656e	-2.2093158
40	0x3e28e900	0.16495132
41	0x3e2b497d	0.16727252
42	0xbed2e328	-0.4118893
43	0xbfa81e19	-1.3134185
44	0x3e0bb59a	0.13643494
45	0xbf8743c6	-1.0567558
46	0x3cc693b1	0.024240347
47	0xbfb703e9	-1.4298068
48	0xbe42b23f	-0.19013308
49	0xbefa1867	-0.48846743
50	0xbed2dddb	-0.41184887
51	0xbf1a80fc	-0.60353065
52	0xbf9c604d	-1.2216889
53	0x3f99c785	1.2014014
54	0x3ed48b04	0.4151231
55	0xbf13121d	-0.57449514
56	0xbf82f19f	-1.0229987
57	0xbf4a9367	-0.7913117
58	0xbfa5b08b	-1.2944502
59	0xbfbede1d	-1.4911534
60	0x3bde801e	0.006790175
61	0xbf20a152	-0.62746155
62	0xbfaa9f4f	-1.3329867
63	0xbfa331d9	-1.2749587
64	0x3cd6dcff	0.026228426
65	0xbf05a892	-0.5221034
66	0x3e63bd3d	0.22240157
67	0x3d92d8d6	0.071702644
68	0xbf5fcbfd	-0.87420636
69	0xbfbd8054	-1.4804788
70	0xbf1fe2f1	-0.6245566
71	0x3c40d03b	0.011768396
72	0xbfc7966a	-1.5592778
73	0xbff92c5d	-1.9466664
74	0xbf51a971	-0.8189917
75	0xbeb7e3fb	-0.35916123
76	0xbe93aafe	-0.28841394
77	0xc039724e	-2.8976016
78	0xbf879593	-1.0592521
79	0xbe112959	-0.14175929
80	0xbfb45d64	-1.4091
81	0xbee428a2	-0.4456225
82	0xbf3828a0	-0.7193699
83	0x3f162240	0.5864601
84	0xbf75d4c6	-0.9602779
85	0xbfa442db	-1.2832903
86	0xbf86a275	-1.0518328
87	0xbf29d536	-0.6634096
88	0xbf911b31	-1.1336423
89	0xbf22cc7a	-0.63593256
90	0xbf415c8f	-0.7553186
91	0x3e0edf46	0.1395236
92	0xbf89ae1a	-1.0756257
93	0xbf0bb46d	-0.5457218
94	0xbec2a74c	-0.38018262
95	0xbf9115bb	-1.1334757
96	0xbf0cb51b	-0.54963845
97	0x3e9dfe87	0.3085825
98	0xbf6f3f3c	-0.93455863
99	0xbf0bf295	-0.54667026
100	0xbf298eb6	-0.66233385
101	0xbf1c9151	-0.61159235
102	0xbe53efaa	-0.20696893
103	0xbfc0b0e9	-1.5053989
104	0xbf6de260	-0.92923546
105	0xbfc77cf1	-1.5585004
106	0x3db1e237	0.08685725
107	0xbfb48d66	-1.4105651
108	0xbe86a5d0	-0.2629838
109	0xbf4143ef	-0.75494283
110	0xbf85de05	-1.045838
111	0xbeabc330	-0.33547354
112	0xbfddc2db	-1.732509
113	0xba77a66b	-0.00094471005
114	0xbfd35689	-1.6510783
115	0xbfad3f19	-1.3534881
116	0x3e21eaae	0.1581218
117	0xbcaa7ae8	-0.02081056
118	0xbee10e09	-0.4395602
119	0xbeac3296	-0.33632344
120	0x3dd407c5	0.103530444
121	0xbf2cdb89	-0.67522484
122	0xbf27a0dc	-0.65479827
123	0x3e7d8273	0.24756794
124	0xbefe8b06	-0.4971544
125	0xbf585f54	-0.8452046
126	0xbe2cd186	-0.16876802
127	0x3e93037d	0.287136

net.4.weight f4 [128, 128]
0	0x3d1123e9	0.035434637
1	0x3f3b5871	0.73181826
2	0xbf0341fa	-0.5127255
3	0x3f6bdca3	0.9213354
4	0xbee16711	-0.44023946
5	0xbe03c421	-0.12867786
6	0xbe164940	-0.1467638
7	0xc01db84a	-2.464373
8	0xbfad4ce8	-1.3539095
9	0x3d90dbcf	0.07073175
10	0xbccff841	-0.025386931
11	0xbcff43ec	-0.031160317
12	0xbfdaacc5	-1.7083975
13	0xbfaf7970	-1.3708935
14	0xbe65c59a	-0.2243866
15	0xbfc2e8c6	-1.5227287
16	0xbe940676	-0.2891118
17	0xbea275a3	-0.31730375
18	0xbe9f155a	-0.31070977
19	0xbe61b0bc	-0.22040075
20	0x3d9a2b76	0.07527821
21	0x3f156a40	0.5836525
22	0xc01edecf	-2.4823492
23	0xbe7a1c4b	-0.24424855
24	0xbf4e7e64	-0.80661607
25	0xbd98c294	-0.07458988
26	0xbec82733	-0.39092407
27	0xbf0e4d69	-0.5558687
28	0xbe9be7f1	-0.30450395
29	0xbf46bb3c	-0.77629447
30	0xbf8a6573	-1.081221
31	0xbfb5a2dc	-1.4190326
32	0x3fe2716f	1.7690867
33	0xbf8b317c	-1.0874476
34	0xbf763d2f	-0.9618711
35	0xbfe4fce5	-1.7889677
36	0xc003ca52	-2.0592237
37	0xbf7d53ac	-0.989558
38	0xbfeecc4d	-1.8656098
39	0x3f010a1f	0.5040607
40	0xbf3f1063	-0.7463438
41	0xbcd62feb	-0.026145896
42	0x3eab8ce9	0.33505943
43	0xbfa011a5	-1.2505385
44	0x3e0f1bb1	0.13975407
45	0x3f044373	0.5166542
46	0x3eefbb1c	0.4682244
47	0xbf319396	-0.69365823
48	0xbeb206bd	-0.34770766
49	0x3e86ab92	0.26302773
50	0xbe94caa0	-0.2906084
51	0xbea59430	-0.3233962
52	0xbfddf9a5	-1.734181
53	0x3e2e030d	0.16993351
54	0xbee495a2	-0.4464541
55	0xbe0c7750	-0.13717389
56	0xbf18e7a0	-0.5972843
57	0xbd8d1d22	-0.06890322
58	0x3fbe3583	1.486008
59	0xbf8b8814	-1.0900903
60	0xbf8883ca	-1.0665219
61	0x3dcab5bb	0.098979436
62	0x3ee95b3b	0.45577416
63	0xbef4ad1a	-0.47788316
64	0xbfd1386f	-1.6345347
65	0xbff4d810	-1.9128437
66	0xbff0a8b5	-1.8801485
67	0x3e8fd548	0.28092408
68	0xbfb7292b	-1.4309438
69	0xbd80b41f	-0.06284355
70	0xbf66721a	-0.90017855
71	0xbf0b9f7a	-0.54540217
72	0xbf86d570	-1.0533886
73	0xc001295d	-2.0181496
74	0xbff8549b	-1.940082
75	0x3d226539	0.039647315
76	0xbf922f23	-1.1420635
77	0xbee46a96	-0.4461257
78	0xbf60c37f	-0.87798303
79	0x3e8e5f0f	0.278069
80	0xbf1b84aa	-0.60749304
81	0xbec86f73	-0.3914753
82	0xc03a4beb	-2.9108837
83	0xbcd82cc1	-0.026388528
84	0x3e56e2bc	0.2098493
85	0x3e480181	0.19531824
86	0xbe402358	-0.18763483
87	0xbf24ac9f	-0.643259
88	0x3ce716c7	0.028209103
89	0xbd02fcd6	-0.031979404
90	0xbf256386	-0.64604986
91	0xc04b0549	-3.1721976
92	0xbd8589f0	-0.0652045
93	0x3df9551b	0.12174436
94	0xbff23bba	-1.8924477
95	0xbeb39587	-0.35075018
96	0x3f1b388c	0.6063316
97	0x3fc20673	1.5158218
98	0xbf85f93f	-1.0466689
99	0x3d9d66d7	0.07685631
100	0x3e958337	0.2920167
101	0x3eb02c49	0.34408787
102	0x3f5e1b36	0.8676027
103	0xbf751178	-0.9572978
104	0x3eea376d	0.45745412
105	0xbfa27848	-1.2692957
106	0x3f9554c2	1.1666491
107	0xbf22b087	-0.6355061
108	0x3f093e97	0.5361113
109	0x3f331a14	0.6996167
110	0xbf7be05a	-0.9838921
111	0xbfec8fc5	-1.8481375
112	0xbf84d705	-1.0378119
113	0xbf31fd15	-0.695268
114	0xbf6c0331	-0.9219237
115	0xbf25fac2	-0.6483575
116	0x3f8d392f	1.1033076
117	0x3f8b5cd4	1.0887704
118	0x3f8b249b	1.0870546
119	0xbfcfa790	-1.6223011
120	0xc046a8b3	-3.1040466
121	0x3fc06ff4	1.5034165
122	0x3e95afb2	0.29235607
123	0xbf9887a2	-1.1916392
124	0xbebd7750	-0.3700509
125	0xbef4617b	-0.47730622
126	0x3ec09616	0.37614506
127	0xbf0dfc9d	-0.5546358
128	0x3f3ba142	0.73292935
129	0xbf7e04c1	-0.99226004
130	0x3f9abb64	1.2088437
131	0xbeb763d3	-0.35818347
132	0xbf80d8fb	-1.0066217
133	0x3db52731	0.08845366
134	0xbf4b91d0	-0.7951937
135	0xbec3dd48	-0.38254762
136	0xbea55e2c	-0.3229841
137	0xbf24d904	-0.6439364
138	0xbf8cd061	-1.1001092
139	0xbd0c6623	-0.034277093
140	0xc04db59b	-3.2142093
141	0xbfbc1b82	-1.4695895
142	0x4008c725	2.1371548
143	0x3e3af4e2	0.18257478
144	0x3dbdd8fd	0.09269903
145	0xbfa979d1	-1.32403
146	0xbe144abe	-0.14481637
147	0x3f89cde2	1.0765955
148	0x3c530fb1	0.012882159
149	0xbf06fef5	-0.52732784
150	0xbee1ecab	-0.44125876
151	0xbfc5d6b5	-1.5456148
152	0xbf6da896	-0.92835367
153	0xbfe2748f	-1.7691821
154	0xbfe5755b	-1.7926439
155	0xbf3ad7c2	-0.7298547
156	0x3f23d50d	0.63996965
157	0xbfacdbd4	-1.3504586
158	0xbea28104	-0.31739056
159	0x3f24f7f7	0.64440864
160	0xbf32a400	-0.69781494
161	0x3f8021dd	1.0010334
162	0xbe119fc7	-0.14221106
163	0x3f90ecc4	1.1322255
164	0xbfe33a26	-1.775212
165	0xc0096ce3	-2.147271
166	0xbfd414a2	-1.6568797
167	0xbfa871f1	-1.3159772
168	0x3f03eefc	0.51536536
169	0xbf80be2c	-1.0058036
170	0x3f227929	0.63466126
171	0xbee58104	-0.44824994
172	0xbfa884ef	-1.3165568
173	0xbfd32103	-1.6494449
174	0x3f592944	0.8482859
175	0xbedb5e3b	-0.4284533
176	0x3fc15f99	1.5107299
177	0xbf0c0841	-0.54700094
178	0xbfa6cadb	-1.3030657
179	0x3f969607	1.1764535
180	0xbec16f11	-0.3778005
181	0xbe890ab2	-0.26765972
182	0x3e9dd51d	0.30826655
183	0x3f36cba0	0.7140446
184	0x3da876f5	0.08225814
185	0xbeaf9671	-0.34294465
186	0x3f1ea080	0.61963654
187	0xbfe435fb	-1.7828974
188	0xbe4403d8	-0.19142091
189	0x3f1b250d	0.6060341
190	0x3e87137f	0.26382062
191	0x3f8b17bb	1.0866617
192	0xbf4d1df0	-0.80123806
193	0x3ed457dd	0.41473284
194	0x3f074b0e	0.528489
195	0xbcb62016	-0.022232097
196	0xbf755102	-0.95826733
197	0xbe31830f	-0.17335151
198	0xbfe77120	-1.8081398
199	0xbf5e3225	-0.86795264
200	0xbf27a3be	-0.65484226
201	0x3e3683a3	0.17823653
202	0x3faeac9a	1.3646424
203	0x3fe5c521	1.7950784
204	0xbcefd833	-0.029277897
205	0xbfa426db	-1.2824358
206	0x3e61fe2b	0.22069614
207	0xc052337d	-3.2843926
208	0x3e464f77	0.19366251
209	0xbf13b16b	-0.57692593
210	0x3ccc0945	0.024906764
211	0x3f2ce1fd	0.6753233
212	0x3f23fdd1	0.6405917
213	0xbea48a94	-0.32136977
214	0xbf2d0da3	-0.67598933
215	0xbf895066	-1.0727661
216	0x3fa64bc3	1.2991871
217	0xc0398d05	-2.8992321
218	0xc0111625	-2.2669766
219	0xbf3cb4f5	-0.7371362
220	0xc0016c92	-2.0222516
221	0xbff0c2b4	-1.8809419
222	0xc01ee4cc	-2.4827147
223	0xbfb1b904	-1.3884587
224	0x3eda9fda	0.42700082
225	0xbe83c182	-0.25733572
226	0xbed5be4a	-0.41746742
227	0x3f5ea9f2	0.86978066
228	0xbfd1981a	-1.6374543
229	0xbfc5d2ca	-1.5454953
230	0xc0097902	-2.1480107
231	0xbed75420	-0.4205637
232	0xbf7ae9c2	-0.98012936
233	0x3f59af0c	0.85032725
234	0xbf5fb36c	-0.8738315
235	0x3e7ea9bf	0.2486944
236	0x3f540835	0.8282502
237	0xbf506fcf	-0.81420606
238	0xbdb61245	-0.088902034
239	0xbed97c25	-0.42477527
240	0xbfeb4363	-1.837994
241	0xbf214d11	-0.6300822
242	0xbe7ad3c6	-0.24494848
243	0x3ea743b6	0.32668847
244	0xbf3de548	-0.7417798
245	0xbfd78054	-1.6836038
246	0x3f357b13	0.7089092
247	0xbf9ee7f2	-1.2414534
248	0x3f1f490c	0.62220836
249	0x3fa716ff	1.3053893
250	0x3ed02dbb	0.4065989
251	0x3f1988ef	0.5997457
252	0xbfdebc26	-1.7401168
253	0xc009e43e	-2.1545558
254	0x3e552a77	0.2081698
255	0xbf79bad3	-0.97550696

net.4.bias f4 [128]
0	0xbfda428c	-1.7051558
1	0xbf09ce6d	-0.53830606
2	0xc00d5762	-2.2084584
3	0xc0644da9	-3.56724
4	0xbf800885	-1.00026
5	0xc03a8461	-2.9143298
6	0xc00fcb21	-2.246773
7	0xc00592c3	-2.0870826
8	0xc027f930	-2.6245842
9	0xbfbd2b6c	-1.4778876
10	0xc034d868	-2.8257084
11	0xc049aca6	-3.1511626
12	0xc011cddb	-2.2781894
13	0xbfaf4ba9	-1.3694965
14	0xbfe22ac7	-1.7669305
15	0xbf565dd7	-0.8373694
16	0xc05051b4	-3.2549868
17	0xc011bece	-2.2772708
18	0xbf8405b6	-1.0314243
19	0xc00e05fd	-2.2191155
20	0xc03377ea	-2.804194
21	0xbfa28afa	-1.2698662
22	0x3fa9e2e6	1.3272369
23	0xbf1a3c51	-0.60248286
24	0xc01f37c5	-2.487779
25	0xc010c559	-2.2620451
26	0xbfeee1d8	-1.8662672
27	0xbf482e08	-0.7819524
28	0xc0155867	-2.3335207
29	0xc028d825	-2.6381924
30	0xc00619e7	-2.095331
31	0xc0590382	-3.390839
32	0xc01fc9a0	-2.4966812
33	0xc02f291c	-2.736884
34	0xbfaf9123	-1.3716167
35	0xc06bf789	-3.6869833
36	0xc010072b	-2.2504375
37	0xc0178068	-2.3672123
38	0xbe4de19e	-0.20105597
39	0xc0128e05	-2.2899182
40	0xbfcbfffd	-1.5937496
41	0xbfec049e	-1.8438909
42	0xbfc55f9c	-1.5419803
43	0xc0260133	-2.5938232
44	0xc02fe89b	-2.748572
45	0xc046c606	-3.1058364
46	0xbfdaf6fe	-1.7106626
47	0xbfcf726c	-1.6206794
48	0xc0039237	-2.0557992
49	0xc041335a	-3.0187593
50	0xbf82f800	-1.0231934
51	0xc03e9f39	-2.9784682
52	0xc0286f3a	-2.6317887
53	0xc01e0bc0	-2.4694672
54	0xc0670822	-3.6098714
55	0xbede28c2	-0.4339047
56	0xbfe7848a	-1.8087323
57	0xbfbd8a30	-1.4807796
58	0xbf77dba2	-0.9681951
59	0xc004d4e1	-2.075493
60	0xc0045dde	-2.0682292
61	0xc04e6ca0	-3.22538
62	0xc03350bd	-2.8018029
63	0xc053c5de	-3.3089519
64	0xc053b102	-3.3076787
65	0xc020b837	-2.5112436
66	0x3efaebff	0.49008176
67	0xbfe7927e	-1.8091581
68	0xc043ca94	-3.0592394
69	0xc02bd970	-2.6851463
70	0xbe480fc8	-0.1953727
71	0xc08dccf9	-4.431271
72	0xc0134c66	-2.301538
73	0xbfd381d8	-1.6524
74	0xc02f46af	-2.7386892
75	0xbf4b8845	-0.79504806
76	0xbf91098d	-1.133104
77	0xbfca2c52	-1.5794775
78	0xbfafc83f	-1.3732985
79	0xc011a93d	-2.2759545
80	0xc02d0c4e	-2.703876
81	0xc0608f21	-3.508736
82	0xc0228850	-2.5395699
83	0xc07fcc7d	-3.996856
84	0xc00b9167	-2.1807497
85	0xbff6e45c	-1.928844
86	0xc0969d6c	-4.7067165
87	0xbfd05a61	-1.6277581
88	0xc0294e9e	-2.6454234
89	0xc023211e	-2.5488963
90	0xc016fe12	-2.3592572
91	0xbff17b6b	-1.8865789
92	0xc0116baf	-2.2721975
93	0xbfe54560	-1.7911797
94	0xc060aeeb	-3.5106761
95	0xc052cda2	-3.2938008
96	0xc01a7bb9	-2.4138014
97	0xbeae79ce	-0.34077305
98	0xc0161eac	-2.345622
99	0xc06cfe98	-3.7030392
100	0xbfe4d8c6	-1.7878654
101	0xc0453b52	-3.0817456
102	0xc028edcd	-2.6395142
103	0xbffd434e	-1.9786165
104	0xbfdb15c8	-1.7116022
105	0xc00dc683	-2.2152412
106	0xc032e856	-2.7954307
107	0xc0286c86	-2.6316237
108	0x3ea1127a	0.3145941
109	0xbf54491e	-0.8292407
110	0xbf87b1d1	-1.060114
111	0xc04f7702	-3.2416387
112	0xc02fed77	-2.7488687
113	0xbfefd5bc	-1.8737102
114	0xbf8b9004	-1.0903325
115	0xbfece611	-1.8507711
116	0xc03dc754	-2.965291
117	0xc0175f14	-2.365178
118	0xc01c98b1	-2.4468195
119	0xc003396e	-2.0503802
120	0xc036e488	-2.8576984
121	0xc0175293	-2.364415
122	0xc08ad114	-4.338022
123	0xbf44bc4d	-0.76849824
124	0x3f23173f	0.63707346
125	0xbfc61e59	-1.5478011
126	0xbfe9ab92	-1.8255484
127	0xbfd5bd36	-1.6698368

net.6.weight f4 [7, 128]
0	0xc116c4f2	-9.423082
1	0x3f3effbb	0.74608964
2	0x3f896d6a	1.0736516
3	0xbe95b501	-0.29239658
4	0xbf62aa7a	-0.88541377
5	0x3f009f37	0.5024294
6	0x3ec80d19	0.39072493
7	0x3f1bca6b	0.6085574
8	0x3f151d46	0.5824779
9	0xc0738faf	-3.8056448
10	0x3f45dcd5	0.7729009
11	0x3f1cbd68	0.6122651
12	0x3eb90ede	0.36144155
13	0xbecde588	-0.4021418
14	0xbfeebe8c	-1.86519
15	0x3f37754f	0.71663374
16	0x3f32fab4	0.6991379
17	0xbf96b0f2	-1.177275
18	0xbfcc344b	-1.5953459
19	0x3e0b1c79	0.1358508
20	0x3f18a29b	0.59623116
21	0x3e5ca1d9	0.21546115
22	0xc04b4819	-3.1762755
23	0x3f54a0d7	0.8305792
24	0x3efe1c98	0.4963119
25	0x3f10703c	0.56421256
26	0x3f37d863	0.71814555
27	0x3ebb597f	0.36591718
28	0xbf48f80d	-0.78503495
29	0xbfac529f	-1.3462714
30	0x3f163540	0.58675003
31	0x3e86f283	0.26356897
32	0x3f127617	0.5721144
33	0xc01f0959	-2.4849455
34	0xc098d8a1	-4.776444
35	0x3f0ea162	0.55715
36	0xbe1f3184	-0.15546232
37	0x3ef053fb	0.46939072
38	0xbd2e24ea	-0.042515673
39	0xbf951ca3	-1.1649364
40	0xbf2f4ae7	-0.68473667
41	0xbe585350	-0.21125531
42	0xbed1ca20	-0.40974522
43	0xbfa7d272	-1.3111098
44	0x3d9175ca	0.071025446
45	0xbf691141	-0.9104195
46	0x3ebde310	0.37087297
47	0x3ee5e175	0.44898573
48	0x3f5b5ee2	0.85691655
49	0x3f36ca77	0.71402687
50	0xc010c839	-2.2622206
51	0x3f2232ff	0.63359064
52	0x3ec5d309	0.3863757
53	0x3f92a126	1.1455429
54	0x3eeac013	0.45849666
55	0xbf8a8fe7	-1.0825166
56	0x3eddca4c	0.43318403
57	0x3f580dd4	0.843961
58	0x3f50a9df	0.815092
59	0x3eadf95a	0.33979303
60	0xbe7226bb	-0.23647587
61	0x3e30e736	0.172757
62	0xbe92d272	-0.28676182
63	0x3e2c0afa	0.16801062
64	0x3f3abb26	0.72941816
65	0xbeb44269	-0.35206917
66	0xbe8f23ed	-0.27957097
67	0xbf587d73	-0.8456642
68	0x3f30307b	0.68823975
69	0xbf9be0fd	-1.2178036
70	0xc00afadd	-2.1715615
71	0x3f1362ac	0.57572436
72	0x3e621a04	0.22080237
73	0xbf66e524	-0.9019339
74	0xbecf14f7	-0.40445682
75	0xbfc61c3e	-1.5477369
76	0x3e8bb700	0.27288055
77	0xbf115a12	-0.5677806
78	0x3eca0383	0.39455804
79	0x3ec7e4e7	0.39041826
80	0xc00ce202	-2.2012944
81	0x3f897aa2	1.074055
82	0x3f4a0fe8	0.7893052
83	0xbd83c52a	-0.064340904
84	0x3f10c06c	0.5654361
85	0xbf56fcef	-0.83979696
86	0xbbb458da	-0.005503756
87	0x3f13abec	0.57684207
88	0xbf63ee5c	-0.8903558
89	0xbfc7c42c	-1.5606742
90	0xbf2858f0	-0.6576071
91	0x3e38daca	0.18052211
92	0xbf781b21	-0.96916395
93	0x3dbffb3b	0.0937409
94	0x3f304ed8	0.68870306
95	0x3dfa3963	0.12217977
96	0xbe4cef23	-0.20013098
97	0x3edc672c	0.43047464
98	0x3f1021b6	0.5630144
99	0xbdb14583	-0.086558364
100	0x3ec69469	0.38785103
101	0x3f0a8481	0.54108435
102	0xbf904521	-1.1271096
103	0x3f22102d	0.6330593
104	0x3f2959b8	0.66152525
105	0xbda50691	-0.08057893
106	0xbf60f439	-0.87872654
107	0x3f491dee	0.78561294
108	0xc15422cc	-13.258495
109	0x3e5e8fd5	0.21734555
110	0x3ea2449f	0.3169298
111	0x3eff74c0	0.4989376
112	0xc09b065c	-4.8445263
113	0xc14e3caf	-12.889815
114	0xbf8592d6	-1.0435436
115	0x3ecd1912	0.4005819
116	0xbfd9e401	-1.7022706
117	0x3f19f8a6	0.6014503
118	0x3d6cc455	0.057804424
119	0xc0e21ed1	-7.066262
120	0xc01388fb	-2.3052356
121	0x3f29bc68	0.6630311
122	0xbf5f9a2e	-0.87344635
123	0xbf8931a4	-1.0718274
124	0x3fa744d9	1.3067886
125	0xbd0cdce8	-0.03439036
126	0x390620f0	0.00012791506
127	0xbf788ab6	-0.97086656
128	0xc11214f2	-9.130114
129	0x3e7c9b6d	0.24668665
130	0x3e2f5ddc	0.17125648
131	0xbea5e508	-0.324013
132	0x3ed5094d	0.41608658
133	0x3f19f380	0.60137177
134	0x3f587e8e	0.8456811
135	0xbf25e856	-0.6480764
136	0xbfc88c1e	-1.566776
137	0x3f391f1a	0.7231308
138	0xbe3d60b5	-0.18493922
139	0xbee0f9b2	-0.43940502
140	0x3d1363d3	0.03598387
141	0x3e62757b	0.22115128
142	0x3f0100bd	0.5039175
143	0xbf21ba07	-0.6317448
144	0xbe54d48d	-0.20784207
145	0xbedf3410	-0.43594408
146	0x3ea8fcf8	0.330055
147	0xbfdd9533	-1.7311157
148	0xbf3ecb3a	-0.7452885
149	0xbd97d62f	-0.07413899
150	0x3f6a1ea3	0.91453
151	0xbed6099e	-0.41804212
152	0x3efe893e	0.49714082
153	0xbf62a9e0	-0.8854046
154	0xbf18661a	-0.59530795
155	0xbf1d854c	-0.6153152
156	0x3ea859d0	0.32881021
157	0xc04466d8	-3.068777
158	0xbf6232dd	-0.8835886
159	0x3f761f15	0.9614118
160	0xbe867b13	-0.26265773
161	0x3f399a58	0.72501135
162	0x3f29a986	0.662743
163	0xbe66df8a	-0.22546211
164	0x3ef650ba	0.48108464
165	0xbfd5bea3	-1.6698803
166	0xbd2581a3	-0.040406834
167	0x3f08855e	0.533285
168	0x3f1dcfe1	0.61645323
169	0xbfa95d1a	-1.3231537
170	0x3ef38143	0.47559556
171	0x3e73902b	0.23785464
172	0x3ed092a7	0.40736887
173	0x3f2897f2	0.6585685
174	0xbf048bcd	-0.5177582
175	0xbdf9fc23	-0.122062944
176	0xbc2725f2	-0.010201918
177	0x3f369ad1	0.7132998
178	0xbf96e6d6	-1.1789196
179	0x3f126794	0.571893
180	0x3e8b2436	0.27176064
181	0x3f44760b	0.7674262
182	0x3ecd771f	0.40129945
183	0x3f2aafa2	0.66674244
184	0x3f43f4b1	0.76545244
185	0xbe459d69	-0.19298328
186	0x3ef104b1	0.47073892
187	0x3f01104f	0.5041551
188	0x3e3cf585	0.18453033
189	0xbe52a365	-0.20570143
190	0xbcde2636	-0.02711783
191	0xbd17eeca	-0.03709296
192	0x3e6f8be2	0.23393205
193	0x3f3e65c6	0.74374044
194	0x3f1ce718	0.6129012
195	0x3ee297e5	0.4425651
196	0xbdb9ec38	-0.09078258
197	0x3df1aff6	0.1180114
198	0xbeb9813c	-0.3623141
199	0xbd5763b6	-0.052585326
200	0x3efb8e2e	0.49131912
201	0xbe3a7f70	-0.18212676
202	0x3c3a7fbd	0.011382994
203	0xc0277c2b	-2.6169536
204	0x3ec37d6a	0.3818162
205	0x3f3790c4	0.7170527
206	0xbf821f23	-1.0165752
207	0xc08bfb1b	-4.3744025
208	0x3f3ea7c1	0.7447472
209	0x3ed2e4c9	0.41190174
210	0xbeae10f0	-0.33997297
211	0x3ebbb448	0.3666098
212	0x3e60593c	0.2190904
213	0x3dd03d59	0.10167951
214	0xbd0bfbef	-0.03417581
215	0x3f3ce7e3	0.7379133
216	0x3f6af0b1	0.91773516
217	0x3f071bbf	0.5277671
218	0x3f8f5eda	1.1200821
219	0xbeb8fc13	-0.36129817
220	0xbe1d384b	-0.15353505
221	0x3e9a69d9	0.3015888
222	0xbdb184f4	-0.08667937
223	0x3f0a4135	0.5400575
224	0xbf3c851e	-0.7364062
225	0x3e4bd518	0.19905508
226	0xbfa8b38f	-1.3179797
227	0xbe86fa07	-0.2636263
228	0xbf1ce1c5	-0.61281997
229	0xbfd12800	-1.6340332
230	0xbfa8fd6c	-1.3202338
231	0xbf501472	-0.812812
232	0xbfed0fa6	-1.85204
233	0xbf04b92d	-0.51845056
234	0x3ed7e1db	0.42164502
235	0x3ee5a121	0.44849494
236	0xbebd58c6	-0.3698179
237	0xbfc9ab25	-1.5755354
238	0xbf20c436	-0.62799394
239	0x3d803dbd	0.06261776
240	0x3f47e5b4	0.78084874
241	0x3f385508	0.7200475
242	0x3edbe48d	0.42947808
243	0xbdc27bbb	-0.09496256
244	0x3f027426	0.5095848
245	0x3e11ab4b	0.142255
246	0x3c971563	0.018442815
247	0x3efcbd0c	0.4936298
248	0x3eda3161	0.42615798
249	0xbe900e2b	-0.2813581
250	0xbec4fa6d	-0.3847231
251	0xc02ce08c	-2.7012053
252	0xbec6d5eb	-0.3883508
253	0x3f24fac0	0.64445114
254	0xbf5fdb70	-0.8744421
255	0x3ea0d8ee	0.31415504

net.6.bias f4 [7]
0	0x3f63c0c2	0.88966
1	0x3f59b289	0.8503805
2	0xc0881a44	-4.2532063
3	0x400e9ec8	2.2284412
4	0x3f4c2232	0.7973968
5	0x3f5bcc59	0.85858685
6	0x3f429711	0.7601176
