experts/DQN/net_configs/adversary_dqn.pth (torch, 160587 bytes, 8 tensors)

net.0.weight f4 [128, 42]
0	0xbe0725f2	-0.13198069
1	0xbec27025	-0.37976184
2	0xbf9070da	-1.128444
3	0xbd0e989c	-0.03481351
4	0x3fa17853	1.2614845
5	0xbfe5d62f	-1.7955989
6	0xbf54cce0	-0.83125114
7	0xbea74dc1	-0.3267651
8	0xbe2bbe2b	-0.16771762
9	0x3ec70f37	0.38878796
10	0x3e9234f7	0.28556034
11	0x3f2d1606	0.6761173
12	0x3d0c192f	0.034203704
13	0x3f8a43bf	1.0801924
14	0x3f9c6ddb	1.2221025
15	0x3de99df8	0.11407083
16	0xc021e7ee	-2.5297809
17	0x3f885dc8	1.065362
18	0x3f61ae86	0.88156927
19	0x3e762ca4	0.24040467
20	0x3f5da2d0	0.8657656
21	0xbe8cccd2	-0.27500015
22	0xbf811446	-1.0084312
23	0xbf8b8449	-1.0899745
24	0x3f1e7bac	0.6190746
25	0x3f5fe21b	0.87454385
26	0x3e9d8f5e	0.30773443
27	0xbed8f047	-0.42370817
28	0x3f44980c	0.76794505
29	0xbfd776a9	-1.6833087
30	0xbf295c1d	-0.6615618
31	0xbebbfc47	-0.3671591
32	0xbf9c15f3	-1.2194198
33	0x3dd4c8a2	0.1038983
34	0xbe8a206c	-0.2697786
35	0x3d0d243e	0.03445839
36	0x3ed4634f	0.41482016
37	0xbf60e0d7	-0.8784308
38	0xbf837341	-1.0269548
39	0x3e8d69fa	0.27619916
40	0xbf3f40ad	-0.7470806
41	0x3fafd0d0	1.37356
42	0xbedea745	-0.43486992
43	0x3f3f3304	0.7468722
44	0x3e4ae7e8	0.19815028
45	0xbf18d482	-0.5969926
46	0xbfc97129	-1.5737659
47	0xbe1c8d92	-0.1528838
48	0x3f0b1f68	0.543448
49	0xbf4c6020	-0.79834175
50	0x3efbd043	0.4918233
51	0x3fe20073	1.7656387
52	0x3ed48fa3	0.41515836
53	0x3cb77feb	0.022399863
54	0x3e05820e	0.13037893
55	0xbf039470	-0.5139837
56	0xbfb02c60	-1.3763542
57	0x3f947c75	1.1600481
58	0x3f63022c	0.8867519
59	0xbf9f2e7d	-1.2436062
60	0xbf59835f	-0.8496608
61	0x3fef5a7f	1.8699492
62	0x3f894d87	1.0726784
63	0x3e3f9843	0.18710427
64	0x3e395c6f	0.18101667
65	0x3f05efb8	0.52318907
66	0xbf14cb15	-0.5812238
67	0xbecbcbbd	-0.39803877
68	0x3ecd477d	0.40093604
69	0xbe15ac72	-0.14616564
70	0xbe2280db	-0.15869467
71	0x3e121c59	0.14268626
72	0x3f327541	0.69710165
73	0xbf00c20f	-0.5029611
74	0xbec8df77	-0.3923299
75	0xbf35f679	-0.7107921
76	0xbe946a42	-0.28987318
77	0x3ef44535	0.4770905
78	0xbf0871a6	-0.53298414
79	0xbcf4bf8f	-0.029876499
80	0xbf6c642f	-0.9234037
81	0x3e43e3a2	0.19129804
82	0xbf047527	-0.5174126
83	0x3efb72b2	0.49110943
84	0xbf5865dc	-0.84530425
85	0xbfd19089	-1.6372234
86	0x3fa0be5a	1.2558091
87	0x3ea7ead0	0.32796335
88	0xbdc36025	-0.095398225
89	0x3eec4d79	0.46152857
90	0xbf1ceb06	-0.6129612
91	0xbf2a38be	-0.6649283
92	0xbef84e29	-0.4849713
93	0xbd5153de	-0.051105373
94	0x3fa2de4c	1.272409
95	0x3f645e03	0.8920595
96	0x3fc27661	1.5192376
97	0xbfc81fb5	-1.5634676
98	0xbf050285	-0.5195697
99	0xbc9af65d	-0.018916303
100	0xc01688e5	-2.3521054
101	0x3ec992c1	0.39369777
102	0x3ed47678	0.41496634
103	0x3f9684ac	1.1759238
104	0xbfa8acaa	-1.3177693
105	0xbceb7666	-0.02874298
106	0xbf2ed83d	-0.68298703
107	0xbe55d04c	-0.2088024
108	0xbf6f7aad	-0.93546563
109	0xbed52e0c	-0.41636693
110	0x3eb44eae	0.35216278
111	0xbfa99ddb	-1.3251299
112	0x3f61abe9	0.8815294
113	0xbf28a173	-0.6587135
114	0x3d850d35	0.0649666
115	0xbcd9e6d2	-0.026599322
116	0x3ff512ef	1.9146403
117	0xbfb3b995	-1.404101
118	0xbf549b50	-0.8304949
119	0x3f851198	1.0395994
120	0x3e99a25b	0.3000668
121	0xbf1f4f91	-0.62230784
122	0x3e9914fd	0.29898825
123	0xbd80c909	-0.062883444
124	0xbda80eee	-0.082059726
125	0xbefcfb47	-0.4941046
126	0x3fc81ade	1.5633199
127	0x3f5dde5c	0.8666742
128	0xbd3c98b9	-0.046044085
129	0xbe9ef758	-0.31048083
130	0xbf63ff57	-0.8906149
131	0x3fc25a19	1.5183746
132	0x4012f9fd	2.296508
133	0x3f6e51e6	0.9309372
134	0x3c266328	0.010155477
135	0xbf276b3d	-0.6539801
136	0xbf28ebad	-0.6598461
137	0xbf25009b	-0.6445405
138	0xbe9d7e5f	-0.30760476
139	0xbe81d671	-0.25358918
140	0xbe41f39d	-0.18940587
141	0x3f1a76fe	0.6033782
142	0x3efce284	0.49391568
143	0x3d1acffd	0.03779601
144	0xbfd0bee3	-1.6308254
145	0xbdd7795d	-0.10521195
146	0x3fcf26bb	1.6183695
147	0x3eda0538	0.42582107
148	0x3e92da9b	0.28682408
149	0xbec12097	-0.37720177
150	0x3eefeb6b	0.46859297
151	0x3fd7b9d6	1.6853588
152	0x3e4e3e46	0.20140943
153	0xbfa7a6f8	-1.309783
154	0x3f2cdb92	0.6752254
155	0x3ee28c64	0.44247735
156	0xbe7c7683	-0.24654584
157	0x3ec5120e	0.38490337
158	0x3f1efbcf	0.6210298
159	0xbea83de7	-0.32859728
160	0x3ee3c3a4	0.444852
161	0xbf16bbf7	-0.5888056
162	0xbf878c2f	-1.0589656
163	0xbfa28768	-1.2697573
164	0x3f216d69	0.6305757
165	0xbe6b68a1	-0.22989132
166	0xbe6e611e	-0.23279235
167	0xbe548dd6	-0.20757231
168	0xbf0005c1	-0.5000878
169	0x3f3a7c74	0.7284615
170	0xbd8c8c00	-0.068626404
171	0x3f0a9fb3	0.5414993
172	0xbeecdbc6	-0.46261424
173	0x3d7962fb	0.06088541
174	0xbf3c69b8	-0.73598814
175	0xbf84f37a	-1.0386803
176	0x3d83e083	0.064393066
177	0x3df81f22	0.12115313
178	0x3bf0cbc9	0.007348512
179	0xbf9cac47	-1.2240075
180	0x3f5bb65d	0.8582514
181	0xbf6fb38d	-0.9363335
182	0xbfaa5430	-1.3306942
183	0x3ea548f6	0.32282227
184	0xbe725242	-0.23664191
185	0x3efae48f	0.490025
186	0xbf1ca0b8	-0.6118274
187	0xbf07f061	-0.53101164
188	0xbe71ea04	-0.23624426
189	0xc0018900	-2.0239868
190	0x3f12b495	0.57306796
191	0xbf61bc03	-0.8817751
192	0xbf3309eb	-0.6993701
193	0x3fa12b2b	1.2591299
194	0xbed60874	-0.41803324
195	0xbdd2e83c	-0.102982014
196	0xc03112c7	-2.766771
197	0xbf9e4bf0	-1.2366924
198	0xbf4329ef	-0.7623586
199	0x3eadbb5d	0.3393201
200	0xbf1dd638	-0.61654997
201	0x3f08de09	0.534638
202	0xbd75b023	-0.05998243
203	0x3face203	1.3506473
204	0x3f7ec3b1	0.9951735
205	0xbf55925e	-0.83426464
206	0xbedc0094	-0.4296919
207	0xbb71738d	-0.0036842555
208	0x3e7a1b8e	0.24424574
209	0x3f07e227	0.53079456
210	0x3f3a83d1	0.72857386
211	0xbee90968	-0.4551499
212	0xbffa6839	-1.9563056
213	0x3db9b64c	0.090679735
214	0xbe564fa4	-0.20928818
215	0xbf8736f3	-1.0563644
216	0x3f30d7ac	0.6907909
217	0x3f25d499	0.64777523
218	0x3dbaf5cd	0.09128914
219	0xbf910f66	-1.1332824
220	0xbfa2112a	-1.2661488
221	0x3ef22a1f	0.4729776
222	0xbee584c9	-0.4482787
223	0x3e21b196	0.157904
224	0x3f12f5d5	0.5740636
225	0xbf584f16	-0.84495676
226	0x3d24643e	0.04013466
227	0xbf41f305	-0.75761443
228	0x3d1585fe	0.036504738
229	0x3e95b858	0.29242206
230	0xbfbfc759	-1.4982711
231	0x3f472493	0.7779018
232	0x3f6d0f55	0.9260152
233	0x3e8c6427	0.2742016
234	0xbebceee2	-0.36901003
235	0x3f92073e	1.140846
236	0x3f30529e	0.68876064
237	0x3ea924e1	0.3303595
238	0x3d79d959	0.060998295
239	0xbf0286a9	-0.50986725
240	0xbdfab645	-0.122417964
241	0x3f4dbd20	0.80366707
242	0xbe5d3dbc	-0.21605581
243	0xbf2b92a5	-0.67020637
244	0xbf42f5ec	-0.76156497
245	0xbe71a5ec	-0.2359845
246	0x3fa0f4f5	1.2574755
247	0xbf6dac45	-0.9284099
248	0x3d2755c2	0.04085327
249	0x3eeef791	0.46673253
250	0xbf04d50e	-0.51887596
251	0x3dfb9dff	0.12285995
252	0xbf23660d	-0.6382759
253	0xbfb43db7	-1.4081334
254	0xbda082fb	-0.078374825
255	0xc013c9ff	-2.3092039

net.0.bias f4 [128]
0	0x3d654199	0.055970762
1	0x3eb44688	0.3521006
2	0xbf0ac8af	-0.5421247
3	0xbe982bf8	-0.29721045
4	0xbd95ea66	-0.073200986
5	0xbe12b413	-0.14326505
6	0xbf904b94	-1.1273065
7	0xbd96c000	-0.0736084
8	0xbea70d41	-0.326273
9	0xbe52db26	-0.20591411
10	0xbf8951e0	-1.0728111
11	0xbeba7b4b	-0.3642219
12	0x3f831e1f	1.0243567
13	0xbe5146d8	-0.20437181
14	0xbeda08a2	-0.4258471
15	0xbeebd436	-0.46060342
16	0xbf88d88b	-1.0691084
17	0xbf51d8d3	-0.8197147
18	0xbea9f2c5	-0.3319303
19	0xbf6ddfbc	-0.92919517
20	0xbf86b906	-1.0525215
21	0xbd75a0de	-0.059967868
22	0xbf38f5a9	-0.7224985
23	0xbf2434c6	-0.64143026
24	0xbfa12762	-1.2590144
25	0xbf04f1c4	-0.51931405
26	0xbe2d326a	-0.16913763
27	0xbee859b0	-0.45380926
28	0x3ed1ed99	0.41001585
29	0xbe2671e6	-0.16254386
30	0xbf1544cc	-0.583081
31	0x3e68e0a2	0.2274194
32	0x3ebf038b	0.3730739
33	0xbe50a049	-0.20373644
34	0xbd4aa1f3	-0.049470853
35	0x3e8f4ac3	0.27986726
36	0xbe553eea	-0.20824781
37	0xbfb6be53	-1.4276832
38	0xbf4dcb61	-0.80388457
39	0x3d254500	0.040349007
40	0xbec89db0	-0.39182806
41	0xbf368399	-0.7129455
42	0xbeb28932	-0.34870297
43	0xbebc5555	-0.36783853
44	0xbf5c7009	-0.8610845
45	0xbf56b5d1	-0.8387118
46	0xbe0b1c76	-0.13585076
47	0x3f79f51b	0.97639626
48	0xbf2f9ab7	-0.6859545
49	0xbf1d5dbb	-0.61471146
50	0xbf6ed61f	-0.9329547
51	0xbed50cf7	-0.41611454
52	0xbf37c0c9	-0.7177854
53	0xbfa3f2fb	-1.2808527
54	0x3e57ae3b	0.21062557
55	0xbf97761f	-1.1832923
56	0xbf5962f1	-0.849166
57	0xbe2496e4	-0.16073185
58	0xbf82212c	-1.0166373
59	0x3ec8c1ab	0.39210257
60	0xbea6f0c6	-0.3260557
61	0xbf68b853	-0.90906256
62	0xbf2d906c	-0.67798495
63	0xbde9c2dc	-0.114141196
64	0xbf3e56a0	-0.7435093
65	0xbd238f42	-0.039931543
66	0x3d3c05c3	0.045903932
67	0xbdd55ed9	-0.104184814
68	0xbf55f5f8	-0.83578444
69	0xbecb6276	-0.39723557
70	0xbc646405	-0.013939862
71	0xbf8f52cd	-1.1197144
72	0xbec9641e	-0.39334196
73	0xbead95ae	-0.3390326
74	0xbe57fcb1	-0.21092488
75	0xbf1bd68e	-0.6087426
76	0x3e4a5a5a	0.19761029
77	0xbfb452e7	-1.40878
78	0xbee64afa	-0.44979078
79	0x3ee654d8	0.44986606
80	0xbe6c0a37	-0.23050772
81	0x3efca4f0	0.49344587
82	0x3ec41eef	0.3830485
83	0xbf1330fc	-0.5749662
84	0xbf0a4111	-0.54005533
85	0xbf2b1cb2	-0.6684066
86	0xbfbbe3ae	-1.4678857
87	0xbf06b8d9	-0.52625805
88	0xbef6c59e	-0.48197645
89	0xbfa0e96c	-1.2571235
90	0xbf92401f	-1.1425818
91	0xbf8959f9	-1.0730582
92	0xbf0773ee	-0.5291127
93	0xbc4f5088	-0.0126534775
94	0xbf01df10	-0.5073099
95	0xbee23594	-0.44181502
96	0xbed9de17	-0.42552254
97	0x3f1f3205	0.621857
98	0xbf15db7e	-0.58538043
99	0xbf99b65b	-1.2008775
100	0xbee02078	-0.43774772
101	0xbfb37199	-1.4019042
102	0xbf83b995	-1.029101
103	0xbf1fdcda	-0.6244637
104	0xbf4039db	-0.7508828
105	0xbf5d9c73	-0.8656685
106	0xbdd3d013	-0.103424214
107	0x3faf8a22	1.371403
108	0xbf421de7	-0.7582688
109	0x39c469d2	0.00037462875
110	0x3f94d9c8	1.1628962
111	0xbf1e41d7	-0.61819214
112	0xbd2a6145	-0.04159667
113	0xbf90d0d3	-1.1313728
114	0xbf097e9e	-0.5370883
115	0xbf7e66dd	-0.99375707
116	0xbf523257	-0.8210806
117	0xbf942be1	-1.1575891
118	0xbe478bb2	-0.19486883
119	0xbf28edc8	-0.65987825
120	0x3e17b775	0.14816077
121	0xbf9c1d11	-1.219637
122	0x3e8809d3	0.26569995
123	0xbf8fd64e	-1.1237276
124	0x3f056236	0.52102983
125	0x3eddef28	0.43346524
126	0xbf867efe	-1.0507505
127	0x3eb72fdc	0.357787

net.2.weight f4 [128, 128]
0	0xbd8a77f9	-0.06761164
1	0x3f939478	1.1529684
2	0x3feabf1b	1.8339571
3	0x3eeb2ed2	0.4593416
4	0xbfa7c6c8	-1.3107538
5	0x3eb1ff4d	0.34765092
6	0x3f5d3d3e	0.86421573
7	0x3f7e5dcb	0.99361867
8	0xbfb62016	-1.4228542
9	0x3e2d351d	0.16914792
10	0x3f16b057	0.58862823
11	0x3f687ac5	0.9081233
12	0xbdb3e1ba	-0.08783288
13	0xc03f00be	-2.9844203
14	0x3f3008d9	0.687635
15	0xbf62ff0b	-0.88670415
16	0xbe16e316	-0.14735064
17	0xc0386065	-2.8808835
18	0xbe9b9c70	-0.3039279
19	0xbd82165b	-0.0635192
20	0xbf8d52d8	-1.1040907
21	0xbf48d56d	-0.7845066
22	0xbf619dad	-0.8813122
23	0xbf3acbec	-0.7296741
24	0xbfe5682c	-1.7922416
25	0xbf7d28e0	-0.98890495
26	0xbf91c587	-1.1388406
27	0x3f139a74	0.5765755
28	0x3f8e6e7e	1.112747
29	0x3edaa63a	0.42704946
30	0xbebdd34b	-0.37075266
31	0x3e66bcec	0.22533005
32	0x3d3bc6a3	0.04584373
33	0xbf29d07b	-0.6633374
34	0x3f84d5eb	1.0377783
35	0x3ea5d153	0.32386264
36	0x3f6771f6	0.90408266
37	0xbf5f9bf2	-0.8734733
38	0xbe8ac593	-0.27103862
39	0xbf278312	-0.6543437
40	0x3b8fdd93	0.0043904274
41	0xbedc4505	-0.43021408
42	0xc019c0cd	-2.4023926
43	0xbe992e54	-0.29918158
44	0xbda3d3d2	-0.07999386
45	0xbf89827d	-1.0742947
46	0xbec461f1	-0.38355973
47	0xbef7ef92	-0.48424965
48	0x3dec0349	0.11524064
49	0x3eae6153	0.34058627
50	0xbf92d98e	-1.1472642
51	0x3eb100b5	0.34570852
52	0xbe8994c3	-0.2687131
53	0x3e458518	0.19289052
54	0xc004e738	-2.0766125
55	0x3fd240e1	1.642605
56	0xc00c0323	-2.1876915
57	0x3e828a02	0.25495917
58	0xbeece91a	-0.46271592
59	0xbfc81f11	-1.5634481
60	0xbf356a51	-0.7086535
61	0xbf0802db	-0.5312936
62	0x3ed19a73	0.40938148
63	0x3fba6d3f	1.4564589
64	0x3eca1f7c	0.39477146
65	0xbf0f6a01	-0.56021124
66	0xbdafe748	-0.08589035
67	0x3ebbc9c6	0.36677378
68	0xbf3f1091	-0.74634653
69	0xbc1654a3	-0.009175452
70	0xbe1758eb	-0.14780013
71	0x3e9e72f9	0.30947092
72	0xbf6bc14d	-0.9209183
73	0xbee80931	-0.45319512
74	0xbc356d43	-0.011073413
75	0xbed7c73b	-0.42144188
76	0x3f01aee3	0.5065748
77	0x3d791e4e	0.060819916
78	0x3f3e0ac1	0.7423516
79	0x3f421cf1	0.7582541
80	0xbf505f30	-0.81395245
81	0xbe46a776	-0.19399819
82	0x3e216583	0.1576138
83	0xbea5956d	-0.32340565
84	0xbfa62e22	-1.2982829
85	0xbe00a921	-0.12564518
86	0xbf601dcf	-0.87545484
87	0xbf93ebbd	-1.1556317
88	0x3eade52a	0.339639
89	0xbfadf6c8	-1.3590937
90	0xbe9dfd6c	-0.30857408
91	0xbf66318f	-0.8991937
92	0xbf9fbdb0	-1.2479763
93	0x3f876d51	1.0580236
94	0xbf041f22	-0.51610005
95	0x3f8d83ac	1.1055808
96	0x3f8836bf	1.0641707
97	0xbfad9739	-1.3561774
98	0x3e9092e0	0.28237057
99	0xbf9f8587	-1.2462624
100	0x3e51f8dd	0.2050509
101	0x3f54d2ed	0.8313435
102	0xbff02823	-1.8762249
103	0xbec8edc9	-0.39243916
104	0xbee22785	-0.44170776
105	0xbfcb46d8	-1.5880995
106	0xbeb719b7	-0.35761806
107	0xbf819da0	-1.0126228
108	0xbf51547e	-0.8176955
109	0x3f9f0218	1.2422514
110	0xbe4d22f1	-0.2003286
111	0x3f835812	1.0261252
112	0x3d25a8ba	0.040444113
113	0xbfdce1e5	-1.7256438
114	0xbef161fb	-0.47145066
115	0x3f9c1477	1.2193745
116	0xbe52c6fc	-0.20583719
117	0x3ee76790	0.451962
118	0x3db8df69	0.09026987
119	0xbdfa96f8	-0.12235826
120	0x3eee2415	0.46511903
121	0xbec66cb7	-0.38754818
122	0xbf5310ba	-0.824474
123	0x3ea62bf7	0.32455418
124	0xbfcbaa6f	-1.5911387
125	0x3f31ee37	0.6950411
126	0xbf066d5b	-0.52510613
127	0xbe00a24c	-0.12561911
128	0xbeaa1cc1	-0.33225062
129	0x3dff9c1e	0.12480949
130	0xbf1f3291	-0.62186533
131	0xbf8e1bd4	-1.1102242
132	0x3eb3cb81	0.351162
133	0x3d936fb0	0.07199037
134	0x3c9c4776	0.019077044
135	0xbf91772e	-1.1364496
136	0x3f867a32	1.0506041
137	0x3e8b7437	0.27237102
138	0xbfd72135	-1.6807009
139	0xbf193cd6	-0.59858453
140	0x3f860ec7	1.047326
141	0xbfd19ccf	-1.6375979
142	0x3e774403	0.24147038
143	0xbf19335f	-0.5984401
144	0x3f199e8f	0.60007566
145	0x3de774c7	0.113015704
146	0x3e412f48	0.18865693
147	0x3f2dff60	0.67967796
148	0xbfc45c25	-1.534062
149	0xbd9d3908	-0.076768935
150	0xbef2c60b	-0.4741672
151	0x3f1ea3fd	0.61968976
152	0xbf2f9727	-0.68590015
153	0xbe8e4b6b	-0.27791914
154	0xbe9ae531	-0.30252984
155	0x3fa8dec5	1.3192984
156	0xbfb9162a	-1.4459889
157	0x3f1a0154	0.60158277
158	0xc00cfb98	-2.202856
159	0xbcf947f5	-0.03042982
160	0xbfcd1c95	-1.6024348
161	0xbe8cf2ad	-0.27528897
162	0xbff1401f	-1.8847693
163	0x3de47854	0.11155763
164	0xbe62b7dc	-0.2214045
165	0xbe53ea2e	-0.20694801
166	0xbf97048e	-1.1798265
167	0xbfa7488e	-1.3069017
168	0x3f47ee63	0.78098124
169	0x3c3c66d0	0.011499122
170	0x3f444714	0.76670957
171	0xbe3a401e	-0.18188521
172	0x3f67cd70	0.9054785
173	0xbc678756	-0.014131388
174	0x3d141e40	0.03616166
175	0xbdeb743f	-0.114967816
176	0xbe711983	-0.23544888
177	0xbef424ab	-0.47684225
178	0x3fa7a1ee	1.3096292
179	0xc02b8bc6	-2.680406
180	0xbee0ebed	-0.43929997
181	0xbf12cea7	-0.57346576
182	0xbecf30df	-0.40466973
183	0xbfc5b45a	-1.5445664
184	0xbfada3a1	-1.356556
185	0xbf7ff177	-0.9997782
186	0x3e4ae4be	0.1981382
187	0x3ee39c79	0.44455317
188	0xbf8702a7	-1.0547684
189	0xbe637995	-0.22214349
190	0x3f0136f9	0.50474507
191	0xbeccbe3c	-0.39988887
192	0xbee16119	-0.44019392
193	0x3f806785	1.0031592
194	0xbe61d029	-0.22052063
195	0x3f02e5a5	0.5113166
196	0xbee2344a	-0.44180518
197	0x3fa42f06	1.282685
198	0xbf97220a	-1.1807263
199	0x3e7b72b5	0.24555476
200	0xbdd04eae	-0.10171257
201	0x3bdeb9ad	0.0067970366
202	0x3d16a0d2	0.036774464
203	0x3fa21602	1.2662966
204	0xbdb7595c	-0.08952591
205	0x3f531c02	0.8246461
206	0xbf52483b	-0.82141465
207	0xc03911a0	-2.8917007
208	0xbea63f84	-0.32470334
209	0xbf5a396b	-0.8524386
210	0xbf59b0fc	-0.8503568
211	0xbf51087e	-0.81653583
212	0xbf3c1b01	-0.73478705
213	0xbf297d9b	-0.66207284
214	0xbe881a91	-0.2658277
215	0xbf9a0238	-1.2031927
216	0xc0104a1d	-2.2545235
217	0x3ec29458	0.38003802
218	0xbe2ddbc4	-0.16978365
219	0xbd880ce0	-0.06643081
220	0x3f57c364	0.8428252
221	0xc0046253	-2.0685012
222	0xbf9c99d1	-1.2234441
223	0x3df2fffb	0.11865231
224	0x3e48b7a1	0.19601299
225	0x3eac3b15	0.33638826
226	0xbf8c7446	-1.0972984
227	0x3f2ce97e	0.6754378
228	0xbf4155ab	-0.75521344
229	0x3e89940d	0.26870766
230	0x3d3bb62a	0.045828022
231	0xc02640e4	-2.5977106
232	0x3f4f0bb2	0.8087722
233	0xbfdfc8a5	-1.7483107
234	0x3ea75aa0	0.3268633
235	0xbfee8258	-1.8633528
236	0x3e565302	0.20930102
237	0x3f0e6ef9	0.5563808
238	0x3fb16503	1.3858951
239	0xbf216569	-0.63045365
240	0x3ea91bd2	0.33029038
241	0xbc828601	-0.015933039
242	0xbf4841fe	-0.78225696
243	0xbd1d08ba	-0.0383384
244	0xbe8e3d1b	-0.27780995
245	0x3e720db2	0.23638037
246	0x3ebedfd3	0.3728014
247	0xbdb687bc	-0.08912608
248	0xbf261532	-0.6487609
249	0x3efca79f	0.49346635
250	0x3f9325bf	1.1495894
251	0xbf896f2f	-1.0737056
252	0xbf354d01	-0.70820624
253	0x3fd9284c	1.6965423
254	0x3e989916	0.29804295
255	0xbdc2cdac	-0.09511885

net.2.bias f4 [128]
0	0xbd065565	-0.032796282
1	0xbf148d12	-0.58027756
2	0xbf58d790	-0.8470392
3	0x3d8933f3	0.06699362
4	0xbf312210	-0.691926
5	0xbf71fad2	-0.94523346
6	0xbeb577f7	-0.35443088
7	0x3f50712f	0.81422704
8	0xbf15b508	-0.58479357
9	0xbf2dd7d0	-0.6790743
10	0xbdf5aabe	-0.11995457
11	0xbf000494	-0.50006986
12	0xbe2d6aa7	-0.16935216
13	0xbe009e6c	-0.12560433
14	0x3d1a7cb6	0.03771659
15	0xbf3b6b0a	-0.73210204
16	0xbea140e3	-0.31494817
17	0x3d09a8c8	0.033608228
18	0xbe04c814	-0.12966949
19	0xbf3156d5	-0.6927312
20	0xbf62715b	-0.88454217
21	0xbf059754	-0.52184033
22	0xbf4a460e	-0.79013145
23	0xbe8e847f	-0.27835461
24	0x3e863386	0.26211184
25	0xbe9c7ad9	-0.30562475
26	0x3eaa532d	0.33266583
27	0xbf83d07b	-1.0297998
28	0xbf1100f3	-0.56642073
29	0x3ec431d3	0.38319263
30	0xbef1fc27	-0.4726269
31	0xbd8a608e	-0.067566976
32	0xbeb486d8	-0.35259128
33	0xbed35d86	-0.4128229
34	0xbcd7726f	-0.026299683
35	0xbd470f69	-0.04859868
36	0xbe84a4b4	-0.2590691
37	0xbc3dfe7a	-0.0115963165
38	0xbeed96fa	-0.46404248
39	0xbe0bc165	-0.13647993
40	0xbd43bb3e	-0.04778599
41	0xbde58ddb	-0.112086974
42	0xbf121718	-0.5706649
43	0xbed7eda1	-0.42173484
44	0x3ea40571	0.320354
45	0xbf1535d2	-0.5828525
46	0xbe85de4f	-0.2614617
47	0xbebc23e7	-0.3674614
48	0xbeda9950	-0.42695093
49	0xbe862d37	-0.2620637
50	0xbeda5899	-0.4264572
51	0xbf04f6f4	-0.5193932
52	0xbf19dd25	-0.60103065
53	0xbf2cc711	-0.6749125
54	0xbf151702	-0.5823823
55	0xbf696c15	-0.91180545
56	0xbe3aeb97	-0.18253933
57	0xbe87cedd	-0.26525012
58	0xbf721905	-0.94569427
59	0x3e6fde32	0.23424605
60	0xbedd7c1d	-0.43258753
61	0xbe45aab5	-0.19303401
62	0xbf2b1229	-0.66824585
63	0xbe852c97	-0.26010582
64	0xbe0bfea8	-0.13671362
65	0xbe3c9222	-0.1841512
66	0xbe224710	-0.1584742
67	0xbfbe7bc4	-1.488152
68	0x3d4647af	0.048408207
69	0xbf3a1a3d	-0.72696286
70	0xbefe785a	-0.49701196
71	0xbec6a6ed	-0.3879923
72	0xbe4ced76	-0.20012459
73	0x3dc9f795	0.09861676
74	0xbdca86b4	-0.09888974
75	0xbe38805b	-0.18017714
76	0x3e1e23a3	0.15443282
77	0xbf784954	-0.9698689
78	0xbe8e9134	-0.27845156
79	0xbe9136d2	-0.28362137
80	0xbe0a5bb4	-0.13511544
81	0xbc42f490	-0.011899129
82	0xbf45a725	-0.7720817
83	0xbe68c8c6	-0.22732839
84	0xbf05ff83	-0.52343005
85	0xbf28accb	-0.6588866
86	0xbf5a3130	-0.85231304
87	0xbe5b216b	-0.21399467
88	0x3f9568e9	1.1672641
89	0xbed2adeb	-0.41148314
90	0xbf9a42af	-1.20516
91	0xbebdb770	-0.37054014
92	0x3e226ceb	0.15861861
93	0xbeb9df2c	-0.3630308
94	0xbf076856	-0.5289358
95	0xbf7bcf6a	-0.98363364
96	0xbf029e22	-0.5102254
97	0x3d9fa86f	0.07795798
98	0xbe7aa3aa	-0.24476495
99	0xbec3b4cc	-0.38223875
100	0xbf09d7da	-0.5384499
101	0xbebe190d	-0.37128487
102	0xbeb1cb5e	-0.3472547
103	0xbef65aa6	-0.48116034
104	0x3dab2a2e	0.083576545
105	0xbe5e6296	-0.21717295
106	0xbee5ad93	-0.4485899
107	0xbeb95e1b	-0.3620461
108	0xbf78435b	-0.96977776
109	0xbf17ee32	-0.5934783
110	0xbeb44fb2	-0.35217053
111	0xbe95837d	-0.2920188
112	0x3e722176	0.23645577
113	0x3d968552	0.073496476
114	0x3e5b59b0	0.21420932
115	0x3eaefac6	0.341757
116	0xbeb82972	-0.3596912
117	0xbee2fc9c	-0.4433335
118	0xbe2a8e84	-0.16655928
119	0xbf27604d	-0.6538132
120	0xbcfe8948	-0.03107132
121	0xbe43e630	-0.19130778
122	0xbef16606	-0.4714815
123	0xbf226011	-0.63427836
124	0xbf33a691	-0.70176035
125	0xbbe1382f	-0.0068731527
126	0x3e1511f7	0.14557634
127	0xbf02e726	-0.51133955

net.4.weight f4 [128, 128]
0	0x3f95b5d0	1.169611
1	0x3d6ca1ff	0.05777168
2	0x3e3aec27	0.18254147
3	0x3d61f474	0.05516477
4	0x3e949551	0.2902017
5	0xbf3e6aa2	-0.7438146
6	0xbfcb5502	-1.5885317
7	0xbf57b150	-0.8425493
8	0xbf799993	-0.9749996
9	0xbf46c10b	-0.7763831
10	0x3d90d713	0.07072272
11	0xbfc86737	-1.5656499
12	0x3f9fc568	1.2482119
13	0xbfe185a9	-1.7618915
14	0x3f3a6fc3	0.72826785
15	0xbedbbb4e	-0.4291634
16	0x3f2d5b85	0.6771777
17	0x3ee7ee40	0.45298958
18	0x3f27a058	0.6547904
19	0x3ea3d5e9	0.31999138
20	0xbf119bcd	-0.5687836
21	0xbe0d0aee	-0.137737
22	0x3ec063c9	0.3757613
23	0x3f536c39	0.8258701
24	0xbfcf50c4	-1.6196523
25	0x3fc482db	1.5352434
26	0x3d8a3290	0.06747925
27	0xbf97b53a	-1.1852181
28	0xbf2a1bb8	-0.66448545
29	0x3ed9e2cd	0.42555848
30	0xbfe385df	-1.7775229
31	0xbfc84b4b	-1.5647978
32	0xbdde0379	-0.10840506
33	0xbe530acc	-0.20609587
34	0xbe222e97	-0.15838085
35	0xbf12aef7	-0.57298225
36	0xbe185622	-0.14876607
37	0xbeb99707	-0.36248037
38	0x3f157401	0.5838013
39	0xbf40bb61	-0.7528592
40	0xbf143174	-0.5788796
41	0x3f3d18e7	0.7386612
42	0x3f5092cd	0.81474
43	0x3f14fa40	0.5819435
44	0xbee3e09a	-0.44507295
45	0xbccb73ca	-0.024835486
46	0x3f4003df	0.75005907
47	0xbc2784ea	-0.01022456
48	0xbf24b034	-0.64331365
49	0x3f054914	0.52064633
50	0xbf1a3f7f	-0.6025314
51	0xbf2e79fd	-0.6815489
52	0xbf1b4831	-0.6065703
53	0xbf5d8656	-0.86533105
54	0xbfcba27b	-1.590896
55	0x3d396b74	0.04526849
56	0xbca4ec01	-0.020132067
57	0xbf8af618	-1.0856352
58	0x3f1fd4c2	0.6243402
59	0x3eec7f06	0.4619066
60	0x3e54ebcf	0.20793079
61	0x3f8fe946	1.1243064
62	0xbf22c3b4	-0.6357987
63	0x3f049003	0.51782244
64	0x3ee9139b	0.4552277
65	0x3ec631ef	0.3870997
66	0xbeb9c8f2	-0.36286122
67	0xbe2b4e82	-0.16729167
68	0xbfa552d2	-1.29159
69	0x3faf2a3f	1.3684767
70	0x3f112ada	0.5670601
71	0x3e81f16b	0.253795
72	0xbfdd4c3a	-1.7288888
73	0xbe865ecc	-0.262442
74	0xbf9fc860	-1.2483025
75	0xbeae7c05	-0.34078994
76	0xbfd9fcd0	-1.7030277
77	0xbf62d637	-0.88608116
78	0x3faf31fa	1.3687127
79	0x3f4e18cb	0.8050658
80	0x3f4a3050	0.7897997
81	0x3fb9b3fd	1.4508053
82	0x3e37996c	0.1792962
83	0x3eb771f6	0.35829133
84	0xbf0aedbc	-0.54269004
85	0x3e909f9c	0.28246772
86	0x3ed552f9	0.41664866
87	0xbf21c4d7	-0.6319098
88	0xbe8e3264	-0.2777282
89	0xbfa02357	-1.2510785
90	0x3eb5b263	0.3548766
91	0xbe3e726f	-0.1859834
92	0xbf57ecd4	-0.84345746
93	0xbfc9d5c0	-1.5768356
94	0xbf65a339	-0.89702183
95	0x3dff19aa	0.12456067
96	0xbf52b006	-0.8229984
97	0xbfa8a51a	-1.3175385
98	0xbf37cdfe	-0.71798694
99	0xbf7d880d	-0.9903572
100	0x3e1f8a26	0.15580043
101	0xbe558002	-0.20849612
102	0xbed8e017	-0.42358467
103	0x3f0eb718	0.5574813
104	0xbedf3297	-0.43593284
105	0xbd84f1cd	-0.06491432
106	0xbfcae0ea	-1.5849888
107	0x3ebe0989	0.3711665
108	0x3e8b6d69	0.2723191
109	0x3ed7ba6d	0.4213442
110	0x3f085056	0.5324758
111	0xbe5a17a9	-0.21298088
112	0x3e40204c	0.1876232
113	0x3f3494a0	0.70539284
114	0xbe61933f	-0.22028826
115	0xbea1ba4a	-0.3158744
116	0xbf462b18	-0.77409506
117	0xbf46794c	-0.77528834
118	0xbe439854	-0.19101077
119	0xbef887cd	-0.48541108
120	0x3f698d50	0.9123125
121	0x3dbe1174	0.09280673
122	0x3f5bec40	0.85907364
123	0x3f9df1bd	1.2339398
124	0xbeff449a	-0.49857026
125	0x3e5f195e	0.2178702
126	0x3f12c4a2	0.5733129
127	0xbf81b56d	-1.0133492
128	0xbf75dc41	-0.96039206
129	0xbfcf104c	-1.6176848
130	0x3e3cfa9d	0.18454976
131	0xc0537f20	-3.304634
132	0xbe40a2d0	-0.18812108
133	0xbf1a139a	-0.6018616
134	0x3ea5018f	0.32227752
135	0x3f6900be	0.9101676
136	0x3f4c2ed0	0.7975893
137	0xbf914631	-1.1349546
138	0xbe96a596	-0.29423207
139	0x3e34768d	0.17623349
140	0x3f1c37c8	0.61022615
141	0x3dc725f8	0.09724039
142	0x3e2384b3	0.1596859
143	0xbf2a40a9	-0.66504914
144	0xbfb494a0	-1.4107857
145	0xbf513e7d	-0.81735975
146	0x3fb5def9	1.4208671
147	0xbc0bab56	-0.008524736
148	0xbeb30ebb	-0.34972176
149	0x3f55d44e	0.83527076
150	0x3da33c46	0.079704806
151	0x3f831761	1.024151
152	0xbfc5197e	-1.5398405
153	0xbf6ed6db	-0.93296593
154	0xbeedd61a	-0.4645241
155	0x3ebbd0f2	0.3668285
156	0xbe97bade	-0.29634756
157	0xbe624e7e	-0.22100255
158	0x3f21c790	0.63195133
159	0xbf105f31	-0.5639525
160	0x3fc43246	1.5327842
161	0xbf503653	-0.8133289
162	0x3ef437ab	0.4769872
163	0xbf4cd78c	-0.800164
164	0xbf3a5171	-0.7278052
165	0xbe433424	-0.19062859
166	0xbf926619	-1.1437408
167	0x3f4323ef	0.76226705
168	0x3f7d2dd6	0.98898065
169	0xbf6c220f	-0.9223947
170	0x3e2168dc	0.15762657
171	0xbe57b9fa	-0.21067038
172	0x3e349c77	0.17637812
173	0x3d2cf813	0.04222877
174	0xbf0547cc	-0.5206268
175	0xbdb8b354	-0.09018579
176	0x3f528ce5	0.8224624
177	0x3ecde4d5	0.40213647
178	0xbf87bc57	-1.0604352
179	0x3e64a4e5	0.22328527
180	0xbf2306e9	-0.6368242
181	0xbf22db69	-0.63616043
182	0xbe9eafaf	-0.3099341
183	0xbf8998af	-1.074972
184	0x3c3edce7	0.011649347
185	0xbea3450f	-0.31888625
186	0xbe9b899c	-0.30378425
187	0xbf0e4148	-0.5556836
188	0xbf28d87b	-0.65955323
189	0x3b8fd9d8	0.0043899827
190	0xbf5374e0	-0.8260021
191	0x3ec30cf6	0.38095826
192	0xbedbc44a	-0.42923194
193	0x3e7355eb	0.23763244
194	0xbec4fa69	-0.38472298
195	0xbf1c3c50	-0.6102953
196	0xbc2d3dad	-0.010573787
197	0xbe9d65bd	-0.30741683
198	0x3b9ebd92	0.004844376
199	0xbf85ae7b	-1.0443872
200	0x3ee8ccd0	0.4546876
201	0xbf4d789a	-0.8026215
202	0x3e73738a	0.23774543
203	0xbfac1095	-1.344256
204	0xbee27a2f	-0.44233844
205	0xbe4e261e	-0.20131728
206	0xbe6ab9c3	-0.22922425
207	0x3f1f41d3	0.62209815
208	0xbe9aaa6a	-0.3020814
209	0x3f3dad3a	0.7409245
210	0xbee1c1eb	-0.4409326
211	0x3ed23517	0.4105613
212	0x3eda3f1e	0.4262628
213	0x3f7405b3	0.95321196
214	0x3e78c853	0.24295168
215	0xbe00650d	-0.12538548
216	0xbfb9cec8	-1.451623
217	0x3e113991	0.14182116
218	0x3e03f61e	0.12886855
219	0x3f048814	0.5177014
220	0xbe5dc4c9	-0.21657099
221	0x3f87be17	1.0604886
222	0xbfcdca49	-1.6077358
223	0xbf6eb48b	-0.93244237
224	0xbf2d7206	-0.6775211
225	0x3f8ce543	1.1007465
226	0xbc398536	-0.011323264
227	0x3eac08c8	0.3360045
228	0x3f2ce0af	0.6753034
229	0x3c5059d0	0.0127167255
230	0x3f1d2527	0.61384815
231	0xbf3b767b	-0.7322766
232	0x3eacd888	0.3375895
233	0x3adcaf2a	0.0016836871
234	0x3eaa618a	0.3327754
235	0x3bdc6984	0.0067264456
236	0x3ef3611a	0.4753502
237	0xbe2770eb	-0.16351669
238	0xbe62b8a4	-0.22140747
239	0xbd2df12a	-0.04246632
240	0xbf3a7108	-0.7282872
241	0xc00cd4b0	-2.2004814
242	0xbebf7487	-0.3739359
243	0xbf71a1dc	-0.943876
244	0xbe252611	-0.16127802
245	0xbe9aec90	-0.30258608
246	0xbd098fde	-0.033584468
247	0x3e32d6b2	0.17464712
248	0x3fa020d4	1.2510018
249	0xbe9a5f1a	-0.30150682
250	0x3e415e67	0.18883668
251	0xbde9879e	-0.1140282
252	0xbe5ec0f4	-0.21753293
253	0x3e43e6d7	0.19131027
254	0xbff7cc05	-1.9359137
255	0x3f8ea641	1.1144487

net.4.bias f4 [128]
0	0xbf652032	-0.8950225
1	0xbfc2eea4	-1.5229077
2	0xbed1fdf8	-0.41014075
3	0xbf865acb	-1.0496458
4	0xbfe8b10c	-1.817903
5	0xbf91a0de	-1.1377218
6	0xbe45064f	-0.19240688
7	0xbf69c0ea	-0.9130999
8	0xbef77946	-0.48334712
9	0xbf8b40d8	-1.0879164
10	0xbf3af9eb	-0.73037595
11	0xbea1375d	-0.3148755
12	0xbf3f324b	-0.74686116
13	0xbf8b75d6	-1.0895336
14	0xbf91d5b0	-1.1393337
15	0xbf4fd835	-0.8118928
16	0xbebdbb6d	-0.37057057
17	0x3e12f189	0.14349951
18	0xbcb205b1	-0.02173123
19	0x3dbc4816	0.09193437
20	0xbfa3c61c	-1.2794833
21	0xbf48a4a1	-0.78376204
22	0xbf2d514c	-0.67702174
23	0xbfd0c445	-1.6309897
24	0xbf80899e	-1.0041997
25	0xbf48c217	-0.7842116
26	0xbf8c0743	-1.0939716
27	0xbf6fd33d	-0.936817
28	0xbfd5a93c	-1.6692271
29	0xbf9121e2	-1.1338465
30	0xbf33b7d8	-0.702024
31	0xbd865e5e	-0.06560968
32	0xbf5c6a98	-0.8610015
33	0xbd7c8640	-0.06165147
34	0xbf6d0ca9	-0.9259744
35	0xbf1160b4	-0.5678818
36	0xbfb022ea	-1.3760655
37	0xbf8011da	-1.0005448
38	0x3e37305c	0.17889541
39	0xbf76ac05	-0.9635623
40	0xbe85b0d4	-0.26111472
41	0xbf6e44fe	-0.93074024
42	0xbf84d3f2	-1.037718
43	0xbf723dce	-0.94625556
44	0x3efe1156	0.496226
45	0xbf2c2d4c	-0.6725662
46	0xbf8702ea	-1.0547764
47	0x3f1b0819	0.6055923
48	0xbf409db9	-0.75240666
49	0xbf005eda	-0.5014473
50	0x3f174541	0.5909005
51	0xbf83f0b0	-1.0307827
52	0xbf9b00d2	-1.2109625
53	0xbfc6dcf7	-1.5536183
54	0xbf86d3fd	-1.0533444
55	0xbf3dad97	-0.74093
56	0xbea64578	-0.32474875
57	0xbdff5ecb	-0.12469252
58	0xbf9d625c	-1.2295642
59	0xbf6d3b45	-0.92668563
60	0xbf85a360	-1.0440483
61	0xbf633dd8	-0.8876624
62	0xbfb6651d	-1.4249607
63	0xbfad0965	-1.3518492
64	0xbf8bf305	-1.0933539
65	0x3e90ffb7	0.28320095
66	0xbfbabe8b	-1.4589399
67	0xbf009c32	-0.50238335
68	0xbffa87f5	-1.9572741
69	0xbfc79e3a	-1.5595162
70	0x3f28b263	0.65897197
71	0xbf91f9ba	-1.1404335
72	0xbe4e65b9	-0.20155992
73	0x3d498bc0	0.04920554
74	0x3d8b45c8	0.06800419
75	0xbf989f3b	-1.1923593
76	0xbf42ed5a	-0.7614342
77	0xbfd1d17c	-1.6392055
78	0xbf151b5c	-0.5824487
79	0x3e9a7140	0.30164528
80	0x3dbbbb59	0.09166593
81	0xbfb4282a	-1.4074757
82	0xbd36dd8a	-0.04464487
83	0xbf2563f0	-0.6460562
84	0xbe9ba67c	-0.30400455
85	0xbf64fcc6	-0.894482
86	0xbf20530f	-0.6262674
87	0xbeb8ffa9	-0.36132553
88	0x3f8fcb64	1.1233945
89	0xbf0881b4	-0.5332291
90	0xbf78a5aa	-0.97127783
91	0xbf953376	-1.165633
92	0x3de61fcb	0.11236533
93	0xbfa44055	-1.2832133
94	0xbfc58a7f	-1.5432891
95	0xbf258a26	-0.6466392
96	0xbf56698d	-0.8375481
97	0xbf8bb4f0	-1.0914593
98	0xbf7bbd87	-0.9833607
99	0x3eb1ef0a	0.34752685
100	0xbf9b1d8e	-1.2118394
101	0xbfff925d	-1.9966542
102	0xbece86c0	-0.4033718
103	0xbf09fd19	-0.5390182
104	0xbf9c58af	-1.2214564
105	0xbf630b5c	-0.8868921
106	0xbe0e0a54	-0.13871127
107	0x3f4898a8	0.78357935
108	0xbf5fd8c8	-0.87440157
109	0xbe421a8d	-0.18955441
110	0xbe60daf9	-0.21958531
111	0xbf342eee	-0.7038411
112	0x3e9950a2	0.2994433
113	0xbf837db0	-1.0272732
114	0xbf205a2d	-0.626376
115	0xbf4a562e	-0.7903775
116	0xbf1234df	-0.57111925
117	0xbf8a33be	-1.079704
118	0xbe7a810d	-0.24463291
119	0xbf8ea959	-1.1145431
120	0xbf9b69f4	-1.2141709
121	0xbf3d12e3	-0.73856944
122	0xbfe9fa41	-1.8279496
123	0xc00e113b	-2.2198017
124	0xbe90e3d2	-0.28298813
125	0xbfc95108	-1.5727854
126	0xbf8a45a7	-1.0802506
127	0x3ea1f186	0.3162958

net.6.weight f4 [7, 128]
0	0x3f027b4f	0.50969404
1	0x3e1f3d57	0.15550743
2	0xbe1ef854	-0.15524417
3	0x3e9103bd	0.28323165
4	0x3ef7ac95	0.48373857
5	0xbe40cf76	-0.1882914
6	0xbde8b76c	-0.1136311
7	0x3e4f7b6e	0.20261928
8	0x3db8a0ca	0.09015043
9	0x3f0a03f4	0.5391228
10	0x3f0b3bb5	0.5438798
11	0x3c183177	0.009289137
12	0x3f3cc0c6	0.7373165
13	0x3f3b9c9d	0.7328585
14	0x3ed4793e	0.4149875
15	0x3e067764	0.13131481
16	0x3f29e5b3	0.6636612
17	0xbf0e91a5	-0.55690986
18	0x3f3c17cc	0.7347381
19	0x3ec9d5a7	0.39420816
20	0x3ecac655	0.3960444
21	0x3f0f535b	0.55986565
22	0x3ee8c000	0.45458984
23	0xbebaef8f	-0.36510894
24	0xbea86de1	-0.3289633
25	0xbe912e78	-0.28355765
26	0x3f09bad1	0.53800684
27	0x3eb1121f	0.34584138
28	0x3de47502	0.1115513
29	0x3e99f149	0.30066898
30	0x3e8639e9	0.26216057
31	0x3eb253ee	0.34829658
32	0x3f22b75a	0.6356102
33	0x3d9b268d	0.07575712
34	0xbfa9077a	-1.3205407
35	0xbf34353e	-0.7039374
36	0x3f11db1a	0.5697495
37	0x3ee8414f	0.45362327
38	0x3ed6fcf1	0.41989854
39	0x3ec0c7a5	0.37652317
40	0x3f3a0229	0.72659546
41	0xbf6c6f63	-0.9235746
42	0xbd965702	-0.07340814
43	0x3f5be0b7	0.8588976
44	0x3f09cd80	0.53829193
45	0x3f01cf3c	0.5070684
46	0x3f03bb6e	0.5145787
47	0xbf1d086f	-0.61340994
48	0x3f24198f	0.641015
49	0x3f383d50	0.71968555
50	0xbe54af81	-0.20770074
51	0x3eb65f01	0.35619357
52	0x3ddd6cf1	0.108117945
53	0x3e97b1a5	0.2962772
54	0x3d074a15	0.033029635
55	0x3f6b9f90	0.9204035
56	0xbf0130be	-0.50465
57	0x3dbdb0f7	0.09262269
58	0xbd6bb530	-0.05754584
59	0x3ef5f53f	0.4803867
60	0x3f1911a0	0.5979252
61	0x3f21f2f3	0.63261336
62	0x3e548978	0.20755565
63	0x3f433f48	0.76268435
64	0xbba8a60c	-0.0051467475
65	0x3eef023d	0.46681395
66	0x3edaf21b	0.42762837
67	0xbfce620e	-1.6123674
68	0x3dc39654	0.09550157
69	0xbf96b57d	-1.1774136
70	0x3d6290ef	0.055314
71	0xbf38eda5	-0.72237617
72	0xbbf35def	-0.0074269692
73	0x3ebdbb15	0.37056795
74	0xbf0a6741	-0.540638
75	0x3f27b64e	0.6551255
76	0x3f1cda93	0.6127102
77	0xbd986a8b	-0.074421965
78	0x3e638347	0.22218047
79	0xc0e6f819	-7.2177854
80	0x3efccf89	0.49377087
81	0x3e9076e5	0.2821571
82	0x3ee12534	0.43973696
83	0x3eb75d45	0.35813347
84	0x3f02a0ad	0.5102642
85	0x3f0377af	0.513545
86	0xbcd6f4c4	-0.02623976
87	0x3da6eee9	0.08151037
88	0xbf361841	-0.7113076
89	0x3d14934c	0.036273286
90	0xbcd38cdb	-0.025824001
91	0xbf00dc11	-0.50335795
92	0x3f0e70e6	0.5564102
93	0xbed71a72	-0.42012364
94	0xbeb64455	-0.35599008
95	0x3ec16859	0.37774923
96	0x3e86896c	0.2627672
97	0x3f2ec44f	0.68268293
98	0x3ebd1348	0.36928773
99	0x3ed2be70	0.41160917
100	0x3f3b482e	0.7315701
101	0x3f4fb898	0.8114104
102	0x3e6ea9c5	0.2330695
103	0xbf46b9e6	-0.7762741
104	0xbe755fb8	-0.23962295
105	0x3dc4e4bb	0.096139394
106	0x3e666903	0.22500996
107	0x3eadf353	0.33974704
108	0x3f05d1a6	0.52273023
109	0xbea452ee	-0.3209452
110	0x3ee4bfea	0.4467767
111	0x3f003e84	0.5009539
112	0xbf804c74	-1.0023332
113	0x3e046e2d	0.12932654
114	0xbe5fae8b	-0.21843927
115	0xbe031a12	-0.12802914
116	0x3e85af8b	0.2611049
117	0x3eea916b	0.4581407
118	0xbe792f90	-0.2433455
119	0x3f1b1398	0.6057677
120	0x3d9e2173	0.07721224
121	0x3f2238d4	0.6336796
122	0x3cba4762	0.022739116
123	0x3ea3b6b9	0.31975344
124	0xc043056d	-3.0472062
125	0x3f2853a2	0.65752614
126	0x3f3618a9	0.7113138
127	0x3ecd2a48	0.4007132
128	0xbdfbdc8f	-0.122979276
129	0x3dd46bb1	0.10372103
130	0xbc8039bf	-0.015652535
131	0xbf68abf2	-0.9088737
132	0x3f0068cc	0.5015991
133	0x3f0b77ca	0.5447966
134	0xbe03f111	-0.12884928
135	0xbed35f61	-0.41283706
136	0xbf634d65	-0.8878997
137	0xbeba64d0	-0.3640504
138	0xbe8d1be9	-0.27560356
139	0x3f6bd69a	0.9212433
140	0xbec1f41d	-0.37881556
141	0xbec30ff7	-0.38098118
142	0x3ecb966d	0.39763203
143	0x3f0b8efe	0.54515064
144	0xbd7b1df5	-0.061307866
145	0x3ee3c533	0.4448639
146	0xbd1fc277	-0.039003816
147	0x3f013881	0.50476843
148	0xbd9a150c	-0.075235456
149	0x3f8775aa	1.0582783
150	0x3e6d905b	0.23199598
151	0x3f630def	0.88693136
152	0xbe0ea994	-0.13931876
153	0x3f3f5474	0.7473824
154	0x3e4806a5	0.19533785
155	0x3ef28095	0.47363725
156	0xbf71fc29	-0.9452539
157	0xbe79393f	-0.24338244
158	0x3f202e2c	0.6257045
159	0x3f038019	0.51367337
160	0xbf519f0d	-0.8188332
161	0x3e0a2ba3	0.13493209
162	0x3ee4527c	0.4459418
163	0xbd955e94	-0.0729343
164	0x3dfa0693	0.12208285
165	0xbec30c8a	-0.38095504
166	0xbedc5279	-0.43031672
167	0xbe19198a	-0.14951149
168	0x3ba966e2	0.0051697353
169	0x3f39ea23	0.7262289
170	0x3f8b3e62	1.0878413
171	0x3f301520	0.68782234
172	0xbf2ceb8f	-0.67546934
173	0x3f1b12c5	0.60575515
174	0xbe38f455	-0.18061955
175	0x3eda4e62	0.42637926
176	0x3e1e1b0a	0.15440002
177	0x3f34c289	0.7060934
178	0xbe6be62f	-0.23037027
179	0x3f08781a	0.5330826
180	0x3d15410d	0.03643899
181	0xbf2c93be	-0.67412937
182	0x3d216f65	0.039412875
183	0xbe6f93a7	-0.23396169
184	0x3ee5b787	0.44866583
185	0xbf03d57e	-0.5149764
186	0xbeafd801	-0.34344485
187	0xbc16c8ed	-0.009203178
188	0xbec87b8a	-0.39156753
189	0x3edb724e	0.42860645
190	0xbe8e1d2d	-0.27756634
191	0xbe4202e8	-0.18946421
192	0xbf359789	-0.7093435
193	0xbf260e4c	-0.64865565
194	0x3f0e32e0	0.5554638
195	0xbec208c3	-0.3789731
196	0x3edeb1bf	0.43494985
197	0xbe54ec10	-0.20793176
198	0x3ebc711e	0.36805052
199	0xbe8c101d	-0.27356043
200	0xbd478cac	-0.04871814
201	0xbf3bf7f7	-0.7342524
202	0xbd96e348	-0.07367569
203	0x3e4d3072	0.20038012
204	0x3d8a05aa	0.067393616
205	0x3f2d067e	0.6758803
206	0x3f285920	0.65760994
207	0x3edecbda	0.435149
208	0x3b873842	0.0041265795
209	0xbe9ffcd5	-0.31247583
210	0xbf68e48e	-0.90973747
211	0x3f2875be	0.6580466
212	0x3ec524c8	0.38504624
213	0xbe841baa	-0.25802356
214	0xbf17922e	-0.5920743
215	0x3f08525e	0.5325068
216	0x3e786904	0.2425881
217	0xbb9fe50d	-0.0048796
218	0x3f4176cc	0.75571895
219	0xbf0498a5	-0.5179542
220	0xc016e6af	-2.3578298
221	0x3ebfb456	0.37442273
222	0x3e166496	0.14686808
223	0x3e1b1881	0.15146066
224	0x3ba93659	0.0051639494
225	0xbee3fde2	-0.44529635
226	0xbf31dfc6	-0.69482076
227	0x3e74d013	0.23907499
228	0xbd8312c4	-0.06400064
229	0xbeea5593	-0.45768413
230	0x3e314ea8	0.17315161
231	0x3f381c92	0.71918595
232	0xbf2f625a	-0.6850945
233	0x3e98bc54	0.29831183
234	0xbe8a5dee	-0.27024788
235	0x3e5e9896	0.21737894
236	0xbd7ae927	-0.061257508
237	0x3e6d916d	0.23200007
238	0xbe51f214	-0.20502502
239	0xbd9f7213	-0.0778543
240	0x3ed31e87	0.41234228
241	0x3eda1489	0.42593792
242	0x3f1d24b3	0.61384124
243	0xbe7c2259	-0.24622478
244	0xbe47b83a	-0.1950387
245	0x3f4b99a4	0.7953131
246	0xbd1b28a5	-0.03788056
247	0x3ef37373	0.47549018
248	0xbeb5b656	-0.35490674
249	0x3ebbf99d	0.36713877
250	0xbf57b66c	-0.8426273
251	0xbf00f660	-0.5037594
252	0x3dddb664	0.10825804
253	0xbea59db3	-0.32346877
254	0x3e243709	0.16036619
255	0x3e902530	0.28153372

net.6.bias f4 [7]
0	0x3df6c62e	0.120495185
1	0x3fb90c16	1.4456813
2	0x3dbd6c54	0.092491776
3	0xbf3d8cdd	-0.74043065
4	0x3f534a18	0.82534933
5	0xbfbc0c7b	-1.4691309
6	0x3f02647f	0.50934595
