experts/DQN/net_configs/adversary_dqn.pth (torch, 59407 bytes, 10 tensors)

net.0.weight f4 [4, 1, 3, 3]
00000000: accb 803f a07d b13f 9404 bd3e 0099 253e
00000010: c00e c1bf 3450 c9bd 3d15 18bf f12e b1bf
00000020: e35d 47bf 9ebe bebf b0bb ea3e 21ac 603f
00000030: 7202 243d d8f9 b9be 4216 b43f f9bf 45bf
00000040: 2d70 8c3e 646b 623f bc6a 1ebf 4b5c 85be
00000050: 29a2 00c0 9ce6 95be 08be 18be cc49 e33f
00000060: 2223 d4bd 5ff2 943c 6f2e 1bc0 e18b e63d
00000070: 8356 203e bbfa 1d40 7dc8 07be 52eb 1cbe
00000080: 2cab 0640 4a9a 6c3f 7631 a53d 5779 d23d
1.0062156 1.3866463 0.36917555 0.16171646 -1.5082626 -0.09829751 -0.5940741 -1.384245
-0.77877635 -1.4901922 0.4584632 0.8776265 0.040041395 -0.36323428 1.4069293 -0.7724605
0.27429333 0.88445115 -0.61881614 -0.26046976 -2.0098975 -0.29277503 -0.14916241 1.7756896
-0.103582636 0.018181978 -2.424709 0.112571485 0.15658002 2.4684284 -0.13260074 -0.15324143
2.1041975 0.92422926 0.080660746 0.1027705

net.0.bias f4 [4]
00000000: 9119 093d 954c 79bd bb92 343f 6fc1 0c3e
0.033471648 -0.06086405 0.7053639 0.13745664

net.3.weight f4 [64, 80]
00000000: 6e8c 40bf ad75 1fbe 9af4 d83e cbef 3b3e
00000010: 4eb9 eabe 3b6d 233e c60a debe 4b1d dabe
00000020: 0069 033f 9532 00bf f8d4 613f 44c8 e53e
00000030: 1ed5 db3d 0dfb 64bd 46b4 92bf 3da1 35bf
00000040: ecd3 c53e a096 183e 7888 ac3f 60e9 ea3b
00000050: e350 95be f80e e5be e724 31bf 6359 7d3d
00000060: a112 103f aa9b a2be 11ca 31bf 17dd 01bf
00000070: a7aa 4c3e 6761 643f c2e6 94bd 8214 113f
00000080: 819d d3bf 6fdd bf3d 776c 6a3f 7846 6d3f
00000090: 30d7 8ebf f1c3 bebe 8561 403e a463 88be
000000a0: 9cbc 07bf 6da1 0ebf 1104 dcbe ca58 42bf
000000b0: 28a0 f9bf 3428 993f 5414 e03d a04e c23e
000000c0: 43cb 88be ce56 f2be 5301 2cc0 27e1 0abf
000000d0: 1625 053f 9048 2abf 8398 7f3f 578d aa3e
000000e0: ec55 363f 0405 5d3f 3835 be3f 0e5d 953e
000000f0: 82c6 aabf 7713 dabe d858 693f 8d34 d9be
00000100: b4ef 65bf 1b75 60bf ac2b 37bd a962 75bf
00000110: dc86 4fbe 297d 62bf 43b2 a5bd e9ef e33e
00000120: 6208 35bf 230e 233f 61b3 1a3e f7bd 033f
00000130: dc3e 333f fd6c 4ebf b7be 723f ea0d fe3d
00000140: 13a6 053f 66b6 87be 3a45 8ebe cd55 2a3e
00000150: 7977 bfbd 68c4 cb3f d872 2dbe 83b7 3d3f
00000160: 363f b83e ddbd 343f 327c ba3f f841 cbb9
00000170: 150a 96be 329c a03f bcb8 28bf 3a1e 103f
00000180: f83c 57bf 69c9 86be cfb1 94bf 368b 98bf
00000190: 779a ff3e 46c2 8abf b242 1a3f 5865 b5be
000001a0: b60e d9bf 8028 673f f7f5 883e ee18 173f
000001b0: fea8 c4bd b572 91be 253a 2f3f ede7 f03f
000001c0: 536f 20be 9adf d2be 2dbe 5bbf bb00 07bf
000001d0: edea 793f 5bb4 8abe 18d5 e13e db71 d13f
000001e0: fe13 8dbf d539 9bbf 3586 d6bf 19c1 11bf
000001f0: d0f2 2cbf 7502 9fbe 6762 ffbe 73e1 bebe
00000200: 6f4e 8abf 7612 a9bf 830f a4be d917 abbf
00000210: 089a fabf 4cca 61bf a680 e6bf f4c4 163e
00000220: 5df7 e1be 13b0 9bbf b479 2c3d 32d6 d9bf
00000230: eb15 df3e bca6 423f 0a8b f6bd 169c 9bbe
00000240: ec4d 003f 210f 16bf 8e92 79bf ea94 a73e
00000250: 09f1 9abc c64e c7bf 7784 51bf ce79 12bf
00000260: a8ac f23d ec20 603e 87cc 45bf 1836 9bbf
00000270: 920e 733f f6d3 8cbf 25d1 96be f0c5 483f
00000280: 7ab5 35bd 81a1 0dbf d9b0 0340 1fad 9b3f
00000290: c545 b9bb 604a f93e 1f89 43bf d712 283f
000002a0: 9ae4 323e 64c7 433d 5655 f13e a038 243f
000002b0: 21ab 71bd cdad 513d 55ed 73bf 945d e83e
000002c0: 19df de3e cea6 eb3e 0dcb 22bf dcfe a13d
000002d0: f7a7 20bf acd0 c03e 904f 82be 9f5b 553e
000002e0: d19c a6bd 7785 cc3f 2d8d c3bf 1393 eb3e
000002f0: 289a a43f d8d1 743f 8fb0 623e 82e8 9b3e
00000300: 0ea8 453d e40d 3c3e 29cb 39bd 5515 353d
00000310: 11a1 d4be ed4e 8dbf 7a50 97be 6c6e 8b3e
00000320: c43e b7bf 04d9 1e3f 7a73 773f 272f b33d
00000330: bde7 f0bf 51ab a8bf c266 1e3f 5706 923f
00000340: aa22 cfbe afb3 763f 6e7b c3bf 1a5d 1f3e
00000350: e24a da3e 271d 3f3f 5696 f8bf 8f90 93bf
00000360: eb1b 16bf 9551 e7be e62e 2fbf 6ea6 a03f
00000370: a0c7 50bf b425 66bf eed5 a03e aae6 8bbf
00000380: ca54 d7be 258c c2be 99ca acbe 073e 4bbf
00000390: 80f8 843f 554c 56be 0fc9 933f d729 80be
000003a0: 29f4 1ebf 4115 e03e d992 19bf 897b 913d
000003b0: ecb7 ca3e 7f31 793f 6f04 d5be 0d1c 0d3f
000003c0: f491 663f 7dce 7e3f 3539 11bf 17c5 533e
000003d0: 9cd5 b83f bf37 d1be ad68 dd3e 449a 033e
000003e0: 8293 cd3e efc0 90bf 29f4 0b3f f4de aa3f
000003f0: c34f 9e3f 7b1d 1b3f 896b 033f aad8 98be
-0.7521428 -0.15572233 0.42374116 0.18353193 -0.458445 0.15959637 -0.43367594 -0.42600474
0.5133209 -0.5007718 0.8821559 0.44879353 0.10734008 -0.055903483 -1.1461265 -0.70949155
0.38638246 0.14901209 1.3479147 0.0071689337 -0.29163274 -0.44737983 -0.69196934 0.061852824
0.56278425 -0.31759387 -0.69448954 -0.5072798 0.19986974 0.89211124 -0.07270576 0.5667192
-1.6532441 0.09368407 0.91571754 0.9268565 -1.115942 -0.37258866 0.18787201 -0.2663852
-0.5302217 -0.55715066 -0.42971852 -0.7591673 -1.9502001 1.1965394 0.10941377 0.3795061
-0.26717576 -0.47331852 -2.6875808 -0.54249805 0.52009714 -0.6651697 0.9984209 0.3331096
0.71224856 0.8633578 1.4859991 0.29172558 -1.334183 -0.42592975 0.9115119 -0.42422906
-0.8981888 -0.8767869 -0.044719383 -0.9585367 -0.20266289 -0.8847223 -0.08090641 0.44518974
-0.70715916 0.63693446 0.1510749 0.5146174 0.7001779 -0.8063505 0.9482226 0.12404998
0.52206534 -0.26506346 -0.2778719 0.16634293 -0.093489595 1.5919313 -0.1693834 0.7410814
0.35985726 0.7060221 1.4569151 -0.00038768328 -0.29304567 1.2547667 -0.6590688 0.5629612
-0.84077406 -0.2632554 -1.1616763 -1.1917484 0.49922535 -1.0840538 0.6025802 -0.35428882
-1.6957614 0.90296173 0.26750156 0.59022415 -0.09602545 -0.28407827 0.68448097 1.8820778
-0.15667467 -0.4118622 -0.8583706 -0.5273549 0.97624093 -0.27090725 0.4410789 1.6362871
-1.1021726 -1.2127024 -1.6759707 -0.5693527 -0.67558 -0.31056562 -0.49879763 -0.3728138
-1.0805186 -1.3208759 -0.32043085 -1.3366653 -1.9578257 -0.88199306 -1.800801 0.14723569
-0.44134036 -1.2163109 0.042108253 -1.7018492 0.4357141 0.76035666 -0.12038238 -0.30392522
0.501189 -0.58616835 -0.9748925 0.327308 -0.018913763 -1.5570915 -0.8184275 -0.5721711
0.11849338 0.21887559 -0.7726521 -1.2125883 0.9494411 -1.1002185 -0.2945644 0.7842703
-0.044362523 -0.5532456 2.057669 1.2162207 -0.005654069 0.48689556 -0.76381105 0.6565375
0.17470017 0.047797576 0.4713542 0.641489 -0.059001092 0.05119114 -0.95284015 0.45383894
0.43529585 0.460257 -0.6359108 0.07909939 -0.62756294 0.37659204 -0.25451326 0.20835732
-0.08135379 1.597823 -1.5277458 0.46010646 1.2859545 0.95632696 0.22137664 0.30450827
0.048255973 0.18364674 -0.045359764 0.044209797 -0.41529134 -1.1039711 -0.29553586 0.27232683
-1.431603 0.6204989 0.9666058 0.08749228 -1.8820721 -1.3177282 0.61875546 1.1408185
-0.40456134 0.96367925 -1.5272043 0.15562859 0.42635256 0.7465386 -1.9420879 -1.1528491
-0.5863635 -0.4517943 -0.68430936 1.255079 -0.81554604 -0.8990128 0.31413215 -1.0929768
-0.42056876 -0.37997547 -0.3374832 -0.7939152 1.0388336 -0.20927556 1.1545733 -0.2503192
-0.6209131 0.43766215 -0.59989697 0.071036406 0.39593446 0.9734115 -0.41604945 0.5512093
0.90066457 0.99533826 -0.56727916 0.20680653 1.4440188 -0.40862843 0.43243924 0.12851816
0.40151602 -1.1308879 0.54669434 1.334929 1.2368091 0.6059186 0.5133596 -0.29852802

net.3.bias f4 [64]
00000000: 320e 6cbf c156 97bf 1f90 94be b502 0ebf
00000010: 5a59 94be 717b 8bbf cc04 66bf 7661 8abe
00000020: 7d15 93bf 1fdf 30bf 1bfc 19bf 49ef 75be
00000030: d69f 7cbe e3a5 b0be 1b5a 19bf d86a afbc
00000040: 52ae 40bf 846f edbe 0e86 17bf 491e c5be
00000050: 7ab8 64bf 6c03 383d 0542 30bf 4028 95be
00000060: 9e78 11bf b4b4 f1be 9676 89bf c4ba 64bf
00000070: c460 75bf b0cc e23e 1a52 a3be 0e3b 6bbf
00000080: 6c23 74be e2dd 0dbf 1370 b1be f290 05bf
00000090: e09b 03bf 72a2 eebe b185 e7be 1e4a eebe
000000a0: b6a3 a2bf a4cb 8bbe c54d 17bf 705f a6be
000000b0: 8259 7dbf 0075 dcb9 363a acbf a3f3 4ebf
000000c0: 38b7 58bf 88e6 d4be bd0a 26bf 6eca 39bf
000000d0: 9a68 5bbe acd3 babe 07a4 cbbe f0af 41bf
000000e0: 14f8 78bf b790 afbe ff85 51bc 5704 39bf
000000f0: 60fa 9abe 7f5c 43be c248 b7be 8183 40bf
-0.9220916 -1.182335 -0.29016206 -0.5547288 -0.2897442 -1.0897046 -0.8985107 -0.27027482
-1.1490933 -0.69090456 -0.6015031 -0.24017061 -0.24670348 -0.34501562 -0.59903115 -0.021413252
-0.7526599 -0.46374142 -0.59188926 -0.38499668 -0.8934399 0.04492514 -0.6885074 -0.2913227
-0.5682467 -0.47208178 -1.0739315 -0.8934748 -0.9585078 0.4429679 -0.31898576 -0.91886985
-0.23841637 -0.5541669 -0.34655818 -0.52174294 -0.5140972 -0.4660831 -0.45219186 -0.46540922
-1.2706211 -0.27303803 -0.5910304 -0.32494688 -0.98964703 -0.00042048842 -1.3455265 -0.8084051
-0.8465457 -0.4158213 -0.64860135 -0.7257451 -0.21426621 -0.36489618 -0.3977358 -0.75659084
-0.9725354 -0.34290096 -0.012788295 -0.7227225 -0.30269146 -0.19078253 -0.35797697 -0.7520066

net.5.weight f4 [64, 64]
00000000: 3ff9 ea3d 9a4a 453f 0577 92bf 2703 863f
00000010: 0f35 8ebe a15e b53c 9e3e 6abe 7951 8f3f
00000020: 27bc 90bf 39f0 58be 343e 75bd 5ed8 463e
00000030: 6aa5 653f 6093 723c 4464 a03d acc8 6d3e
00000040: 8d66 c0bf b4a7 9fbf 1d06 4bbe 3208 8bbe
00000050: 10b3 04bd 1d25 eebe 36e3 0d3e 664d 7c3f
00000060: 0ff1 1b3f 3b7a a83f 056e c73f f732 abbf
00000070: 40dd f2bf e9a2 c53f 034f 6e3e 3d8a 8dbe
00000080: 78f2 a93e 74da 17c0 95eb 2bbf 0bd3 9fbf
00000090: 8487 ab3f 00e7 733f 5127 18bf 030a 98be
000000a0: 2fe3 3fbd da81 e73f 32f0 fbbe 050f 873f
000000b0: 810c 0f3f 7c66 32bf d05f 41be 9b64 40be
000000c0: 606f 993d fbf4 8f3f 68e7 5b3f 490a 8a3f
000000d0: 9ce9 933e 2d80 62bf 1e76 46bf 18e0 b6bd
000000e0: ea7e cd3e de96 53be 4a13 70bf b0bf acbe
000000f0: 8308 27bf e0ea 2c3e f414 2e3e 2d35 a03e
00000100: bd41 e43e dca2 83bf fe4c f83e 3fa3 7e3f
00000110: f9d5 0b3e edf6 ddbe 2108 31be 0bd3 28bf
00000120: aa8d 06bf 7bb1 063f 9b44 56bf e570 073f
00000130: df3a 3ac0 3bfa 3e3f 3b9b c13e bed5 3d3f
00000140: 5d40 a5be 9c55 a6bd 4a26 10c0 a0ef 4b3e
00000150: e81e 33bf 3c0f 6c3f 09dc 40bf bf82 0c3f
00000160: 799b fd3e 7cb0 11c0 37f8 71bf 8de0 653e
00000170: a99a 70be c74d b73e c5a3 bb3f 1f19 60bf
00000180: 1736 5cbf b4db efbf b14a e1be f3e6 00bf
00000190: 9b2f 173e 4880 003e 6909 4e3f 2711 e0bb
000001a0: fd0a 91bf 51b1 43bf 6c1c 1bbf ab2d edbe
000001b0: 7d62 52bf 9c1c bfbe 0e3d b93e 0720 47be
000001c0: 4c59 7b3e 520e ac3e 302d 983f b389 3f3f
000001d0: f8cb 343e 5a1f e83e 65e1 10c0 b15e b33d
000001e0: d4b9 a7be 530b ffbd 5b6d 36bf d9a9 4d3e
000001f0: 1a56 2a3f 2d07 9fbf a158 7abf 330c f9bf
00000200: 53bb e9bf 7f6a 093f eb63 1fbf 0a2a df3c
00000210: 634c 583f 0336 bf3e 988c 14c0 ef91 52bf
00000220: 8e87 4d3f ce44 8ebe 3dff c2be ddfa abbe
00000230: 5412 953e 355c debf 58e3 08c0 15fc db3c
00000240: 2ad8 c5bd 7f2d 25be e6ac 8a3f 8289 5c3e
00000250: 5922 aa3f 4d2c ae3e 8e61 593f 8963 bc3d
00000260: 7371 513f 5f53 9f3e c51f b03d 37f8 f7bf
00000270: e1b7 81bf 5cf7 8b3f 2ac9 84be 25cb 12bf
00000280: b3a5 a1be ab75 30bf ca33 493f 6fd7 e53e
00000290: 12e3 1b3e eec1 333f d31e 52bf 0de9 89bf
000002a0: 5675 bfbf 60d1 80be 3469 29bf b1e6 143f
000002b0: 887b d13d d013 2f3f 015b 0d3f 1309 863f
000002c0: 7cbb 96bf 4d19 52bf b94e 563f 6c96 843f
000002d0: 8c41 543f 993e cbbf 97c2 4d3f bde3 09be
000002e0: 8d2c b0be d6a2 5cbe 5b82 92be 4e35 d3be
000002f0: 8fbf dbbd 181d 9abf fa48 093e d58a a63e
00000300: b768 6bbe 8af5 903f 9695 203f 8105 27bf
00000310: 8653 1a3f 2ea4 fe3d 5ce0 473e cd57 b83f
00000320: 7a45 a93f 27ab 0ac0 a85a 50bf 8a83 abbf
00000330: f21a 57c0 c85d e23e 02e9 c7be 4311 19bf
00000340: 460a 883e f891 eebe e75a c8be 040a 123f
00000350: 308e e1be 5d9c 98bf 593f a4be 2e59 753f
00000360: a9ab c8bf 7691 133e dfc3 7fbf 1ae4 efbd
00000370: c913 003f c67b bdbe 8f83 9d3f 2d07 41be
00000380: 99e1 723f 940c 6a3f 9df9 08be b271 71be
00000390: 2a00 3abc 6e22 45bd f318 3f3f 94a3 4fc0
000003a0: ed47 bf3e 6984 a8bf caea 4f3c 3f61 4e3f
000003b0: 4a8f 6cbf 6cba 27bc f016 a2bb 93e5 48bf
000003c0: de7e a9bf eb3b de3e 9ca1 9bbe 4ab8 a3bd
000003d0: c548 2dbe 501f 0bbf 79fd 01c0 aca2 b1be
000003e0: 3097 003c d1f5 d9bf fe2d 413d a89e 0b3f
000003f0: 3041 b1be 221a dc3d f31f 3e3f 3d5a 0a3f
0.11473321 0.7706696 -1.1442572 1.0469712 -0.27774855 0.02213985 -0.22875449 1.1196738
-1.130742 -0.21185388 -0.059873775 0.19418475 0.89705527 0.014805645 0.07831624 0.23221081
-1.5031296 -1.2473054 -0.19826551 -0.2715469 -0.03239733 -0.4651269 0.13856205 0.985556
0.609147 1.3162302 1.558045 -1.3374928 -1.897377 1.5440341 0.23272328 -0.2764453
0.331928 -2.3727083 -0.67156345 -1.248628 1.3400731 0.95274353 -0.5943499 -0.29695138
-0.04684752 1.8086503 -0.49206692 1.0551459 0.55878454 -0.6968763 -0.18884206 -0.18788378
0.07491946 1.1246637 0.8589997 1.0784389 0.28889167 -0.8847683 -0.7752398 -0.08929461
0.4013589 -0.2066302 -0.9377943 -0.33739996 -0.6524736 0.16886473 0.1700018 0.3129057
0.44581404 -1.0284076 0.4849624 0.99467844 0.13655843 -0.43352452 -0.17288257 -0.65947026
-0.5255991 0.52614564 -0.83698434 0.5290664 -2.9098432 0.7460057 0.37813744 0.7415427
-0.32275668 -0.081217974 -2.252337 0.19915628 -0.69969034 0.92210746 -0.75335747 0.54887
0.4953268 -2.2763968 -0.9451937 0.2244894 -0.23496498 0.35801527 1.4659353 -0.8753833
-0.86020035 -1.8738923 -0.44002298 -0.503524 0.14764254 0.12548935 0.8048311 -0.006837982
-1.1331478 -0.7644244 -0.60590243 -0.46323904 -0.8218153 -0.37326515 0.36179394 -0.19445811
0.24545783 0.33604676 1.188879 0.7481949 0.17655933 0.4533642 -2.263757 0.08758295
-0.32758963 -0.12453332 -0.71260613 0.20084323 0.6653763 -1.2424065 -0.97791487 -1.9456848
-1.8260292 0.53678125 -0.6226184 0.027241725 0.84491557 0.37345895 -2.3210812 -0.82253927
0.80284965 -0.2778687 -0.38085356 -0.3358983 0.29115546 -1.7371889 -2.138876 0.0268536
-0.09660371 -0.16130637 1.0834014 0.2153683 1.3291732 0.34018174 0.8491448 0.09198672
0.81813735 0.31118295 0.085998096 -1.9372624 -1.013424 1.0934863 -0.25934726 -0.57341224
-0.3157173 -0.6892955 0.7859465 0.44890925 0.15223339 0.7021779 -0.82078284 -1.0774246
-1.4957683 -0.2515974 -0.6617615 0.5816451 0.1022864 0.68389606 0.55216986 1.0471519
-1.1775966 -0.82069856 0.8371387 1.0358405 0.82912517 -1.5878478 0.80375046 -0.13465782
-0.3440899 -0.21546492 -0.28615078 -0.41251606 -0.10729896 -1.2040129 0.13406745 0.32527795
-0.22989164 1.1324933 0.6272825 -0.65242773 0.60283697 0.124336585 0.1951918 1.4401795
1.3224328 -2.1666963 -0.8138833 -1.3399518 -3.3610196 0.44212174 -0.39044958 -0.59791964
0.26570338 -0.4659574 -0.39131853 0.5704653 -0.44053793 -1.1922718 -0.3207958 0.958392
-1.5677387 0.14410958 -0.9990825 -0.11713429 0.5003019 -0.37008494 1.2305773 -0.18850394
0.94875485 0.9142544 -0.1337647 -0.23578528 -0.011352578 -0.048128538 0.74647444 -3.244359
0.37359563 -1.3165408 0.012690255 0.80617136 -0.9240614 -0.0102373175 -0.004946582 -0.784753
-1.3241842 0.4340509 -0.30396736 -0.07994135 -0.1692229 -0.54344654 -2.0310957 -0.3469442
0.007848546 -1.7028142 0.047163002 0.54538965 -0.34620047 0.10747172 0.742675 0.5404394

net.5.bias f4 [64]
00000000: eb6a 25c0 3e2f 81be 578e a0be 3c36 0c3f
00000010: ba8b a7be 210c f73e cf03 b23e 922a d9bf
00000020: 7c67 da3e c164 3d3f 1372 cebe f487 0b3d
00000030: 9f62 883f cddc b2bd ba5c 4cbf 0ee9 6ebf
00000040: ce1b 31bf 56c8 0dc0 bc9f 43bf d806 843e
00000050: 9566 f0bf 7ac0 053e 957b bbbe 5206 213f
00000060: b9fe 0dbf 6b8e 05c0 dbf1 70bf 9dfc 90bf
00000070: e4b9 0dbe ccd8 d5bf 899e 1fc0 639d 9abe
00000080: e040 3fbf 603d 01c0 f4ec 8cbf 084a d53d
00000090: 43aa ccbf 99cd 9cbf 9195 f8bf d418 acbe
000000a0: ec04 6f3e f094 90bf 1d40 0e3f 0956 f9bf
000000b0: 9176 63bf da1b 663f f600 23bf 8f9c 09c0
000000c0: d8b2 a9bf ef7f a3be 402c 8bbf 1e83 163f
000000d0: 01fe d3bf 24e2 abbf 29b1 00bf 3f22 a0bf
000000e0: 1716 28bf 417c 043f a264 873e 5899 04be
000000f0: 1b0e cebf 71f2 0ebf fcef 1c3f ef6c 70bf
-2.5846508 -0.25231355 -0.31358597 0.54770255 -0.3272379 0.4825144 0.3476853 -1.6966116
0.42657077 0.73981863 -0.40321407 0.034065202 1.0655097 -0.08733521 -0.7982899 -0.93324363
-0.6918305 -2.2153525 -0.7641561 0.2578647 -1.8781306 0.13061705 -0.36617723 0.6290027
-0.554668 -2.0868175 -0.9411904 -1.1327091 -0.13840443 -1.6706786 -2.4940512 -0.30198202
-0.74708366 -2.019371 -1.1009812 0.10414511 -1.598946 -1.2250243 -1.9420644 -0.33612692
0.23341721 -1.1295452 0.5556658 -1.9479381 -0.8885279 0.8988625 -0.6367334 -2.1501806
-1.3257704 -0.31933543 -1.0872879 0.5879382 -1.6561891 -1.3428388 -0.50270325 -1.2510451
-0.65658706 0.51752096 0.26443964 -0.12949121 -1.6098055 -0.55838686 0.6130369 -0.9391622

net.7.weight f4 [64, 64]
00000000: 9dc3 babe b69b 6b3e 1a5f 58bf 1347 d63e
00000010: 176f 00bf a297 993f 86cc e03e aba2 99bf
00000020: f7f1 e03b acf4 c33f af6d 153f 4fdf 87bf
00000030: 64c1 903f 7b86 4e3e 1537 843f 3197 8a3e
00000040: 6928 1b3f 723e 83be 6b88 bd3e d934 c6bd
00000050: 45b2 023f 1cbc 8dbc 232a 263f 6743 c6bc
00000060: 14ee 96bf 3c1b 8bbf 7753 febf d2fe 27bf
00000070: a3ba 7d3f a515 01bf 88da 48bf 12c7 303f
00000080: fe6a bcbe 05de a03e 8264 89be a626 3ebe
00000090: 237e e3bf 752f 49bf 2f80 d3bd 4298 6abf
000000a0: 4a5c 6f3d 6044 4e3e 7514 873e f981 7d3d
000000b0: 8104 b83f 605c c63e fc49 efbf f746 8ebf
000000c0: eb31 793d ab5f f73d 3f06 093f 987f 86bc
000000d0: 0dd9 30be 1f43 c63e 267c 96be ac47 34bf
000000e0: 2794 0ebf bd7c 80be 480b 0d3f 3bf7 433f
000000f0: a004 0dbf 1328 f83c 115f 0dc0 e7de 8ebd
00000100: 27aa c93d 23db a0bf 065a 9fbe 645e edbe
00000110: f00b 753d b35e c8bd 0624 f9be 220f 21bf
00000120: a5a0 9f3f dbe1 f03e 58b4 1d3f 74c6 443f
00000130: c1a5 a5bf d2b1 043e 847b c6bf 3189 2abd
00000140: 7beb ab3c 2e1b 5fbe 1162 92be 8371 18bf
00000150: 41c9 25bf 2c14 243f 9ff3 bfbe 4626 31be
00000160: 5513 f63e 788e 1b3e 437d e9be 61bb 95be
00000170: 33f7 14bf c63e c6bf 3d6f 88bf 6ca9 393f
00000180: 9c7f a2bf 7060 fcbe 7f1b 39bf 9699 783f
00000190: ab2c 5f3f a5e2 323f 3a43 fbbd ae4e dc3e
000001a0: a30c 52bf 8089 2f3e 82a5 d43d a6bc c5bf
000001b0: 80f7 6a3e 4749 1abf dec5 3bbf 03c8 c8be
000001c0: 9451 d7be 1df5 bd3f 7af1 19bf b83d 4bbb
000001d0: 9ac4 00bf 5ff4 e53f bc98 1cbb 2514 94bf
000001e0: 41d2 86bd ad1b f0bd 9850 16c0 95fb d9bf
000001f0: 4f6b 833e 80ea 53bf 6484 2ebc 2dbc 8f3e
00000200: 3971 b2bf cb2f 12bf ad2b 133f 6154 e5bf
00000210: 0a8b 1cbe 0bbc bb3f 560f 0c3f ffef fd3e
00000220: f681 5fbf 86ef 19c0 2527 0e3e e8e9 a9be
00000230: dbfb 04bf 332f 54bf 7b9e db3f 7ebc 8bbf
00000240: ec0f 0abe a149 dcbe 91d1 d7be 6608 1dbf
00000250: c7b7 4fbe 4829 8d3e cf56 e0be b79d 8f3f
00000260: bbd1 f33d d58c ddbe 3135 56bf b7b3 113f
00000270: ecc7 9d3f 6854 2e3f 244e 023d ce81 14c0
00000280: 7f4b 0f3f 7c40 1fbf 953b 37bf 3668 1bc0
00000290: d4b0 0dc0 8df7 77bf fae3 0c3f e7dd 4d3f
000002a0: 8970 633d 4e2b 253f 75d3 b73e f480 0cbe
000002b0: 8972 f93e 390e c6be 7677 c9bf 5325 143f
000002c0: 70fb 56bf 491d bb3d b53d 8e3e 04d0 953e
000002d0: 2c9d 7d3f 086a 633e 7177 1fbf 0eda 50bf
000002e0: 15de 393e e646 99bf 3dc6 6bbf 9463 1b3b
000002f0: 0078 153e 0b05 03c0 7c36 ce3e 096c 6dbf
00000300: 9509 be3e 11aa 52bf 466c 2abf 5560 d9be
00000310: 5ea1 e0bd fde4 1b3f 47c9 033f 356f 2dbe
00000320: adab 13bf e7bf 263f f167 453f 7fba 96bf
00000330: ba49 373f a0c8 50bf 859c 263d aba2 853e
00000340: afcc 8fbf 02f4 f0bf c3de 493e 3241 6cbf
00000350: 0f0c 68bf 0703 9f3e d53c 13be 6b9f 573e
00000360: df01 143f 5f3f a0bf ca77 9ebf b698 993f
00000370: 0771 d63e 4595 55c0 69f3 963e 311b 3abf
00000380: 4df9 e43e 2d89 73bd 57cb a9bd 1bc3 52bf
00000390: c4ef 1fbf 7ea6 43bf b6cb 30bf bec0 80bf
000003a0: f9db 5fbf 430f 87bf 4f6c 53bc da36 623e
000003b0: d7fc 693f 93e3 d23e cb24 50bd a296 bebf
000003c0: 3408 b8bf dc74 2abf d8fa a83e 0b1d cb3e
000003d0: 9bce 773f bd09 0dbf 50ee ccbe c5ce bc3e
000003e0: b045 bdbe 8ba5 9a3f 1da0 debf 1c16 90be
000003f0: 1205 a1bf 6dce f2be b937 28bd 3e67 4abf
-0.36477366 0.23008618 -0.84520113 0.418511 -0.5016951 1.19994 0.4390604 -1.2002767
0.006864782 1.5309043 0.5837049 -1.0615023 1.1309018 0.20168488 1.032931 0.27068475
0.60608536 -0.2563358 0.3701814 -0.09678049 0.5105327 -0.017301612 0.64908046 -0.024202062
-1.1791406 -1.0867686 -1.9869221 -0.656232 0.9911291 -0.5042365 -0.7845845 0.6905376
-0.3680038 0.31419387 -0.26834494 -0.1856943 -1.7772869 -0.7858804 -0.103271835 -0.91638577
0.058437623 0.2014327 0.26382795 0.06189153 1.4376374 0.38742352 -1.8694453 -1.1115407
0.06083862 0.12078794 0.53525156 -0.016418263 -0.17270298 0.38723084 -0.29391593 -0.7042186
-0.5569481 -0.25095168 0.5509534 0.7654912 -0.5508518 0.030292546 -2.2089274 -0.06976109
0.09846907 -1.2566875 -0.3112337 -0.46361077 0.059825838 -0.097836874 -0.48660296 -0.62913716
1.24709 0.47047314 0.6160331 0.76865315 -1.2941209 0.12958458 -1.5506444 -0.041634742
0.02098631 -0.21787712 -0.28590444 -0.59548205 -0.64760214 0.6409328 -0.37490556 -0.17299756
0.48061624 0.15191066 -0.4560338 -0.2924452 -0.58189696 -1.5487907 -1.0658947 0.7252414
-1.2695193 -0.49292326 -0.7230758 0.97109354 0.8717753 0.6987708 -0.12268682 0.43028778
-0.8205053 0.17142296 0.103831306 -1.5448196 0.22945976 -0.6026806 -0.73348796 -0.39215097
-0.42054427 1.4840428 -0.6013409 -0.003101213 -0.5029999 1.7965201 -0.0023894748 -1.1568648
-0.065830715 -0.11724029 -2.348669 -1.7029902 0.25667807 -0.82779694 -0.010651682 0.28073254
-1.3940803 -0.57104176 0.5748852 -1.7916375 -0.15287414 1.4666761 0.547109 0.49597165
-0.8730768 -2.4052444 0.1388212 -0.3318627 -0.519468 -0.8288452 1.7157739 -1.0916898
-0.13482636 -0.43024924 -0.42152074 -0.6134094 -0.20284949 0.27570558 -0.4381623 1.1220006
0.11905237 -0.4327151 -0.83674914 0.5691485 1.2326636 0.68097544 0.031812802 -2.3204226
0.5597457 -0.6220777 -0.7157529 -2.4282355 -2.2139177 -0.9686211 0.55035365 0.8041672
0.055527244 0.645192 0.35903516 -0.13721067 0.48720196 -0.38682726 -1.5739582 0.5786945
-0.83977413 0.09136445 0.27781454 0.29260266 0.9906795 0.22208416 -0.6229163 -0.81582725
0.18151124 -1.1974761 -0.9209936 0.0023710476 0.14596558 -2.0471828 0.40275943 -0.92742974
0.37116686 -0.8229075 -0.6657146 -0.42456308 -0.10968278 0.60896283 0.51479 -0.16936953
-0.5768383 0.6513657 0.77111727 -1.1775664 0.7159687 -0.8155613 0.040676612 0.26100668
-1.123434 -1.8824465 0.19713883 -0.9228698 -0.906434 0.31056997 -0.14378674 0.21056907
0.57815355 -1.2519339 -1.2380307 1.1999729 0.41883108 -3.3372357 0.29482582 -0.7269774
0.4472145 -0.059456993 -0.08290737 -0.8232896 -0.6247523 -0.7642592 -0.6906084 -1.005882
-0.87445027 -1.0551533 -0.012904241 0.22091237 0.9140143 0.4118925 -0.05081634 -1.488972
-1.4377503 -0.66584563 0.3300388 0.39670596 0.9679963 -0.55092984 -0.40025568 0.36876503
-0.3696723 1.208177 -1.7392613 -0.28141868 -1.2579672 -0.47423115 -0.041068766 -0.79063785

net.7.bias f4 [64]
00000000: 0487 ab3f 89c5 2ac0 d786 bfbe 29f7 2f3e
00000010: bb0b d9bf bdc5 cfbf 61a7 22c0 8d9a 91be
00000020: 02ee ffbd 336d 943f d1f8 343f 6cdb 4fbf
00000030: d185 6440 3f9e 90bf 72bf b5be 7409 513f
00000040: 54bb b53e e9bb cbbf 77c3 05bf 0eaf a1bf
00000050: bced 55bd 99f1 e3bd 0899 0abe 5e65 dbbf
00000060: bfd5 0fc0 0add cebf 5a29 5ebf c4c5 aebf
00000070: 1cb0 5bbd 4320 85bf 9e3e 07c0 e35a b5be
00000080: e4b6 adbd da80 c8bf 15e5 09c0 32e4 d0bf
00000090: dd7c c1bf 0051 13be 3cdc fa3e 4413 72bf
000000a0: bd8a 51bf 91b7 08c0 78a2 4e3f 0183 86bf
000000b0: 5633 f7be 9b81 8ebf 45e0 00bf 9aa2 ce3f
000000c0: 9dd2 b03d 79c8 dd3f 7bd3 093e b69f 3c3e
000000d0: 5819 6c3e dcca 0dbf 6723 b7bf e084 903f
000000e0: 22fa 99bf d261 f4bf d9b9 9f3e f4e5 92bf
000000f0: a12c d5bf f20a 0cc0 586a b0bf 2173 0ebe
1.3400578 -2.6683066 -0.37407562 0.17184128 -1.6956705 -1.623222 -2.541466 -0.28438225
-0.12496568 1.1595825 0.70692164 -0.81194186 3.5706675 -1.1298293 -0.35497624 0.8165505
0.35494483 -1.5916721 -0.5225138 -1.2631547 -0.052228674 -0.111300655 -0.1353494 -1.714031
-2.247421 -1.6161206 -0.8678185 -1.3654103 -0.053634748 -1.040047 -2.1131968 -0.35420904
-0.08482149 -1.5664322 -2.154607 -1.631964 -1.511623 -0.14386368 0.4899615 -0.94560647
-0.8185232 -2.136204 0.8071666 -1.0508729 -0.48281354 -1.1133302 -0.5034221 1.6143372
0.08633921 1.7326804 0.1345958 0.184203 0.23056543 -0.55387664 -1.4307679 1.129055
-1.202946 -1.9092352 0.31196478 -1.1476426 -1.6654245 -2.188168 -1.3782454 -0.13911106

net.9.weight f4 [7, 64]
00000000: 745e f1bb 5eef 253d 2984 ec3e 75a2 9cc0
00000010: ced8 003f 86b8 cf3e 7ad2 3c3f e6f6 53bf
00000020: 2855 0cc0 b6b6 3abf 11bf 0fbf 3af4 f8bd
00000030: ce04 e33e a05c 273f 1778 26bf 953e 0d3f
00000040: e5d6 1bc0 0c2a fabd 9b6d c03e dda9 ed3e
00000050: cdc5 75bf 1dd3 2cbf d290 56bf 0eea 1abf
00000060: 1069 d83e 4497 25be c8c1 db3e ffae 9e3f
00000070: de66 e6be 1534 59be 5ff3 063e 33a1 c8bf
00000080: a7dc 32bf afa2 6d3f ad29 143f 3bd5 033f
00000090: 2e93 10be 4282 523e c8ce 8ebe a94d 043d
000000a0: 4443 123d 87e6 f83e c71d 01bf cfbf 663e
000000b0: 7a8a f8be 8de0 d83e dca0 dcbf e0c6 6fbf
000000c0: 6747 8d3c 1f83 23bf 577e babe f53d f8be
000000d0: 9a4d 63bf 023d 4a3f d9b4 703d c26d bbbf
000000e0: d268 6c3f 15ad 113d 61f7 fabe 1dac 8c3f
000000f0: 0898 1a3f 69dc e1be 2ad6 643e f651 403f
00000100: a003 21bf 3973 d1be f1a1 423f c4ff 5c3f
00000110: 51f1 8c3e 465d 6c3e 0173 d63e de06 df3d
00000120: f51b 953e 709c 15bf 61ad 243c 6610 38c0
00000130: eb6d c3be ad11 cabc fdcd f43e 8f38 27bf
00000140: a309 823e bbe1 683f d55e 50bd 1d61 47be
00000150: 71da f13e 5fe0 063f 75b9 9e3d c608 2dbf
00000160: df9d 913f b3ec 423f 2de5 0fbf 9011 653f
00000170: f21c c03e 2a62 893e e6a0 1abd f1bd ee3e
00000180: 1d47 b63e ee85 2b3d f5d2 9d3f e161 74be
00000190: 6506 163f 95f6 df3e 0b82 26bf 4c25 ccbe
000001a0: e54f b1bd d5aa 4bbe 7f7a c03e 5830 cd3e
000001b0: 4596 27be 4ec1 49bd 4e4c 943e 8bf1 41be
000001c0: 8fd8 0b3f 9d96 c7bf 8c27 10c0 446b 2a3e
000001d0: 6d03 3c3f 7e1f 143f f48e 59be a25a 04c0
000001e0: 9d53 873f 5565 e5be 77e6 b9be 40d3 a5be
000001f0: 593a 0e3f a479 d43e e8bb f4be a560 353f
00000200: 946a fc3e 9fd6 1c3f 0309 f8bd 2faf d0bf
00000210: c080 69bd 7ad0 8d3f 70a3 763f ced1 4d3f
00000220: 18e4 babe eb5d c2bd 09f8 53bf 3157 1fbf
00000230: f130 d93e 415f 02bf c16b a03e 7cb8 643e
00000240: 9085 0f3f 5c6e 863f b5bf 543f f4e6 b3bc
00000250: d101 0f3f 5135 603e 6974 b4bd b937 eb3e
00000260: da8c c8bd 0a92 23be 0a74 2b3f cc81 3c3f
00000270: a1f6 ec3e 2c2e 07bf 21bc c23c 7a11 d63e
00000280: cf18 f53e 14cb be3e 38ac 4a3e 2458 1d3f
00000290: bce4 cb3e bb11 523f 5389 e23e a25f 803d
000002a0: d287 1a3f 615a 88be 5302 1b3e d5e2 453f
000002b0: 0f50 ab3e c28f 883d 1ec5 89bf 5627 fd3e
000002c0: c155 db3e c1b3 953e f7a4 e3be 34c6 513e
000002d0: c1e3 303d 82bc ecbe ff52 a83e e24a 2c3f
000002e0: 404e ac3c f11d 233f df1e 04bf ef63 c13f
000002f0: 65be fc3e 9862 b03d afc1 9dbe da21 0a3f
00000300: a3e8 06be 3ffa 533f 4dd8 b83e cc05 14c0
00000310: c447 673f 81be 323f 23e3 3e3d 8021 1e3f
00000320: 421f cd3e b710 863e ea86 803e 7a20 cf3e
00000330: 2f4f 953e e846 be3e 6f0d 36bf 1f8b c83e
00000340: 2b36 1e3f 17dc 943f 1d4e 393f 1cb5 373f
00000350: a30c 07be 746f e93e bf46 043f 60e0 e3bd
00000360: e264 203f 9fc1 1b3f b02d a1be aa2e cfbd
00000370: cdbe da3e 2d41 2a3f f54f 943e bc5a 453c
00000380: cc46 99bc 9e35 523f 6446 963f 3c1a e13e
00000390: df62 75be 1216 5c3e 5ea3 ca3e fd36 1a3f
000003a0: 85f6 8d3e 099f 4e3f d0cc e8bc 171f 0b3e
000003b0: 25f9 ff3d a5d1 e33e aef9 2a3e 5a9d 033e
000003c0: f1ab c13d 5991 82bc 04d7 123f e38d b63e
000003d0: be8d 2d3f 1376 553e 4356 5f3f 9b0f cf3e
000003e0: fe79 c53e 886b b63e e3ea a33d 1d71 e23c
000003f0: 195f a7bc c424 86be 9891 c4be c508 f23d
-0.007365996 0.04051148 0.4619458 -4.894831 0.5033082 0.40570468 0.7375866 -0.8279861
-2.1926975 -0.72935045 -0.5615092 -0.121559575 0.44339603 0.6537571 -0.6502699 0.5517362
-2.4349911 -0.12215051 0.37583622 0.46418658 -0.96004945 -0.67509633 -0.8381473 -0.6051339
0.42267656 -0.16170985 0.4292128 1.2397155 -0.45000356 -0.21211274 0.13178776 -1.5674194
-0.6986794 0.9282636 0.5787609 0.5149724 -0.14118645 0.20557502 -0.27892137 0.032300625
0.03570868 0.48613378 -0.5043606 0.22534107 -0.4854315 0.4235882 -1.723659 -0.93662834
0.017245961 -0.6387195 -0.36424515 -0.4848477 -0.88790286 0.7899934 0.05876622 -1.464287
0.92347443 0.035565455 -0.4901686 1.0990025 0.6038823 -0.44113472 0.22347322 0.7512506
-0.62896156 -0.4090822 0.7602835 0.8632777 0.2752786 0.23082456 0.41884616 0.10889982
0.29122892 -0.5844183 0.010051102 -2.876001 -0.38169798 -0.024666632 0.47813407 -0.65320677
0.25397977 0.9096944 -0.05087169 -0.1947064 0.4723697 0.52686113 0.07750217 -0.6759151
1.1376303 0.76142424 -0.5620907 0.89479923 0.37522084 0.26832706 -0.0377511 0.4662929
0.3560113 0.041875772 1.2330004 -0.23865463 0.5860351 0.43742815 -0.6504218 -0.39872205
-0.08657817 -0.19889386 0.37593457 0.40075946 -0.16365917 -0.049256615 0.28964466 -0.18939798
0.5462732 -1.5592839 -2.2524137 0.16642481 0.7344273 0.57860553 -0.21245939 -2.0680318
1.0572392 -0.44803873 -0.36308643 -0.32387733 0.5555778 0.41499054 -0.4779961 0.7085059
0.49300063 0.61264986 -0.12111094 -1.6303462 -0.05700755 1.1079247 0.96343136 0.8039826
-0.36502147 -0.0949057 -0.82800347 -0.6224242 0.42420152 -0.50926596 0.3133221 0.22336
0.56063175 1.0502429 0.8310502 -0.021960713 0.55862147 0.21895339 -0.08811266 0.4594095
-0.0979249 -0.15973678 0.66973937 0.73635554 0.46281913 -0.5280483 0.023771347 0.4181021
0.4787049 0.3726431 0.19792259 0.61462617 0.39822948 0.82058305 0.44245395 0.062682405
0.60363495 -0.26631454 0.15137605 0.77299243 0.33459517 0.066680446 -1.076328 0.49444073
0.42838863 0.29238704 -0.44461796 0.20485765 0.043185953 -0.4623757 0.3287582 0.6730176
0.021033406 0.6371756 -0.51609606 1.5108622 0.4936401 0.08612555 -0.3081183 0.53957903
-0.13174681 0.8280372 0.36102524 -2.3128538 0.9034388 0.69821936 0.046603333 0.61769867
0.4006291 0.26184627 0.2510293 0.40454465 0.29161975 0.37163472 -0.7111425 0.3916864
0.61801404 1.1629666 0.72384816 0.71760726 -0.13188414 0.45592844 0.5167045 -0.111267805
0.62653935 0.6084232 -0.3148017 -0.10116322 0.42723694 0.665057 0.28967252 0.012045559
-0.018710516 0.82113063 1.1740232 0.43965328 -0.23963498 0.21492794 0.39577764 0.60240155
0.27727142 0.8071142 -0.028417975 0.13586079 0.124986924 0.44495884 0.16696808 0.12852994
0.09456623 -0.015938448 0.5735934 0.35655126 0.67794406 0.20845823 0.87241 0.40441594
0.38569635 0.35628915 0.080037855 0.027641827 -0.020431088 -0.26199925 -0.3839233 0.11818079

net.9.bias f4 [7]
00000000: 9e87 5a3c 8a4b c73e c70d 9c3e 0fc0 d23e
00000010: e93c c83d aae7 b33e fac1 513e
0.013337998 0.3892482 0.3047926 0.41162154 0.09777243 0.35137683 0.20484152
