experts/DQN/net_configs/agent_dqn.pth (torch, 59359 bytes, 10 tensors)

net.0.weight f4 [4, 1, 3, 3]
000000 fa 95 c7 bf 04 a6 9b bf c4 df 96 be fa 83 96 3f
       -1.5592644 -1.2160039 -0.29467595 1.1759026
000010 7d c1 f1 be 5c 6c 1a bf bc f9 f9 bf 2f 4c df be
       -0.47217932 -0.60321593 -1.9529338 -0.4361281
000020 34 6b f7 be 44 b6 79 3f 04 48 f3 3e 9d 6b 46 3f
       -0.48323977 0.9754374 0.4751588 0.77507955
000030 2b dd 4b 3f 08 ef 3a be 83 95 4f bf 41 a9 d6 be
       0.7963435 -0.18255246 -0.8108751 -0.41926005
000040 23 ef 6d bf d9 23 c6 3f ae dc 47 3f 61 fb 85 bf
       -0.9294302 1.547969 0.78071105 -1.046734
000050 41 4b db 3f 9e 59 24 bd 15 20 ba be d9 2d 8d 3f
       1.7132341 -0.040124528 -0.36352602 1.1029617
000060 c3 ea 32 be f6 8f 1e bf 65 65 6d bf b2 c5 1d be
       -0.17472367 -0.61938417 -0.9273284 -0.15407446
000070 2e d2 3a 3f 4f ed c8 3e ed be a8 be 15 48 25 3e
       0.7297696 0.39243552 -0.32958165 0.16140778
000080 5f 68 b2 3f 68 75 93 bf 5d b0 9f 3d a6 75 14 be
       1.3938102 -1.1520205 0.077973105 -0.14498004

net.0.bias f4 [4]
000000 36 95 3d bf 42 74 b0 be 5e 58 e1 3d 66 14 41 3e
       -0.740558 -0.34463698 0.11003183 0.18855438

net.3.weight f4 [64, 80]
000000 e5 dc 54 bf 09 84 56 3c 5a 21 b6 3f 04 9a 1d be
       -0.8314956 0.013093003 1.4228928 -0.15390784
000010 eb 21 d3 bd e4 39 8a 3e e1 f4 44 3f 75 70 92 3e
       -0.10309204 0.26997292 0.76936156 0.28601423
000020 8a 30 05 40 79 38 f5 be 4d f0 ab bf 5d 0d 2c bf
       2.0810876 -0.47894648 -1.3432709 -0.6720789
000030 ca f0 92 3f 0f 0b ea 3f 71 a8 48 bf b7 b8 58 bf
       1.1479733 1.8284625 -0.7838202 -0.8465685
000040 01 a9 a6 3e 73 61 be 3f 32 6c 04 bf 10 dc 19 bf
       0.32550815 1.4873489 -0.5172759 -0.60101414
000050 87 ec e5 bf fa 4d 02 3d 41 2f c4 3e 7b 95 43 3f
       -1.7962807 0.031812645 0.38317302 0.76399964
000060 9e 38 a0 3f a2 d8 96 3f fc 4c 31 bc 97 68 58 3e
       1.2517278 1.1784861 -0.010821577 0.21133648
000070 88 de e4 bd d5 b9 1f bf 4c 2f 45 bc 76 21 e6 bd
       -0.11175257 -0.6239293 -0.012035202 -0.11236851
000080 dc f4 cf 3f f6 af 0c 3f 12 2b 68 bf 30 8a 27 3f
       1.62466 0.54955995 -0.9069072 0.6544523
000090 29 56 83 be 8b eb 7f 3e 1b d2 84 bf cd d9 bb be
       -0.25651672 0.24992196 -1.0376619 -0.36689606
0000a0 40 87 2a be 69 e3 b3 3f e8 d0 df be 94 4b 02 3f
       -0.16653156 1.4053775 -0.4371407 0.50896573
0000b0 ef 23 e5 3f 62 62 dc be d6 d6 8b 3e db bc fe 3f
       1.7901591 -0.4304381 0.27312344 1.9901384
0000c0 19 16 90 bf 4f b0 88 be a5 ae 9a bf 2b 84 52 3f
       -1.1256744 -0.26697013 -1.2084547 0.8223292
0000d0 25 cd ff be c7 54 61 bf 78 77 3a be a6 a4 e0 3e
       -0.499612 -0.88019985 -0.18209636 0.43875617
0000e0 98 7c bb be ee 8b 53 3f 22 3f 34 3e a1 9d b0 3d
       -0.36618495 0.8263539 0.17602208 0.08623815
0000f0 a0 f0 85 3f 9e 88 8f bf 83 58 4d 3e b2 21 0f 3f
       1.0464058 -1.1213567 0.20053296 0.5591079
000100 7b af 8c 3e ac 7f b1 bf ad c6 9a bf d8 4e a6 be
       0.2747763 -1.3867087 -1.2091881 -0.32482028
000110 7b e4 17 bf 5d f9 d4 be 45 d5 5b 3f f3 d9 41 bf
       -0.5933301 -0.415965 0.858723 -0.7572319
000120 69 33 b7 3e 78 11 02 40 ed 3c 5d be 3c 7f 33 bf
       0.3578141 2.0323162 -0.21605273 -0.7011602
000130 3a 0c 2d bf 26 b6 03 bb 2b 9a 77 3f 4a 57 b8 3e
       -0.6759678 -0.0020097583 0.96719617 0.36004096
000140 ac d3 77 3e 9f 72 93 3e 79 6b 1b be f7 c7 d4 3d
       0.2420184 0.28798386 -0.15177716 0.10389703
000150 dd 3f 39 3f c8 65 4a bd cd 75 13 3f 6d 9e 0e 40
       0.7236307 -0.049413472 0.57601625 2.2284195
000160 a2 26 65 3f 8e 61 54 3e 23 d9 48 3f eb e5 12 40
       0.89512074 0.20740339 0.78456324 2.295283
000170 a1 43 89 3f d3 87 fe bd 11 b5 90 3f 48 57 95 3f
       1.0723764 -0.1242825 1.1305257 1.1667261
000180 35 1c c5 3f b1 42 d6 3f 29 aa b6 3e cc 96 92 3f
       1.5399233 1.6739103 0.35676697 1.145227
000190 83 ed b9 be e0 f3 2e 3f ef 0d 8d 3f cd e6 07 3f
       -0.3631402 0.68340874 1.1019877 0.5308655
0001a0 f7 18 8d 3f a5 7d e7 be 0c cd 00 3f 4a c8 73 3f
       1.1023244 -0.45213047 0.50312877 0.9522749
0001b0 85 25 83 3e 91 ff 10 3f 6d d1 86 3f 32 46 2e 3e
       0.25614563 0.56639963 1.0532662 0.17018965
0001c0 3c 8f 2c bf a8 ae 19 3e da b4 4f 3f 6f ab 1a bf
       -0.6740606 0.15008032 0.8113533 -0.60417837
0001d0 b1 9b 97 be 37 8b fa be fd 19 86 be 4c 00 88 3f
       -0.2961097 -0.48934337 -0.26191702 1.0625091
0001e0 d2 bf 04 3f eb 5b a9 3d 91 f2 82 bf 51 f4 9e 3f
       0.51855195 0.08269485 -1.0230275 1.241831
0001f0 85 1e fb bf 1d ca d1 3e 1f c4 9f 3f dd 3c 86 bf
       -1.9618689 0.40974513 1.2481726 -1.0487324
000200 eb e9 5c 3e ba 56 01 c0 cf 2f ef be 39 bd ca 3f
       0.21573608 -2.0209184 -0.46716163 1.5838996
000210 33 a1 2d 3e 1f 91 6a 3d 71 58 18 bf 6f d0 81 be
       0.16956024 0.057267305 -0.5950995 -0.25354335
000220 46 70 12 be 1c 71 b2 3e d0 bb 93 bf fb 81 4b 3f
       -0.14300641 0.3485192 -1.1541691 0.7949521
000230 1c 63 b9 bc 16 06 77 bf ee de 90 be a7 d8 49 3f
       -0.022630267 -0.9649366 -0.28295082 0.7884621
000240 5d 76 ae be 8e fc d2 bc 05 c7 93 3e 3f 4f 11 3f
       -0.3407468 -0.025755193 0.28862777 0.56761545
000250 ec 6b 44 3f 40 7e 00 3f c2 b5 06 c0 08 28 87 bf
       0.76727176 0.5019264 -2.1048436 -1.0559092
000260 73 f6 6e 3f 49 00 a5 bc 40 50 18 bf c4 69 01 c0
       0.933448 -0.020141738 -0.5949745 -2.0220804
000270 b4 3b 1a bf b9 29 1c 3f f6 24 48 be be 75 12 3e
       -0.6024735 0.61001164 -0.1954535 0.14302728
000280 6b 14 bf 3e ef 83 05 3f ec e5 ca be 13 63 b0 3f
       0.37320265 0.5215444 -0.3962854 1.3780235
000290 09 e6 be bd 06 e8 fd be db 39 1d 3f ed f4 8d 3e
       -0.093212195 -0.49591082 0.61416405 0.27725926
0002a0 73 5b 80 3f 53 70 08 40 3d e6 d2 3e 65 07 0e bc
       1.0027908 2.1318557 0.41191283 -0.008668755
0002b0 1a 96 21 bf b2 f9 42 be ea 24 7b 3f 6f e7 3c bf
       -0.6311966 -0.19040564 0.981032 -0.7379064
0002c0 59 ef 8c bf 6e 56 3f 3f 93 e8 90 be 86 2f 8a be
       -1.1010543 0.74741256 -0.2830244 -0.26989383
0002d0 6a 77 b9 3e 3f 16 20 3e 85 09 11 3f 72 3a a6 bf
       0.36223918 0.15633486 0.5665515 -1.2986586
0002e0 ca ef c7 bd 2f 16 a2 3e 8b 9f e3 3c be 60 59 bf
       -0.09762533 0.3165755 0.027786037 -0.8491324
0002f0 51 ce f8 bc bd 4a d5 3f 25 5d 32 3f 0a 7c 1f 3d
       -0.030371817 1.6663433 0.6967338 0.038936652
000300 43 df 69 bf cd bf f2 bd 98 bf 09 40 6d 93 54 3e
       -0.91356295 -0.11852989 2.152319 0.20759363
000310 e1 af 13 3f 6d f8 74 be f2 d5 9e bf 83 a0 9a 3f
       0.57690245 -0.23922892 -1.2409041 1.2080234
000320 05 34 89 be 68 16 ca 3e e2 9d 8e bd 65 a3 40 3e
       -0.267975 0.3947022 -0.069637075 0.1881233
000330 75 da 98 3f 8f 24 a9 be 43 f3 42 3e e4 05 28 bf
       1.1941668 -0.33035704 0.1903811 -0.6563399
000340 e7 51 f8 3d 79 ec c5 3e e4 b7 cf bf 32 af c3 bf
       0.12124997 0.38656977 -1.6227994 -1.528784
000350 00 1b 16 3f 05 82 c2 bf 10 5d d4 3f d5 a2 a1 3f
       0.5863495 -1.5195929 1.65909 1.2627817
000360 57 74 8d bf c7 43 c3 bf 36 e0 5f bf 46 1b f2 3e
       -1.1051129 -1.5255059 -0.87451494 0.47286433
000370 14 34 1e 3f da ea 82 bf 33 21 3c be 9d 66 8a be
       0.61798215 -1.0227921 -0.1837204 -0.27031413
000380 4e da ba bf 58 aa c5 3e 05 86 33 be 30 02 7b be
       -1.4597871 0.38606524 -0.17531593 -0.24512553
000390 9a 1b 29 bf 07 c6 47 be cc 5b 12 3f 5a b9 ab 3f
       -0.6605774 -0.19509135 0.5717132 1.341594
0003a0 ae 92 48 bf 43 f6 53 be 5e e2 33 be e0 65 cc 3e
       -0.78348815 -0.2069941 -0.17566821 0.39921474
0003b0 ce 0c c6 3e 42 62 29 bf 40 ae bb bf d4 7a 13 bf
       0.38681644 -0.66165555 -1.4662552 -0.57609296
0003c0 09 89 42 3f 14 fc 79 bf b4 ff 21 3f 8b f5 56 3f
       0.7599035 -0.97650266 0.63280797 0.8396842
0003d0 fd 87 f6 3f 9e 25 de 3f 8f 83 a0 3e 69 e2 bd 3f
       1.926025 1.735523 0.3135037 1.483472
0003e0 90 99 d0 3b 13 62 49 3e b6 fe 14 bf a7 8c e0 bd
       0.0063659623 0.19666319 -0.5820116 -0.10964327
0003f0 7b a8 f8 be 3a bc f3 3f ae ed 96 3f 9c 00 63 3d
       -0.4856604 1.9041817 1.1791284 0.055420503

net.3.bias f4 [64]
000000 cb 3d 54 be 2d 42 9c be a9 75 5b bd a4 03 90 bf
       -0.20726697 -0.30519238 -0.053579006 -1.1251111
000010 05 02 0a be 77 43 fb be 33 9d 64 bf 4c 89 cd be
       -0.13477333 -0.4907491 -0.89302367 -0.40143812
000020 a5 b4 df be 43 83 2b bf 93 2c 73 bf 18 d3 4b bf
       -0.43692508 -0.66997164 -0.9498989 -0.7961898
000030 74 69 4f bf 54 66 ff 3d af 24 4d bf c8 07 29 3e
       -0.81020284 0.124706894 -0.801341 0.16506875
000040 e3 22 4b bf 38 d8 34 bf 75 e9 bb be 8a ae e2 be
       -0.7935011 -0.70642424 -0.3670155 -0.44273788
000050 80 58 fc be cf d5 0a bf 30 bb 19 bf ea 64 8a be
       -0.4928627 -0.54232496 -0.6005125 -0.27030116
000060 ea b9 17 bf a1 07 49 bf ea 3c 12 bf 13 b3 b7 be
       -0.5926806 -0.78527266 -0.571242 -0.3587881
000070 0c 1c 27 bf df 69 22 bf 0b 66 eb be c6 6d c5 be
       -0.6527717 -0.63442796 -0.4597629 -0.38560313
000080 49 14 13 bf 76 4c 4a bf 46 a7 37 be c8 10 9e 3d
       -0.5745283 -0.7902292 -0.17934904 0.077180445
000090 6c 75 2d bf fd 3d 36 bf d6 ce 06 bf 8e 2b 5a be
       -0.67757297 -0.71188337 -0.52659357 -0.21305677
0000a0 22 a2 1d 3c 75 e4 91 bf 80 27 b6 be 68 7f 93 be
       0.009621175 -1.1397845 -0.3557701 -0.2880814
0000b0 76 49 67 bf 9d 7e 0c 3d 30 fa 2e bf b8 d6 c0 be
       -0.9034647 0.034300435 -0.68350506 -0.37663817
0000c0 55 e3 41 bf 06 73 c9 be 4e 6e 84 b9 ff 23 38 bf
       -0.75737506 -0.39345568 -0.00025259185 -0.71929926
0000d0 50 d4 7e be c3 43 c9 be cc 05 45 bf ad 37 8e 3d
       -0.24885678 -0.3930951 -0.7696197 0.06944213
0000e0 22 1d 04 bf 55 40 ba be 5c 06 f9 be 9d 28 c4 be
       -0.51606953 -0.36377206 -0.48637664 -0.38312235
0000f0 7a 62 38 bf f4 fc 29 bf d5 c8 d5 bd d6 1c 85 be
       -0.72025263 -0.664016 -0.10438696 -0.25998563

net.5.weight f4 [64, 64]
000000 37 8b 69 bf ed d7 26 be a3 24 0e 3f 57 09 3a 3f
       -0.9122805 -0.16293307 0.55524653 0.726705
000010 08 4a 6c 3f 45 02 a2 bf cc 34 2c 3f 24 c9 f3 bf
       0.9230046 -1.2656943 0.6726806 -1.9045758
000020 b5 f2 41 bf 59 97 61 3f 44 c2 aa bf 4b a1 25 3f
       -0.75760967 0.88121563 -1.3340535 0.6469924
000030 3e f2 14 3f 2a 58 22 c0 a0 c4 2a bf 6c 35 73 bf
       0.5818213 -2.536631 -0.66706276 -0.9500339
000040 4e 7b 02 3e 9f dd 3e bf 0f aa f5 be fd 27 b4 bf
       0.1274235 -0.74556917 -0.47981307 -1.4074703
000050 64 12 fe be 57 b2 92 3e 5b 7f 34 3f d5 da 5d 3f
       -0.49623406 0.28651688 0.7050683 0.86662036
000060 4c c7 95 3e 58 e2 8d 3d dc b9 9a 3f 50 1e 38 3f
       0.29253614 0.06927937 1.208797 0.71921253
000070 56 00 e3 be 9f 8f 05 3f 6c 1b 75 be 3b ec 7c bd
       -0.44336194 0.52172273 -0.23936242 -0.061748724
000080 c5 80 ac bf 97 9f dd be aa f9 71 bf b0 ce a4 3e
       -1.3476797 -0.4328582 -0.9452158 0.3218894
000090 8c d5 80 3f 7e 8f 36 3f 58 4d 4e 3f 25 a8 27 c0
       1.0065169 0.713127 0.8058677 -2.6196377
0000a0 76 e2 1f 3e bf 79 8f bf df 30 f7 bf fb b8 ce ba
       0.15613732 -1.1209029 -1.9311789 -0.0015771681
0000b0 e7 88 5c 3d 3b cd 84 be aa fc 6b bf 21 2f ad bf
       0.053841498 -0.25937828 -0.9218241 -1.3530008
0000c0 7e 3b 7a 3f 62 09 89 be 1f 91 13 bf b0 f2 0b 3f
       0.9774703 -0.2676497 -0.5764331 0.54667187
0000d0 f7 a7 46 be 0c 3d 6b 3f 13 7a 03 bf af 13 ea be
       -0.19400011 0.91890025 -0.51358145 -0.45718142
0000e0 e7 b8 dd bd 9a 74 7b be 85 67 f6 be fd 75 7e 3f
       -0.10826283 -0.24556199 -0.48125854 0.99398786
0000f0 cc 1f 89 bf 00 cc 10 3e b5 7a 52 3f 31 59 d4 bf
       -1.0712829 0.1414032 0.82218486 -1.6589719
000100 8e 84 b0 3d 25 12 1b bf 2f 81 5c bc 9f 0e b0 3c
       0.08619033 -0.6057456 -0.013458534 0.021491347
000110 43 1c 62 3e c5 34 41 bf 5e 2f 83 be 72 a4 79 3f
       0.22081093 -0.75471145 -0.25622076 0.9751655
000120 6c e2 f2 bc d2 e3 22 bf ed 15 c1 be 92 97 cf be
       -0.029648982 -0.63628876 -0.3771204 -0.40545326
000130 63 60 85 3e 42 0d 0f c0 93 a2 b1 3d 8f 3f a7 3e
       0.260501 -2.2351842 0.08673587 0.3266568
000140 f5 86 01 3f 8d b4 77 3f 2a 98 25 be 5d 56 3c bf
       0.50596553 0.96759874 -0.16171327 -0.7356928
000150 e4 99 a7 be 86 77 5b 3d 91 1f 42 bf 76 43 95 3d
       -0.32734597 0.053580783 -0.75829417 0.07288258
000160 28 aa 0a 3f e0 5c 8a bf 5e af 8f bf 1e 8e 46 3f
       0.5416589 -1.0809593 -1.1225393 0.77560604
000170 c2 0c 1b be 82 74 85 be 55 fb a3 3d 82 d3 47 3f
       -0.15141585 -0.2606545 0.08006922 0.7805711
000180 03 2e d1 be 40 8c 9d bf 71 27 a1 be 33 e4 10 bf
       -0.40855417 -1.2308426 -0.31475404 -0.56598204
000190 a8 3c a7 bd 4f ad 95 be ea b3 9a 3f 2f 68 d9 bf
       -0.08165866 -0.29233786 1.2086155 -1.6984919
0001a0 fc 6e c7 bf 4c 09 04 3f 18 68 8d bf 8c 6e d0 be
       -1.5580745 0.51576686 -1.1047392 -0.4070934
0001b0 a6 4a 0c 3b de 57 01 40 8e 18 57 bf 09 ed a0 be
       0.0021406799 2.020988 -0.8402184 -0.31430843
0001c0 99 26 54 3f 42 d9 ae be d0 84 0d bf e1 38 d2 bf
       0.82871395 -0.3415013 -0.5528078 -1.6423608
0001d0 de 97 ec bd aa 85 98 be c9 32 aa bf 08 db 6f 3f
       -0.11552404 -0.29789478 -1.3296748 0.9369359
0001e0 fc 44 45 bf 95 d3 bc bf cf 75 43 3f 81 82 05 bf
       -0.77058387 -1.475207 0.76351637 -0.5215226
0001f0 7b ae 68 3f 1c 41 7d 3f c8 d1 c1 be 60 30 b5 be
       0.90891236 0.98927474 -0.37855363 -0.3538847
000200 1b 88 94 3d 2e 64 ad be 5c b0 01 3f 6b 94 9b bf
       0.072525226 -0.33865494 0.5065973 -1.2154669
000210 6b 4f 23 bf f2 e0 5c be 7c ae 5c 3e fc 33 d1 bf
       -0.6379306 -0.21570185 0.21550936 -1.6343989
000220 bb 8e 07 3f d5 7b e9 bd c6 0d 24 bf 40 f4 c0 be
       0.52952164 -0.11400572 -0.64083517 -0.37686348
000230 a6 fb cc 3e e0 2f 2e be 35 88 f9 3e cd 19 5c 3f
       0.40035743 -0.1701045 0.4873673 0.8597687
000240 2d 15 32 bf c1 71 ae be a3 d1 46 bf a6 78 1c c0
       -0.6956356 -0.34071162 -0.7766363 -2.4448638
000250 bf e0 57 3f ac 66 d8 3e 2c 56 31 3f f9 c1 2f c0
       0.8432731 0.42265832 0.6927211 -2.7462142
000260 26 c9 cf bf e7 2c be bf 75 a6 98 3e 61 ef 24 3f
       -1.6233261 -1.4857453 0.29814497 0.64427763
000270 a3 f6 a5 3e 56 1b 1c bf aa 1f fd be 02 bf 18 c0
       0.3241473 -0.6097921 -0.4943822 -2.3866582
000280 c8 79 be 3e d3 84 b2 3e c0 69 7e 3c ee 61 b2 bb
       0.37202287 0.34866962 0.015528142 -0.005443803
000290 9b c2 da 3d 24 ee 62 3f ff f5 9f be 3d 79 85 c0
       0.10681649 0.88644624 -0.31242368 -4.1710496
0002a0 38 31 50 3d 5e 4e a7 3f 0b 03 6e 3e ca 2d 9d bd
       0.05082819 1.3070791 0.23243348 -0.07674749
0002b0 92 43 54 3f c1 0c 62 3f 06 53 ee bd 75 7b 2d 3f
       0.82915604 0.8830071 -0.11636929 0.67766505
0002c0 89 d7 76 3d eb a7 3a 3e d7 fd 8e 3e 67 a8 60 3f
       0.060264144 0.18228118 0.2792804 0.8775696
0002d0 6a 9d 99 3f d5 08 a8 3c 34 cb 65 be 4e bb fa 3d
       1.2001164 0.020512024 -0.22440797 0.12242757
0002e0 c0 5a a3 3f 97 ff 84 bc e3 7a e3 3e c6 4e 63 bf
       1.276207 -0.016235156 0.44429693 -0.88792074
0002f0 a3 1e 2a 3e 51 5a 18 be 21 81 ec bf 92 c7 9f bf
       0.1661325 -0.14878203 -1.8476907 -1.2482779
000300 72 b1 62 3e be 60 14 c0 ea 79 8c bf c0 60 0f 3e
       0.22138003 -2.3184047 -1.0974705 0.14001751
000310 ce 5a 49 bf 61 9d c7 be 42 9a fd bc e1 fe 0a 3f
       -0.7865418 -0.38987258 -0.030957345 0.54295164
000320 65 46 9d bf c6 48 42 bd 7f 88 5a 3f c9 ed 5f 3f
       -1.2287108 -0.047432683 0.85364527 0.87472206
000330 2c 4c 53 3f 54 3a 39 be 18 be 47 3f 43 7a 1d 3f
       0.82538104 -0.18088657 0.78024435 0.6151468
000340 a4 f1 09 3f 4d 5b 0e 3f 29 e3 51 3f 60 c2 72 3d
       0.5388434 0.55608064 0.81987244 0.0592674
000350 55 24 41 be 75 a6 15 bf 71 73 15 3f 75 b8 ea be
       -0.18861516 -0.5845712 0.58379275 -0.45843855
000360 22 cd 81 3e 83 e5 94 bd 1a 75 53 be 5f ce bf 3e
       0.25351816 -0.072703384 -0.2065014 0.37462136
000370 0d 71 a0 3f 73 a6 2d 3f b2 5d 80 bf 95 d1 36 bf
       1.25345 0.67832106 -1.0028594 -0.71413547
000380 5b f5 93 bf 72 89 08 40 02 4e ae bd 47 53 b3 bf
       -1.1559252 2.133389 -0.085109726 -1.4009789
000390 ea 44 43 bf dc 1b 5f c0 2a 6f bb be 7c f3 3f bf
       -0.7627703 -3.4860754 -0.3660825 -0.749809
0003a0 c0 bb f2 bd d1 b7 ad 3f 62 2d f7 3d 69 f2 c2 be
       -0.11852217 1.3571721 0.12069203 -0.3807557
0003b0 90 d3 8c 3e c7 ab 03 3e 56 ac 7a 3f 83 1d ff 3e
       0.2750516 0.12858497 0.97919214 0.49827203
0003c0 87 78 b4 3e 28 d1 23 3f 14 b9 6b 3f 03 3a 8c bd
       0.35248205 0.6399102 0.9207928 -0.06847002
0003d0 be 64 88 bf ab b5 fe be 9e 5e 7c 3e 57 49 e4 3e
       -1.0655744 -0.49747977 0.24645469 0.44587204
0003e0 d2 81 35 3e a3 e3 ca be 4a 7b 93 be ad 76 c4 bf
       0.17725304 -0.39626798 -0.28805 -1.5348717
0003f0 0b 8e 6b 3f 82 1e 3b bf 6e 65 ae 3f c2 4a 32 3f
       0.92013615 -0.73093426 1.3624704 0.6964532

net.5.bias f4 [64]
000000 ec f5 c2 3d b2 3a c6 bc 2e e9 a4 bf e1 4f 97 3e
       0.09519562 -0.02419791 -1.2883661 0.2955313
000010 ee 8e a9 be 18 65 75 bd db 4d 92 bf e7 c1 44 bf
       -0.3311686 -0.059910864 -1.143001 -0.7685837
000020 f5 69 f5 be 67 38 e1 bf 97 e9 a8 be 51 6d 49 bf
       -0.479324 -1.7595338 -0.32990715 -0.7868243
000030 a5 cd 67 be e1 61 b2 be ba 04 41 3f 77 9d 31 3e
       -0.22637041 -0.348403 0.7539784 0.17345224
000040 3a b7 f3 be 7a af e7 3e 91 74 23 be 46 76 8c be
       -0.47600728 0.45251065 -0.15962435 -0.27433985
000050 f3 5d 81 bf 8d aa f2 bd a6 c3 bb bf 14 ee 1d 3f
       -1.0106796 -0.11848936 -1.4669082 0.61691403
000060 1b 48 83 bd 49 38 a4 bd 73 b0 d9 bd 58 1b df bf
       -0.064102374 -0.08018548 -0.10629358 -1.743022
000070 f9 e9 4b bf 83 16 29 3f c1 08 3a bf ed 98 5f be
       -0.7965389 0.66049975 -0.7266961 -0.2183568
000080 ed 66 9c be 6d 38 0f bf 9d ff c4 3e 23 0d 8f bf
       -0.30547276 -0.55945474 0.38476267 -1.1175884
000090 d3 c1 59 3f d4 c9 f2 be 99 64 10 3f 2a 5e 29 bf
       0.8506138 -0.47419608 0.564035 -0.6615931
0000a0 08 94 a9 bf 58 3e 9f bf ff 4a 1d be ef bb 69 be
       -1.32483 -1.2440901 -0.1536064 -0.22825597
0000b0 1b 4a 8c 3e ca 2a 5a bf 63 49 26 bf 56 af 52 bf
       0.27400288 -0.8522154 -0.6495573 -0.8229879
0000c0 81 c6 4d bf 6f c6 8d 3f 89 0f 4b bf bd a4 31 3f
       -0.8038102 1.1076182 -0.7932058 0.69391996
0000d0 36 72 8f be 80 a7 13 3f 82 f0 8a 3e 6e b6 71 bf
       -0.28016824 0.5767746 0.27136618 -0.9441899
0000e0 fe b1 3d bf 31 01 c0 3e 68 ba fa be 30 fd 19 40
       -0.7409972 0.3750091 -0.48970342 2.4060783
0000f0 4b fd 42 3d b2 d8 16 bf 28 2d a0 be 58 5a 2c 3e
       0.04760484 -0.589244 -0.3128445 0.16831338

net.7.weight f4 [64, 64]
000000 3a 54 64 3d cd fc e0 3d f9 1a a4 3e 32 5f 83 3e
       0.055744387 0.10985718 0.32051829 0.25658566
000010 73 c8 ef be 7b b2 13 3f 8a 96 47 3f 09 71 11 be
       -0.46832618 0.57694215 0.7796408 -0.14203276
000020 45 b3 ae bf 21 20 82 be 63 37 bf bf 0c 6b 10 bf
       -1.3648459 -0.25415137 -1.4938778 -0.5641334
000030 57 f0 95 3f f7 90 ff be eb 25 83 3e ac 3c 25 c0
       1.1713971 -0.49915287 0.25614867 -2.581828
000040 14 71 58 bf 76 82 88 bf fd 30 09 40 13 bc c3 3e
       -0.84547544 -1.0664814 2.143615 0.38229427
000050 cf 73 92 bf d5 69 99 bf ed db 99 3f ca e4 92 be
       -1.1441592 -1.1985422 1.2020241 -0.28690177
000060 91 7e 4b be ef d1 21 3f 09 0e 13 be 9a 29 b8 bf
       -0.198725 0.6321096 -0.14360823 -1.4387696
000070 ec 57 db 3f 53 8b 0b bb 62 55 27 bf 24 d6 17 be
       1.7136207 -0.002129276 -0.6536466 -0.14827782
000080 3b a8 8d be 36 3a 00 bf 74 46 5b 3f e5 88 9b bf
       -0.27667412 -0.5008882 0.8565438 -1.2151152
000090 55 e5 8a bf 97 99 32 bf 09 1d a2 bf 5b 14 37 bf
       -1.0851237 -0.6976561 -1.2665111 -0.71515435
0000a0 85 ba 0a bf 27 09 32 bd 0d 72 52 3e b4 dd b3 be
       -0.54190856 -0.04346576 0.2055132 -0.35130084
0000b0 f4 1c 6c 3f 15 e3 41 bf b4 01 26 bf 35 23 24 bf
       0.9223168 -0.75737125 -0.6484635 -0.6411622
0000c0 18 2f 94 be f4 a6 50 3f 39 23 c8 be 67 bc 1c 3c
       -0.2894218 0.8150475 -0.39089373 0.009566403
0000d0 34 d4 1d 3f 5d 3d c8 be 67 b3 3a bc ad 90 61 3e
       0.6165192 -0.39109316 -0.011395312 0.22027846
0000e0 7c 12 b9 bf 89 59 0e bf d2 e6 a0 be de 93 01 c0
       -1.4458766 -0.5560537 -0.31426102 -2.02465
0000f0 25 38 7a 3f da 3e 60 3e 94 db 88 be 0a d7 92 3f
       0.9774192 0.21898976 -0.26730025 1.1471875
000100 11 25 72 bc 37 0f 33 3f c8 9c 83 3f 7e f5 17 3d
       -0.014779345 0.6994509 1.0282221 0.037099354
000110 43 5c 8b 3f 5c 29 5f be 07 06 4c bf 96 2b b9 bf
       1.0887531 -0.21793121 -0.79696697 -1.4466426
000120 99 a1 a2 bf 1f 0d 90 bf c8 03 1e 3e 76 e2 af bc
       -1.2705566 -1.1254004 0.1543113 -0.02147029
000130 25 28 a2 3e 6a 92 3f 3f 73 59 7a 3f 85 7a 66 bf
       0.31671253 0.74832785 0.9779274 -0.900307
000140 67 6f fa 3e de d7 a0 3f 83 bb 79 3f d8 68 de 3c
       0.48913118 1.2565877 0.97551745 0.027149603
000150 a8 36 f5 be 13 50 83 bf 39 7c 42 bf e3 4d bd 3e
       -0.47893262 -1.0258812 -0.759708 0.36973485
000160 84 01 0e bf 2e b1 88 bd 28 a2 a8 be 5b ca ac bf
       -0.5547106 -0.06674419 -0.32936215 -1.3499254
000170 45 4d 6d 3e d9 d2 49 3e e1 23 e0 bf e8 cf 22 3f
       0.23174007 0.19709338 -1.7510949 0.6359849
000180 8e 39 9a be eb eb 42 3f 9e 3c a0 3d d9 c9 43 bf
       -0.30122036 0.7614123 0.07824062 -0.7647987
000190 70 f9 f2 3f 78 d1 2e bf c0 00 58 be 49 ee 61 be
       1.8982372 -0.68288374 -0.21094036 -0.22063555
0001a0 9f 7c 7d be ce be 03 3f 38 8c f6 3e 85 74 64 bf
       -0.2475457 0.5146302 0.48153853 -0.89240295
0001b0 c1 e3 d3 be ca 9d 54 3d 27 cd a6 3d 55 11 85 bf
       -0.413847 0.051908292 0.081445985 -1.0395914
0001c0 d0 24 05 bf 64 b2 8f bf e7 98 b4 bf 6f 4e 2d 3f
       -0.52009296 -1.1226315 -1.4109162 0.67697805
0001d0 72 7c 9b bd 9e 14 32 3f 74 60 a6 3e 8b 78 89 3d
       -0.075920954 0.6956271 0.32495463 0.06712445
0001e0 d6 77 53 3c 07 74 26 be 91 13 7a 3c 0c 63 a7 3e
       0.012906989 -0.16255198 0.015263454 0.32692754
0001f0 c6 21 e6 bf 6a 23 bf 3e 86 5e b6 be e9 cb 5f 3f
       -1.7979057 0.37331706 -0.3561899 0.8742052
000200 38 36 6f bf ae 34 69 3f c5 b4 00 c0 71 dd f1 3d
       -0.93442106 0.9109601 -2.0110333 0.11809815
000210 e1 16 ff bf 19 ed 80 3f 6f 90 86 bf d9 5d a9 bf
       -1.9928857 1.0072356 -1.0512828 -1.3231765
000220 58 a4 28 bf be bb fc be c6 d7 c2 3e 3d c4 9c 3f
       -0.6587577 -0.49361986 0.38055247 1.2247387
000230 96 74 36 bf 3d b1 d7 3e 9a d7 56 3f e5 be 8d bf
       -0.71271646 0.4212741 0.8392273 -1.1073881
000240 07 c6 2e 3d ce e4 9a 3e 34 64 14 bf 8d 1d ff bf
       0.042669322 0.3025269 -0.579654 -1.9930893
000250 08 55 ad bf 0c 98 4e 3f 54 e1 cb bf 3b 24 b4 3e
       -1.3541574 0.80700755 -1.592814 0.35183892
000260 f8 16 7b be 36 03 34 bf 7d 96 fc bf 8d da 2a bf
       -0.2452048 -0.703174 -1.9733425 -0.6673973
000270 df 18 13 3e f6 e2 a2 3e b4 a1 d6 bf 7d 68 a0 3e
       0.14364956 0.31813782 -1.6768098 0.31329718
000280 41 5f b8 3d e8 25 5f bf 47 e4 9c 3e 7a ba 58 bf
       0.09002543 -0.87167215 0.30642912 -0.8465954
000290 ae 8e 13 3f 5f af 2d bf 4b 51 d3 be 13 cf 22 bf
       0.57639587 -0.6784572 -0.4127296 -0.6359722
0002a0 72 2b 1a bd 02 0b 0c be 8a f8 aa bd 6f f4 f7 bf
       -0.03763909 -0.13676074 -0.08348186 -1.937147
0002b0 33 d9 24 3e 0b df 3c bf bd 9b 04 bf 25 cc 66 bf
       0.1609848 -0.73777837 -0.5180014 -0.9015525
0002c0 ac 13 ea 3c d5 11 94 3e b5 01 96 be 71 56 b6 bf
       0.028573833 0.28919855 -0.29298177 -1.424513
0002d0 89 80 51 be 23 4a 12 bf 2b fb 86 3f 24 88 28 3f
       -0.20459189 -0.57144374 1.05454 0.65832734
0002e0 58 2a 18 3f af 01 00 3d e4 e2 cc 3e 05 20 15 bf
       0.5943961 0.031251606 0.40016854 -0.5825198
0002f0 a6 f7 15 bd 2f 25 09 bf 8c 42 84 3e 5e 63 2f bf
       -0.03661313 -0.5357236 0.2583202 -0.68511
000300 9c 2e e8 be f1 80 c1 bd 6b 91 30 3d 7f 32 ca be
       -0.4534806 -0.09448422 0.04310743 -0.3949165
000310 00 71 14 bf c9 9e 54 be e4 b3 e2 bf 20 aa 9d bf
       -0.57984924 -0.20763697 -1.7711148 -1.2317543
000320 5c c2 93 bc e5 8d 75 be f2 73 a9 be 5d 4d 5d 3f
       -0.018037014 -0.2397991 -0.33096272 0.8644617
000330 1a 44 bd 3d 94 12 9a bd 7e 18 84 3d ad 86 dc bf
       0.09241505 -0.07523075 0.06449984 -1.72286
000340 a5 d9 1e 3f 19 ba 48 bf 47 68 a1 3f 2d e7 c0 bf
       0.6205085 -0.7840896 1.2609948 -1.5070549
000350 ca 6e fb bf 43 e2 c5 be 00 a3 88 3f c1 34 77 bf
       -1.9643185 -0.38649186 1.0674744 -0.9656487
000360 0d af f2 be 92 aa 50 3f df d4 44 3f 40 57 d7 3e
       -0.47399178 0.8151027 0.76887316 0.42058754
000370 5f 71 73 be f4 1a 16 bf 26 3f 00 3f 64 c2 2d be
       -0.23773716 -0.5863488 0.50096357 -0.16968685
000380 b6 4b 94 3e 82 35 90 3e b3 ed 4f c0 90 04 1a 3f
       0.28964013 0.28165823 -3.248883 0.6016321
000390 46 d2 2d 3f 88 bd 91 bf 6c 32 0a 3f bc 3c 7b bf
       0.67898977 -1.1385965 0.5398319 -0.9813955
0003a0 29 a5 0b 3f bd 43 29 3f 11 80 94 bf d1 79 9e bc
       0.5454889 0.66118985 -1.1601583 -0.019345196
0003b0 3d db ba bf e2 6b 93 be b2 9a dd be f4 3c 27 c0
       -1.4598156 -0.28793246 -0.43282086 -2.6130953
0003c0 7b 67 26 bf 15 f5 ff bc cf 20 1c bf 54 e3 87 3f
       -0.6500165 -0.031244794 -0.6098756 1.061625
0003d0 b9 b2 35 3f 64 fc 68 bf 91 3a 14 3f b2 41 60 3d
       0.70975834 -0.9101012 0.57901865 0.054750152
0003e0 7e 70 48 bd 1c f5 f9 bf 8e 4f a1 be 9e 79 06 bf
       -0.048935406 -1.9527926 -0.31506008 -0.52529323
0003f0 b3 a8 72 bf f8 05 5b bf 99 13 cf 3f 7c 5e b5 3e
       -0.94788665 -0.8555598 1.6177856 0.35423648

net.7.bias f4 [64]
000000 76 32 5f 3f 78 fc 7c 3f d3 79 d7 bf ea 74 c0 bf
       0.8718637 0.98822737 -1.6834053 -1.5035679
000010 a1 19 1b 3f 9a 1b 2c bf dd b1 97 3e 7b 20 ab 3f
       0.6058598 -0.67229617 0.29627886 1.3369287
000020 94 ca 53 bf d2 da 90 3f 3c 4e 45 3f ce c7 98 3e
       -0.82730985 1.1316779 0.770725 0.2983994
000030 84 3f 29 bf 4f d4 76 bf f8 f3 f3 be 8b 73 99 bf
       -0.6611254 -0.9641771 -0.4764707 -1.1988386
000040 dd de 5b bf d3 c2 04 3f 38 ea 06 bf 01 a3 0f c0
       -0.8588694 0.5185978 -0.5270114 -2.244324
000050 71 68 ef bf 38 c7 a3 3f 17 c4 cc bf 23 1e 0b bf
       -1.8703748 1.2795172 -1.5997342 -0.5434286
000060 d5 2e eb bf 99 a5 49 bf 02 40 94 bf c3 a5 41 3f
       -1.8373667 -0.78768307 -1.1582034 0.7564356
000070 ae 9d cc be 98 55 9e 3f ad 98 95 bf e3 0b 9a bf
       -0.3996405 1.2369871 -1.1687218 -1.2034878
000080 57 31 ab bf b1 a5 a3 bf 18 15 92 3e 5e 4f ca be
       -1.3374432 -1.278494 0.28531718 -0.39513677
000090 e4 d4 38 c0 ae 5c 1e 3f dd c2 a3 bf f4 53 95 be
       -2.8879938 0.6186017 -1.2793843 -0.29165614
0000a0 75 4e b1 bf 2b c4 0c c0 ad a9 7e bf c2 81 23 bf
       -1.3852068 -2.1994731 -0.99477655 -0.6386987
0000b0 15 33 d8 bf fa fa f9 bf 0e fa 27 bf f1 16 9f bf
       -1.6890589 -1.9529717 -0.6561593 -1.2428876
0000c0 01 8d 11 bf c0 65 29 bf cb 23 bc 3e 84 4d c7 bf
       -0.5685578 -0.66170883 0.36746058 -1.5570531
0000d0 ab 6b d5 bd 46 92 25 c0 58 d2 67 bd 24 18 40 bf
       -0.10420927 -2.5870528 -0.056597084 -0.75036836
0000e0 21 74 4a bf 7f c4 f5 bb 47 aa 0c bf 85 ae bb bf
       -0.7908345 -0.007500231 -0.5494732 -1.4662634
0000f0 2c 14 58 bf 6a 07 b5 bf 36 d9 2b c0 62 e3 8d 3f
       -0.8440578 -1.4142888 -2.6851325 1.1085017

net.9.weight f4 [7, 64]
000000 19 5d 3d be 24 d0 84 3e 44 12 34 3f 55 6b 04 3f
       -0.18492545 0.2594005 0.7034037 0.51726276
000010 90 d8 1f bf 0f 3a e9 be ed 1d 65 be 5d 57 9b bf
       -0.62439823 -0.45552108 -0.22374697 -1.2136036
000020 48 14 e0 be 10 c2 10 bf 18 bc dc be 80 e0 57 3e
       -0.43765473 -0.56546116 -0.43112254 0.21081734
000030 37 b1 40 3f 60 c7 01 bf 2a e2 d4 be c7 b0 27 bf
       0.7527041 -0.5069485 -0.415788 -0.65504116
000040 74 dc 5a bf e0 13 86 3f 52 fa 8a bd b8 fb be 3f
       -0.85492635 1.0474815 -0.06786026 1.4920568
000050 9b b4 02 3e 70 22 72 3e fb 4a 94 3f 31 f0 a2 3d
       0.12764208 0.2364595 1.1585382 0.07955969
000060 41 18 b8 3e ed 07 4b 3f 76 3a 4e 3f f5 71 a9 3e
       0.35956004 0.7930897 0.80557954 0.33094755
000070 b5 e0 02 3f 6f 25 39 3e 4c c1 62 be cf 3a ce 3e
       0.51124126 0.18080686 -0.2214405 0.40279242
000080 0f 10 96 3f 9a 8d 3d 3f 4f 83 56 3f be 53 61 be
       1.1723651 0.7404419 0.8379411 -0.22004601
000090 78 83 7b 3f c3 80 82 be af 45 02 3f 3e 04 0b 3f
       0.9824748 -0.25488862 0.5088758 0.5430335
0000a0 10 11 6f 3f 79 94 20 3f dc 7b 6b 3d 18 05 bd 3e
       0.9338541 0.6272655 0.05749117 0.3691795
0000b0 fb 6e 43 3f cd 77 c3 3e e0 94 42 3f d6 a3 01 bf
       0.7634122 0.38177338 0.76008415 -0.5064062
0000c0 88 97 cc 3e cc 81 8f bf e2 97 94 3f 70 fd 5f be
       0.3995936 -1.1211486 1.1608851 -0.21874022
0000d0 92 2e 55 be f6 12 f7 bd 18 d0 05 3f 30 52 25 3f
       -0.20818546 -0.120641634 0.5227065 0.64578533
0000e0 ff 30 d9 3e f3 d3 ff 3b 77 3f 5a bf 99 2a 84 3e
       0.42420194 0.0078072487 -0.8525309 0.2581375
0000f0 b3 72 36 bf bc 13 cb 3e 03 22 94 3e 04 2b 3c bf
       -0.7126877 0.39663494 0.289322 -0.73503137
000100 d5 62 03 3f 1a 2f 89 3e 52 36 dd 3e 41 b3 c7 3e
       0.5132268 0.26793748 0.43205506 0.39003947
000110 a7 2e 90 3e 63 86 e1 be fc 80 15 3f 77 82 2d 3e
       0.28160593 -0.4404784 0.5839994 0.169443
000120 f4 d0 5d 3e af 0f b8 3e 4c 2b 23 3f 5d ad fb 3e
       0.2166174 0.35949466 0.6373794 0.49155703
000130 cf 62 21 3f f6 8b 8d be c4 0b 3f 3f 9c 78 d5 3e
       0.63041395 -0.27645844 0.7462733 0.4169358
000140 e0 71 72 bf a7 79 11 3e fe b2 84 3f d0 b9 8f 3d
       -0.9470501 0.14206563 1.0367124 0.07017863
000150 ed bf a1 3f 58 e3 c9 be 0a d9 91 3d 98 b9 4f 3e
       1.2636696 -0.39431262 0.07121475 0.20285642
000160 90 00 d3 be 3b c8 7d 3a f8 d3 5c bf 06 37 9e be
       -0.41211367 0.0009681021 -0.8626094 -0.30901355
000170 8b 9d 89 bd d3 8e df 3e 1e 0d 80 3e 28 0b 3f 3f
       -0.06719502 0.43663654 0.25010008 0.746264
000180 77 9c 3e 3e d7 e7 a3 3e 63 57 32 3e 2d 31 7c 3e
       0.18614374 0.32012817 0.17416148 0.24628134
000190 09 aa 98 3f cd 69 da 3d fb 51 5d 3f f0 f7 3f 3e
       1.1926891 0.10664711 0.8645322 0.18746924
0001a0 78 55 41 bc fd 88 70 3e 36 75 df 3e 7d 1a b2 3d
       -0.0118001625 0.23489757 0.43644112 0.086964585
0001b0 34 00 24 3e 4c a6 2e bd c2 7f e8 3e 17 80 26 3f
       0.16015702 -0.04263906 0.4540997 0.650392
0001c0 52 ec 73 3f fa 10 2e 3e 95 db ac 3d ed 28 ab 3f
       0.9528247 0.16998664 0.084403194 1.3371865
0001d0 4f c0 8d bd a8 e8 38 3f d8 af cb 3e 41 69 17 3f
       -0.069214456 0.72230005 0.39782596 0.5914498
0001e0 e1 3e 2a 3d 35 3a 20 bf 9d e2 c4 bc 4f 89 f4 3e
       0.041563872 -0.62588817 -0.024033839 0.47761008
0001f0 9b 98 5f be 90 c9 00 3f 3e 2e c8 be 60 7b bf be
       -0.21835558 0.5030756 -0.3909778 -0.37398815
000200 5e ec 19 3f 3e 43 e1 3e de 26 c3 be 7c e9 43 3f
       0.6012629 0.43996614 -0.3811559 0.76528144
000210 67 73 be 3e f0 0d 67 3e 0b 98 a7 be 45 14 97 3e
       0.3719742 0.2256391 -0.32733187 0.29507652
000220 a4 84 eb 3e c5 fd 8e ba f6 14 ac bd a8 72 88 3e
       0.45999634 -0.001090937 -0.084024355 0.26649976
000230 63 04 32 3f 9e 07 9e 3e a8 46 45 3f d4 b3 70 be
       0.69537944 0.30865186 0.7706094 -0.23506099
000240 08 12 09 3f 51 f3 bb 3d 19 00 a5 3e 31 1b 87 3e
       0.5354314 0.09177268 0.32226637 0.26387933
000250 94 ce 94 3e d5 be 23 be ed ff 3e 3f 85 8b 81 3e
       0.29063857 -0.15990765 0.7460926 0.25301757
000260 cd aa f8 3e 49 8a d4 3e 41 d6 86 3e bc b2 15 3f
       0.4856781 0.41511753 0.26335338 0.5847585
000270 b3 c2 26 3f 79 48 00 3e 7c 07 00 3d 6f c9 44 be
       0.6514084 0.12527646 0.031257138 -0.19217466
000280 5a 5b fc be 57 19 19 bf 6a 1a 44 3f 98 9e dd 3e
       -0.49288446 -0.5980429 0.76602805 0.4328506
000290 79 7b 2b 3f 08 fd db bd 84 7e 1a be 8b 94 e1 3e
       0.6698528 -0.10741621 -0.15087324 0.44058642
0002a0 00 74 51 be 0a 45 15 3e ef 9b 2d bf 81 4d 40 be
       -0.20454407 0.14577118 -0.6781606 -0.18779565
0002b0 de 7b 78 3f 60 35 35 3f eb 23 1b 3f 17 da 0a be
       0.97064006 0.7078457 0.6060168 -0.13559757
0002c0 f1 f6 5d bf 3e 35 2b 3f e0 53 eb be d8 46 66 3f
       -0.8670493 0.66878116 -0.4596243 0.8995185
0002d0 4f 63 e0 bd b5 05 23 bd 56 9f 89 3e a0 77 07 3f
       -0.109564416 -0.039800365 0.26879376 0.5291691
0002e0 44 20 b4 be 48 05 8f 3e 97 c6 45 bd cf 5f 2d 3f
       -0.35180867 0.27933717 -0.048285093 0.6772432
0002f0 87 72 14 3f 04 e0 8d 3d e2 f2 87 3e 28 ce c4 3e
       0.57987255 0.06927493 0.26552492 0.38438535
000300 cc 1a 10 3f 60 11 7f 3e ca 6a 37 be 32 e4 55 3f
       0.5629089 0.24908972 -0.1791183 0.83551323
000310 fd 51 f1 3e 93 69 28 be e3 a8 b9 3e a1 31 20 3f
       0.47132865 -0.16446523 0.36261663 0.6257573
000320 96 ff 4b 3e 1d a4 5c 3e 12 29 13 be 14 c1 73 be
       0.19921717 0.21546979 -0.14371136 -0.23804122
000330 23 d6 d4 3e 16 f7 9d 3e b1 61 78 b9 58 dd f2 3e
       0.41569623 0.30852574 -0.00023687516 0.47434497
000340 85 67 27 3e 2c cb 11 3f 49 3f cf 3c 66 36 11 3f
       0.16348083 0.5695064 0.025298731 0.5672363
000350 f6 94 8a 3f 8b f1 f1 3e 08 69 8a 3e 27 18 0a 3f
       1.0826709 0.47254595 0.27033257 0.53943104
000360 59 99 5c 3e ce 55 64 be 54 e1 e5 3e 2b 2c d6 3e
       0.21542872 -0.22298357 0.44898474 0.41830572
000370 32 d5 47 3e 18 31 95 3e 2c da 49 3f c6 7b b7 3c
       0.19514921 0.29139018 0.7884853 0.022397887
000380 c7 37 d8 bc 5c bc cd be ca 24 ac bd b9 fc 83 bf
       -0.026393784 -0.4018277 -0.084054545 -1.03115
000390 eb 8c 72 3f 4d 71 df 3e b1 5b 0a 3f 18 c3 5f 3c
       0.94746274 0.4364113 0.5404616 0.013657354
0003a0 b1 01 47 3e 5d 6d 4a 3b cd 80 36 3f e6 64 bc 3e
       0.19434239 0.003088794 0.71290284 0.3679573
0003b0 82 db 7d bd e9 62 f3 3e 69 b7 9b 3e eb f5 5c 3e
       -0.061976917 0.475364 0.30413368 0.21578185
0003c0 75 9f 59 3e fa 54 62 3f 84 75 d9 3e c8 a0 06 3e
       0.21252234 0.88410914 0.4247247 0.1314727
0003d0 71 40 a9 3e 24 5d f5 3e 09 db 17 3f b9 eb c2 3e
       0.33056977 0.47922623 0.59318596 0.38070467
0003e0 04 96 8f 3e 91 45 e3 3e ed 0a 1f 3f a8 a9 2c be
       0.2804414 0.44389012 0.62126046 -0.16861594
0003f0 db b9 2e 3f f5 d9 ae be e9 4d 48 3f 48 e0 36 3e
       0.6825234 -0.34150663 0.7824388 0.17858994

net.9.bias f4 [7]
000000 83 3c 3d 3e f4 e4 8e 3e b0 98 8f 3e 19 9c 91 3e
       0.18480115 0.27909052 0.2804618 0.28439406
000010 4a 3b 9a 3e 28 9c f7 3e 94 50 e9 3e
       0.3012336 0.48361325 0.4556929
