experts/DQN/net_configs/agent_dqn.pth (torch, 160547 bytes, 8 tensors)

net.0.weight f4 [128, 42]
0	0x3fec47b8	1.8459387
1	0xbf5e8032	-0.8691436
2	0x3fde0072	1.7343886
3	0x3f70e205	0.9409488
4	0x3f89edf4	1.0775743
5	0xbd834cc3	-0.064111255
6	0x3f5cd26f	0.86258596
7	0x3ef92acd	0.48665467
8	0x3e5f3a08	0.21799481
9	0x3f30a94b	0.6900832
10	0xbe8d71d1	-0.27625898
11	0xbf3174ff	-0.69319147
12	0x400d9ade	2.2125773
13	0xbeee4719	-0.46538618
14	0xbe1086fc	-0.14113992
15	0x3f4c1846	0.7972454
16	0xbef16eca	-0.47154838
17	0xbf576eba	-0.8415333
18	0x3f1bcf84	0.6086352
19	0x3f8c7cb9	1.0975562
20	0x3f31fe4d	0.6952866
21	0xbf71ecbe	-0.94501865
22	0x3dc3de3e	0.09563874
23	0x3fe8a057	1.8173932
24	0xbe7fbea7	-0.24975072
25	0x401dbbfe	2.4645991
26	0xbedbe375	-0.42946973
27	0xc08ca7d3	-4.3954864
28	0xbe8f5a0a	-0.27998382
29	0x3f7f5019	0.99731594
30	0x3cea5b08	0.02860786
31	0x4014b4de	2.3235393
32	0x3f8d912a	1.1059926
33	0x3f6ce569	0.9253755
34	0x3fec8c57	1.8480328
35	0xbf0b034b	-0.543019
36	0xbf8e1be5	-1.1102263
37	0x3db1da0e	0.08684169
38	0x3fdccd3f	1.7250136
39	0xbf0434ef	-0.5164327
40	0x3e61c50f	0.22047828
41	0x3f230082	0.6367265
42	0xc024498d	-2.5669892
43	0x3fc8381f	1.5642127
44	0xbfc6434d	-1.5489289
45	0x3ed791e9	0.42103508
46	0x4015d1c5	2.3409283
47	0xbffcb813	-1.9743675
48	0x403356b4	2.802167
49	0x3fd2dd89	1.6473857
50	0x3e740e62	0.23833612
51	0xbfd67f54	-1.6757607
52	0x3f2ac4cc	0.6670654
53	0x3f029112	0.5100261
54	0xbfefb923	-1.8728374
55	0xbd0c2743	-0.03421713
56	0x3e56df4b	0.20983617
57	0xbfba16b4	-1.4538178
58	0xc0313b27	-2.7692354
59	0x3e0d901a	0.13824502
60	0x3f8e25f7	1.1105336
61	0xbd8d9bde	-0.06914495
62	0x4003a64a	2.0570245
63	0xbf5bfce4	-0.85932755
64	0xc0087ea1	-2.1327288
65	0x3fa5e80b	1.2961439
66	0xbf7826cc	-0.969342
67	0xbff11dd1	-1.8837224
68	0xbf5ee906	-0.87074316
69	0x3f9f3c02	1.2440188
70	0xbeffaf6b	-0.4993852
71	0x3fc75671	1.5573255
72	0x3f16a947	0.58852047
73	0x3f4a3778	0.7899089
74	0xc06386f3	-3.5551116
75	0xbfa0b6d8	-1.25558
76	0xbf9954c3	-1.1978992
77	0x3fb6af1a	1.4272187
78	0x3fd4b220	1.661686
79	0xbf0de6c7	-0.55430263
80	0x3f65bfd8	0.89745855
81	0xbedf7a1c	-0.4364785
82	0xbf19df18	-0.6010604
83	0xbf6196f5	-0.8812097
84	0xbf55a8ed	-0.83460885
85	0x3f50d381	0.8157273
86	0xc05f8e90	-3.4930763
87	0x4015aab0	2.338543
88	0x3fd77389	1.6832134
89	0x3e833c2f	0.25631854
90	0x3fbf8cc8	1.4964838
91	0x3fa56763	1.2922176
92	0x3f7fbed1	0.9990054
93	0xbf6c58a2	-0.9232274
94	0x401b57b7	2.4272287
95	0xbe2bb527	-0.16768323
96	0x3f0abd35	0.54194957
97	0xbf25ca1b	-0.64761513
98	0x3fae3e0e	1.3612688
99	0xbfca8885	-1.5822912
100	0x4053a866	3.3071532
101	0xbecba9dc	-0.3977803
102	0x3f63ea59	0.8902946
103	0xbf519aa6	-0.818766
104	0xbd994db1	-0.074855216
105	0x3f06a134	0.52589726
106	0x3fc9effd	1.5776364
107	0x3fa5ac87	1.2943276
108	0xbcd506f7	-0.026004298
109	0xbfe5a575	-1.7941118
110	0x3e8ad2b8	0.2711389
111	0x3d15f76a	0.036612906
112	0xbf1a180b	-0.60192937
113	0x3eb79754	0.35857642
114	0xbd82376e	-0.063582286
115	0x3f1133d2	0.56719697
116	0xbf819260	-1.0122795
117	0x3f1f7e9d	0.6230257
118	0xbdc85e67	-0.09783631
119	0xbeb8cde4	-0.36094582
120	0x3f99e646	1.2023399
121	0xc0284cf8	-2.6296978
122	0xbee7bc81	-0.45261005
123	0xbf89f127	-1.0776719
124	0xbf485187	-0.782494
125	0x3fa02ee6	1.2514312
126	0xbf4a8bee	-0.79119766
127	0xbeeaff7a	-0.45898038
128	0x3fa4e022	1.28809
129	0xbee1312a	-0.43982822
130	0x3f575d15	0.84126407
131	0xbfbb42f4	-1.4629807
132	0x3fbef261	1.4917718
133	0x3e3fdef6	0.18737397
134	0x3f826001	1.0185548
135	0x3f878b06	1.0589302
136	0x3f926dd6	1.1439769
137	0x3f4b5de6	0.7944015
138	0xbd9125c2	-0.0708728
139	0x3f3f357c	0.74690986
140	0x3f950c1e	1.1644323
141	0x3faa697c	1.3313441
142	0xbfe5b355	-1.7945353
143	0x3f1d33e2	0.6140729
144	0x3f82b8fd	1.0212704
145	0x3ecf3e67	0.40477297
146	0x3fe56d1d	1.7923924
147	0xbe84c860	-0.25934124
148	0x3e16e6c5	0.14736469
149	0x40867940	4.202301
150	0x3f169849	0.5882612
151	0xc00e112a	-2.2197976
152	0x3fbe0b48	1.4847193
153	0x3f51a30d	0.8188942
154	0xbff67144	-1.9253316
155	0xbe626c92	-0.22111729
156	0x402b1a15	2.673467
157	0xbe9065dd	-0.28202716
158	0xbf0a3f16	-0.5400251
159	0x3f511318	0.8166976
160	0xbfdf1180	-1.7427216
161	0x3b927de8	0.0044705756
162	0xbf8dca1a	-1.1077302
163	0x3f6ab3d9	0.91680676
164	0xbeacf075	-0.33777204
165	0xbfa1d5b6	-1.2643344
166	0xbf21db5c	-0.6322534
167	0xbe10bd8f	-0.14134811
168	0xbfeed7ba	-1.8659585
169	0xc04d3b2c	-3.2067366
170	0xc0017dbb	-2.023299
171	0x3e835f98	0.2565887
172	0xbe836494	-0.25662673
173	0xbf7fefed	-0.9997547
174	0x3f14c4a0	0.58112526
175	0xbf11fbc6	-0.570248
176	0x3f971389	1.1802837
177	0xbf6b29c4	-0.91860604
178	0x3eb8fb95	0.36129442
179	0xbf04d8e9	-0.5189348
180	0xbfb75cc3	-1.4325184
181	0xbf814794	-1.0099969
182	0x3f8a1fd5	1.0790964
183	0xbec5627c	-0.385517
184	0xbf081a04	-0.53164697
185	0x3f424d8e	0.7589959
186	0x3fc4bec1	1.5370713
187	0x4014c0ce	2.3242679
188	0x40043dae	2.0662646
189	0x3fb685fe	1.4259641
190	0xbf59c810	-0.85070896
191	0x3f351a21	0.70742995
192	0xbe9bbce7	-0.3041756
193	0xbf8a0fec	-1.0786109
194	0x3e53a174	0.20667058
195	0x3ef212e0	0.47280025
196	0x3f8722cb	1.0557493
197	0x4000b029	2.010752
198	0xbf803d0b	-1.0018629
199	0x3fdb9ec3	1.7157825
200	0x3f549d87	0.8305287
201	0xbf395688	-0.7239766
202	0xbfecec6d	-1.8509651
203	0xbd871464	-0.06595686
204	0xbf7053d8	-0.93877935
205	0xbf87a965	-1.059857
206	0xbf021138	-0.50807524
207	0x3e60715e	0.21918246
208	0x3ebb0dba	0.3653391
209	0xbf9f6eff	-1.2455748
210	0x3e4d82e2	0.20069459
211	0x3fa3823c	1.2774119
212	0xbf66b133	-0.90114135
213	0xbe009c9d	-0.12559743
214	0x3f4cb615	0.79965335
215	0x3fcd80b3	1.6054901
216	0x3ed8c995	0.42341295
217	0xc043afa3	-3.057595
218	0x3ff0d85f	1.8816031
219	0x3f9cead5	1.2259165
220	0x3f9544de	1.1661642
221	0x3f44cf66	0.76878965
222	0x40306248	2.7559986
223	0x3f2db296	0.67850626
224	0xc031cfd0	-2.7783089
225	0x3e24b247	0.16083632
226	0x3fee6708	1.8625193
227	0xbfbac956	-1.4592693
228	0x3f4183e9	0.75591904
229	0xbf1ff23f	-0.62479013
230	0x4042c81e	3.0434642
231	0x3ee8175c	0.45330322
232	0xbf3dde5c	-0.7416742
233	0x3f69582c	0.91150165
234	0xbe4c518b	-0.19952981
235	0x3fa58e8f	1.293413
236	0xbf2f3fa0	-0.6845646
237	0x3eda4379	0.42629603
238	0xbf66f822	-0.9022237
239	0x3f22e634	0.6363251
240	0xbf626f15	-0.8845075
241	0xbea0df15	-0.31420198
242	0x4041e363	3.0295036
243	0x3f2706b6	0.65244615
244	0x3e604cf6	0.21904358
245	0xbe89b31d	-0.26894465
246	0x3dbc6039	0.091980405
247	0xbec3e942	-0.382639
248	0x3ec9b138	0.3939302
249	0xbfd9e117	-1.7021817
250	0xbe8cf228	-0.275285
251	0xbf4bf9f3	-0.7967827
252	0xbf7173c7	-0.9431729
253	0xbe83cf75	-0.25744215
254	0x3f329561	0.69759184
255	0x3ea540e3	0.32276067

net.0.bias f4 [128]
0	0xbf6dfbe1	-0.9296246
1	0xbf2e69ec	-0.68130374
2	0x3fdddc8a	1.7332928
3	0xbfb37c1c	-1.402225
4	0xbfa107a6	-1.2580459
5	0xbf63ab3c	-0.8893316
6	0xbf326844	-0.69690347
7	0xbeaac686	-0.33354586
8	0xbf92c0b4	-1.1465058
9	0x3e90de71	0.2829471
10	0x3d984968	0.07435876
11	0xbe258d19	-0.16167106
12	0xbf22f868	-0.6366029
13	0xbea610cf	-0.324347
14	0xbf71e9a7	-0.9449715
15	0xbf840792	-1.031481
16	0xc00d2a9c	-2.2057257
17	0xbf6e096c	-0.92983127
18	0xbe431440	-0.19050694
19	0xbfc6861d	-1.5509678
20	0xbf1096bf	-0.5648002
21	0xbf3d8e4e	-0.74045265
22	0xbfbf2756	-1.4933879
23	0xbf199a7f	-0.6000137
24	0xbfbf1c4a	-1.4930508
25	0xbf271882	-0.6527177
26	0x3f66898b	0.90053624
27	0x3ec886c4	0.39165318
28	0xbf41de79	-0.7573009
29	0xbf2f17cd	-0.6839569
30	0xbd856a7e	-0.065144524
31	0xbff0e393	-1.881945
32	0x3fa30cce	1.2738283
33	0x3eab5f32	0.33471066
34	0xbf1b54a9	-0.60676056
35	0x3eb1fbe0	0.34762478
36	0x3f007248	0.5017438
37	0xbeb6066d	-0.35551777
38	0x3e020262	0.12696221
39	0xbece9420	-0.40347385
40	0xbf6e1c40	-0.93011856
41	0xbf84b208	-1.0366831
42	0xbf29f9f6	-0.66397035
43	0x3cb3a18c	0.021927617
44	0x3f33f308	0.7029271
45	0xc0018655	-2.023824
46	0xbfbb72aa	-1.4644368
47	0xbffd8a8e	-1.9807909
48	0xbfbe88bd	-1.4885479
49	0xbf1387d6	-0.57629144
50	0xbf979c21	-1.1844522
51	0xbf066da0	-0.52511024
52	0xbee5da41	-0.44893077
53	0xbf80dcdf	-1.0067405
54	0xbfa9bed5	-1.3261362
55	0xbfd55aa9	-1.6668292
56	0xbf668150	-0.90041065
57	0xbfb43f27	-1.4081773
58	0xbf8c2ae5	-1.095059
59	0xbfb9c9aa	-1.4514668
60	0xbec59eb9	-0.38597658
61	0xbfa7131e	-1.3052709
62	0xbdf1f73f	-0.118147366
63	0xbf2cba26	-0.6747154
64	0xbf434f68	-0.7629304
65	0xbf999e8c	-1.200151
66	0x3ee23128	0.44178128
67	0x3e634bb1	0.22196843
68	0xbf38c237	-0.7217135
69	0xbf29d19b	-0.6633546
70	0x3f98d2ef	1.1939372
71	0x3e56b459	0.20967235
72	0xc00dfd14	-2.2185717
73	0x3f540a68	0.8282838
74	0xbfe82286	-1.8135536
75	0xbef14d77	-0.47129413
76	0x3f2989fd	0.6622618
77	0xc0217526	-2.5227752
78	0xbf9606dc	-1.1720843
79	0xbf045577	-0.5169291
80	0xbf54faf8	-0.8319545
81	0xbf401235	-0.7502778
82	0xbfae7a36	-1.3631046
83	0xbded269f	-0.11579632
84	0xbfcdb730	-1.6071529
85	0xbf2ae103	-0.6674959
86	0xbef91797	-0.4865081
87	0xbf9b16d2	-1.2116339
88	0xbf40284d	-0.75061494
89	0xbf00ec55	-0.50360614
90	0xbf384be3	-0.71990794
91	0x3d9aa6a0	0.075513124
92	0xbf8f0e74	-1.1176286
93	0xbcf4c5ec	-0.029879533
94	0x3f8e1d29	1.1102649
95	0x3e38380c	0.1799013
96	0xbf74c5a6	-0.9561409
97	0xbfd65369	-1.6744205
98	0xc0181435	-2.3762333
99	0xbeec756c	-0.46183336
100	0xbf2bd614	-0.6712353
101	0x3cc18ad2	0.023625765
102	0xbea44b2a	-0.32088596
103	0x3e513f7e	0.20434377
104	0xbeeec463	-0.46634206
105	0xbe4848bc	-0.19558996
106	0x3e8c9b4c	0.27462232
107	0xbd1df127	-0.03856006
108	0x3f712ba6	0.9420723
109	0xbf233206	-0.63748205
110	0xbf1cbad3	-0.6122257
111	0x3cfa8fbe	0.03058612
112	0xbd376f01	-0.044783596
113	0xbe6ee8ef	-0.23331045
114	0x3ebdace1	0.3704596
115	0xbfb3e577	-1.4054402
116	0xbfe1fd8d	-1.7655503
117	0xbed689d3	-0.41902027
118	0xbc14d2de	-0.009083478
119	0xbe3105df	-0.17287396
120	0xbf3d6f32	-0.73997796
121	0xbf16b913	-0.5887615
122	0x3e340333	0.17579345
123	0xbf35eadd	-0.710615
124	0xbf23dfb1	-0.640132
125	0x3e814bd4	0.25253165
126	0xbdbbe837	-0.09175151
127	0xbf1ec8fe	-0.6202544

net.2.weight f4 [128, 128]
0	0x3f2bd6c4	0.6712458
1	0xbda5f1ec	-0.081027836
2	0x3f8722f8	1.0557547
3	0xbf0a0e25	-0.5392783
4	0xbf5debec	-0.86688113
5	0x3ed1902a	0.409303
6	0x3fa631b4	1.2983918
7	0xbf27f826	-0.6561302
8	0x3f6e9091	0.9318934
9	0xc00692ff	-2.102722
10	0xbf9b8ee8	-1.2152987
11	0x3f9e6c17	1.2376736
12	0xbf092987	-0.5357899
13	0x3d8d3be7	0.06896191
14	0xc025681a	-2.5844789
15	0x3f5792d3	0.8420841
16	0xc00e346a	-2.221949
17	0xc04d9545	-3.2122357
18	0xbd913980	-0.070910454
19	0x3f3d6d13	0.7399456
20	0xbfeb0f0f	-1.836397
21	0x3f869c20	1.0516396
22	0xbf214c7c	-0.6300733
23	0x3f8af66b	1.0856451
24	0xbfa2bb64	-1.2713437
25	0x3fd3c150	1.6543369
26	0xbf9aad81	-1.2084199
27	0xc01645b0	-2.3480034
28	0xc01768f9	-2.365782
29	0x3fbcf2f9	1.4761649
30	0xc005d557	-2.0911462
31	0xbf8612ce	-1.0474489
32	0xc0842e3d	-4.1306443
33	0x3f259f49	0.64696175
34	0xbfbb1848	-1.4616785
35	0xbd402e75	-0.046919305
36	0xc0c9e643	-6.309358
37	0xc08d6c96	-4.419505
38	0xbfcbc841	-1.5920488
39	0x3ec3e5ea	0.38261348
40	0xc00466f8	-2.0687847
41	0xbfa18e7d	-1.2621609
42	0xc025fa6c	-2.5934095
43	0xbff0a52f	-1.880041
44	0xbf298973	-0.66225356
45	0x3f08376e	0.5320958
46	0xbfd83b85	-1.6893164
47	0xbe702fdd	-0.23455758
48	0xc00c0804	-2.1879892
49	0xbea49473	-0.32144508
50	0xbfaa7fba	-1.3320229
51	0x3f954cb8	1.1664038
52	0xbf5e1e59	-0.86765057
53	0x3f9165d1	1.1359197
54	0xc02a8b44	-2.66475
55	0xbfcdb8df	-1.6072043
56	0xbe2a8f0c	-0.1665613
57	0x3f8f8774	1.1213212
58	0x3edc082c	0.42974985
59	0x3f386f1f	0.7204456
60	0xbf953cd2	-1.1659186
61	0x3eb157b0	0.34637213
62	0xc076b120	-3.8545609
63	0xbe1786d5	-0.14797528
64	0x3d16c566	0.036809348
65	0xbfc15c0d	-1.5106217
66	0xbf608421	-0.8770161
67	0xbf89b5d8	-1.0758619
68	0x3fdff6e4	1.749722
69	0xbfd7f980	-1.6873016
70	0x3fdf13e2	1.7427943
71	0x3f1f5db2	0.6225234
72	0xbfe8646e	-1.8155649
73	0xbf3285fd	-0.697357
74	0xbf8ad2ea	-1.0845616
75	0xbf904ceb	-1.1273474
76	0xbfc36b74	-1.5267167
77	0xc02db189	-2.713961
78	0xc010b4bc	-2.2610312
79	0xbea85cb0	-0.32883215
80	0x3f83009d	1.0234562
81	0x3f958e84	1.1684117
82	0xc076ac0a	-3.8542504
83	0xbfec0fd8	-1.8442335
84	0x3f32dae8	0.69865274
85	0x3e614434	0.21998674
86	0x40233e98	2.5506954
87	0xbe577b2c	-0.2104308
88	0xbfcdf48b	-1.6090254
89	0x3f944a2a	1.1585133
90	0xbef70acc	-0.48250425
91	0xbf4177a8	-0.75573206
92	0x3ec4b8ba	0.38422185
93	0x3f01e7a2	0.5074407
94	0xbf92351d	-1.1422459
95	0x3f173975	0.5907205
96	0xbfac33fb	-1.3453363
97	0xbfb15677	-1.3854512
98	0x3f02a118	0.5102706
99	0xc006c153	-2.1055496
100	0x3f12fec5	0.5742
101	0xbf0f1bef	-0.55902
102	0xbf9c8a5f	-1.2229728
103	0x40518a7b	3.2740772
104	0x3ebc518f	0.36780974
105	0x3e6e4d01	0.23271562
106	0xc03b9b2c	-2.931346
107	0xbfc8dbe3	-1.5692104
108	0x3f36f952	0.7147418
109	0x3fdcd9b6	1.725394
110	0xc02b8853	-2.6801956
111	0xbdf72267	-0.120671086
112	0xbd9c85c8	-0.07642704
113	0x4008e4f6	2.1389747
114	0xc022638f	-2.5373266
115	0x3e73c6ad	0.23806258
116	0xc024b666	-2.5736327
117	0xbf23775a	-0.6385399
118	0xc02f8082	-2.7422185
119	0x3eba8761	0.3643141
120	0xbf32858a	-0.69735014
121	0xc0156fcc	-2.3349485
122	0xbfa535d3	-1.2907051
123	0x3f216789	0.6304861
124	0x3faf638b	1.3702253
125	0xbdb65405	-0.08902744
126	0xc0a0e636	-5.028102
127	0xc06e82bf	-3.72673
128	0xbf8563e4	-1.0421109
129	0x3fd18e25	1.6371504
130	0x3faeba0b	1.3650526
131	0x40219ad7	2.5250757
132	0x3f30e646	0.6910137
133	0x3faf2252	1.3682349
134	0xbfbbba1d	-1.4666172
135	0xc00cd2b9	-2.2003615
136	0xbfc482cc	-1.5352416
137	0xbfa2fb84	-1.2733006
138	0xbf7dbd77	-0.99117225
139	0x3f709c0f	0.93988127
140	0xbf22946c	-0.63507724
141	0xbf9af64d	-1.2106415
142	0x3f59aa9d	0.8502596
143	0x3f25e538	0.64802885
144	0x3ee7029f	0.45119187
145	0xbfb379ed	-1.4021584
146	0x3edc9166	0.4307968
147	0x3eb933dd	0.3617238
148	0xbeedaef7	-0.4642255
149	0xc02f173f	-2.7357938
150	0xbd96ab1c	-0.07356855
151	0xbfe345e8	-1.7755709
152	0xbfec7169	-1.847211
153	0xbe5877a6	-0.21139392
154	0xbf9229e7	-1.1419038
155	0xbea5f9c7	-0.32417127
156	0x3eb26156	0.34839886
157	0xbfe31ef6	-1.7743824
158	0xbf817a96	-1.0115535
159	0x3fa28a4c	1.2698455
160	0xc024cf83	-2.5751655
161	0x3fe2698f	1.7688464
162	0xbf95a360	-1.1690483
163	0xc01a146d	-2.4074967
164	0x3e16f779	0.14742841
165	0x3f5332ce	0.82499397
166	0xbf004d25	-0.50117713
167	0xbdcd35df	-0.10020041
168	0xbfb49a04	-1.4109502
169	0xc0065241	-2.0987704
170	0xbcaabdb8	-0.020842418
171	0xbfc1d868	-1.5144167
172	0xbf2f1a0e	-0.6839913
173	0xbf268a7e	-0.6505507
174	0xbfab3004	-1.3374028
175	0x3f389d1a	0.7211472
176	0xbded5e88	-0.11590296
177	0xbfb842f5	-1.4395434
178	0x3fb73597	1.4313229
179	0x3ffd828e	1.9805467
180	0x3f37b9d9	0.71767956
181	0x3fdff276	1.7495868
182	0x3cc59c9d	0.02412253
183	0x3f5d062a	0.8633753
184	0xbe83b9cb	-0.25727686
185	0x3f3deffe	0.74194324
186	0xbef27a8c	-0.4735912
187	0x3f530847	0.82434505
188	0x3ee1773a	0.44036275
189	0xbf0d4e28	-0.5519738
190	0x3e514f11	0.20440318
191	0xbf95bed7	-1.1698865
192	0xbfde6a12	-1.737612
193	0x3f39a488	0.7251668
194	0x3f8ed3a7	1.1158341
195	0xbfd4fce3	-1.6639675
196	0x3fff2a99	1.9934875
197	0x3f7af072	0.9802314
198	0x3f246057	0.642095
199	0x3fadf132	1.3589232
200	0x3ee4e18e	0.44703335
201	0xbfdaec2e	-1.7103326
202	0xbf23ec73	-0.6403267
203	0xc060177f	-3.501434
204	0xbfd1eb4c	-1.6399932
205	0xbfd19121	-1.6372415
206	0x3fa7e0b2	1.3115447
207	0xbfb37d80	-1.4022675
208	0xc010893d	-2.2583764
209	0x3fbdf7ea	1.4841282
210	0x3f8b4edb	1.088344
211	0x3dbad8cc	0.09123382
212	0x3fbe3d9e	1.4862554
213	0xc0203832	-2.50343
214	0xbf58767b	-0.84555787
215	0x4009403c	2.1445456
216	0xbf88dd81	-1.0692598
217	0x3c607275	0.013699164
218	0xbe81dbb3	-0.2536293
219	0x3f5ac6d7	0.85459656
220	0x3f2af4cd	0.66779786
221	0xbf9bef1a	-1.2182343
222	0x3fcc3993	1.595507
223	0x3f7acc3a	0.97967875
224	0xbfb7a953	-1.4348549
225	0xbf411b53	-0.7543232
226	0xbf90c188	-1.1309061
227	0x3f70e972	0.9410621
228	0xbdaf3add	-0.08556149
229	0x3faf171d	1.3678929
230	0xbe724f41	-0.23663045
231	0xc00b2870	-2.174343
232	0xc113a40e	-9.227552
233	0xbf8d8589	-1.1056377
234	0x3f3fcf1b	0.7492539
235	0x3fbdb38c	1.4820418
236	0x3f84fb81	1.0389253
237	0xbfc3b113	-1.5288414
238	0xbf0a4e54	-0.5402577
239	0x3f8822a3	1.063557
240	0x3f623b69	0.883719
241	0x3f838832	1.0275939
242	0xc038c6df	-2.8871381
243	0xbfebb58a	-1.8414776
244	0x3d5fb622	0.054617055
245	0xbf122ee6	-0.5710281
246	0xc008f894	-2.140172
247	0x3fa9bf63	1.3261532
248	0x4002850d	2.0393708
249	0xbe82e873	-0.2556797
250	0xbe7cecf3	-0.24699764
251	0x3f8fdc05	1.123902
252	0x3f2489e9	0.64272934
253	0xbe444a8c	-0.19169062
254	0xbf5628e5	-0.8365615
255	0x3f98bdb9	1.1932899

net.2.bias f4 [128]
0	0xbf55b892	-0.83484757
1	0xbed60586	-0.4180109
2	0x3dd6ccf4	0.104883105
3	0x3f95f7f5	1.1716295
4	0x3edd8482	0.43265158
5	0xbed6714e	-0.4188332
6	0xbf88dcbd	-1.0692364
7	0xbf5a37e5	-0.8524154
8	0x3e9c2c88	0.30502725
9	0x3ed3f362	0.41396624
10	0x3e8e4da4	0.2779361
11	0xbf432987	-0.7623524
12	0x4034eb25	2.826852
13	0xbeb3158a	-0.3497737
14	0x3e8e14f6	0.27750367
15	0xbe43a9b5	-0.19107707
16	0xbf4d91df	-0.80300707
17	0xbf735270	-0.95047665
18	0xbea664f5	-0.324989
19	0xbf842c3c	-1.0325999
20	0x3f00919c	0.5022218
21	0x3f0cf1d4	0.550565
22	0xbf97c46a	-1.1856816
23	0xbef373d4	-0.47549307
24	0x3f7d21cb	0.9887969
25	0xbf3cb6c7	-0.73716396
26	0xbd86b7cb	-0.065780245
27	0x3f58943a	0.84601176
28	0xbe942d5e	-0.28940862
29	0xc000b135	-2.0108159
30	0x3f1aa803	0.60412616
31	0x3f03a966	0.51430357
32	0xbf15f3ff	-0.58575433
33	0xbfe11660	-1.7584953
34	0xbda2ae23	-0.0794337
35	0xbf86cf36	-1.0531986
36	0xbf37e1b1	-0.7182875
37	0x3ddeea0f	0.10884487
38	0xbfaaecd5	-1.3353525
39	0xbf65701b	-0.89624184
40	0xbee6f653	-0.45109805
41	0xbe9f912b	-0.31165442
42	0xbf02c806	-0.5108646
43	0x3e6ca426	0.23109493
44	0xbf2f17cb	-0.6839568
45	0xbf10aa84	-0.56510186
46	0x3d9ff701	0.07810784
47	0x3e6b2751	0.22964217
48	0xbb2c126c	-0.0026256097
49	0xbe4dc283	-0.20093732
50	0x3e435959	0.19077052
51	0xbf4ae53d	-0.7925604
52	0x3e853590	0.26017427
53	0x3f5ecc5c	0.8703058
54	0xbfcb0f4f	-1.5864047
55	0xbed24751	-0.41070035
56	0xbfd6bed2	-1.6776984
57	0xbe0ed959	-0.13950099
58	0xbe55a6be	-0.20864388
59	0xbf8ff0b2	-1.1245329
60	0x3ea686b5	0.32524648
61	0xbedb52fb	-0.42836747
62	0xbf31744d	-0.69318086
63	0xbf0d19be	-0.55117404
64	0xbf76851b	-0.9629685
65	0x3ea6b9cd	0.3256363
66	0xbf8fedd5	-1.1244456
67	0x3e6ed5d6	0.2332376
68	0xbf13fa80	-0.5780411
69	0xbeb97674	-0.36223185
70	0x3ef92a03	0.48664865
71	0x3dbf37ae	0.09336792
72	0xbd80b07d	-0.062836625
73	0x3e7152a2	0.23566678
74	0x3eef1601	0.46696475
75	0xbe7df846	-0.2480174
76	0x3f79663a	0.9742161
77	0xbf41ffa3	-0.75780696
78	0xbea9079a	-0.33013612
79	0xbd6868ac	-0.056740448
80	0xbf9bad87	-1.2162331
81	0xbcd77b52	-0.02630392
82	0x3ed28a73	0.41121253
83	0xbeca584f	-0.395205
84	0xbf2215d4	-0.6331456
85	0xbf17e47a	-0.59333
86	0x3e9ce86d	0.30646077
87	0xbfb0ecca	-1.3822262
88	0xbee9627d	-0.45582953
89	0xbf7a1451	-0.9768725
90	0xbfbd7713	-1.4801964
91	0x3f13d0cf	0.5774049
92	0xbf3d57c3	-0.7396204
93	0x3d83a2c9	0.06427533
94	0xbf116cc1	-0.5680657
95	0x3f14d740	0.58140945
96	0x3f1bed0b	0.60908574
97	0xbe065f1f	-0.13122223
98	0x3e74ca18	0.23905218
99	0xbe1e2f10	-0.1544764
100	0x3f51927f	0.8186416
101	0xbf8a027e	-1.078201
102	0xbed37a88	-0.4130442
103	0xbf0aaea4	-0.5417273
104	0xbb7503a9	-0.0037386215
105	0xbf54dfc7	-0.8315396
106	0x3edec2a4	0.43507874
107	0xbe353dee	-0.17699406
108	0xbb95cd50	-0.0045715943
109	0x3f4a6b11	0.7906962
110	0xbf6f6368	-0.93511057
111	0xbf808994	-1.0041986
112	0xbf6aba73	-0.9169075
113	0xbfd2ec40	-1.6478348
114	0xbe8a2f65	-0.26989284
115	0xbf04d64a	-0.5188948
116	0xbec9b295	-0.3939406
117	0xbf3a1019	-0.72680813
118	0xbf2c33c4	-0.6726649
119	0x3f7f64e4	0.9976332
120	0x3f13d394	0.5774472
121	0xbf2342fe	-0.63774097
122	0xbf656dd0	-0.89620686
123	0xbf29eae3	-0.66374034
124	0xbfdc3b0f	-1.7205523
125	0x3d6deb35	0.05808564
126	0x3f8ea64a	1.1144497
127	0x3e560e45	0.20903881

net.4.weight f4 [128, 128]
0	0x3f20d2d4	0.628217
1	0xbfe2180a	-1.7663586
2	0xbf12d6b2	-0.5735885
3	0x3f769fcb	0.96337575
4	0x4007d412	2.1223187
5	0x3fec474a	1.8459256
6	0xbd8b1bd7	-0.067924194
7	0xbc524950	-0.012834862
8	0xbf0002bf	-0.5000419
9	0x3f14ef9c	0.58178115
10	0x3f66dde3	0.9018232
11	0x3ecbdd77	0.39817402
12	0xbef3906c	-0.47571123
13	0xbee5bdd7	-0.448714
14	0xbfda205f	-1.7041129
15	0xbdc006a8	-0.093762696
16	0x3f166dbd	0.587612
17	0xbfd73ca3	-1.681538
18	0xbf751c66	-0.9574646
19	0xbe727bad	-0.23679991
20	0xbfd35f57	-1.651347
21	0x3ea8abbd	0.32943526
22	0x3f2a855e	0.6660975
23	0xbf276ec9	-0.6540342
24	0xbf1c9401	-0.61163336
25	0x3d55bca8	0.05218187
26	0xbfdf889f	-1.7463568
27	0x3f738e15	0.95138675
28	0xbf4b3c99	-0.7938934
29	0xbcf5c388	-0.030000463
30	0xc029022a	-2.640757
31	0xbe7cc793	-0.24685507
32	0xbfec4de5	-1.8461272
33	0x3fa92a24	1.3215985
34	0x3fb35053	1.4008888
35	0xbf3df80b	-0.7420661
36	0xbe007ae5	-0.1254688
37	0xbf440337	-0.76567405
38	0xbe9dc3f5	-0.30813566
39	0xbd92e0f5	-0.071718134
40	0xbf97a3d5	-1.1846873
41	0xbf18362c	-0.5945766
42	0x3faa2657	1.329295
43	0xbeea1267	-0.45717165
44	0x3f6f084b	0.9337203
45	0xbf865b52	-1.0496619
46	0xbe4dc6fb	-0.20095436
47	0xbfd41767	-1.6569642
48	0xbfc4d973	-1.537886
49	0x3fb994ce	1.4498537
50	0x3e323ec5	0.17406757
51	0xbeb4c345	-0.3530523
52	0x3fa0659b	1.2531008
53	0xbdd0fd85	-0.10204605
54	0x3eeda055	0.46411386
55	0xc01905c8	-2.3909779
56	0xbdd6ebc1	-0.10494185
57	0x3f1c550f	0.6106729
58	0x3d3910d6	0.04518207
59	0x3e54cc8d	0.20781155
60	0x3e7a81bf	0.24463557
61	0x3f4c2d84	0.7975695
62	0x3f4efae6	0.8085159
63	0xbfeb0747	-1.8361596
64	0xbd8e7ea7	-0.06957751
65	0xbef5c699	-0.4800308
66	0x3ea62c24	0.32455552
67	0xbe9dcdbd	-0.30821028
68	0x3efeae6a	0.49742442
69	0xbf6918a9	-0.91053253
70	0xbe70e3ae	-0.23524353
71	0xbe8d0668	-0.2754395
72	0xbfc02ff6	-1.5014637
73	0x3f3265bf	0.696865
74	0xbf8c02d0	-1.0938358
75	0xbf529abf	-0.82267374
76	0xbfd5e8b2	-1.6711638
77	0xbf7c695d	-0.9859827
78	0xbf14b5d0	-0.58089924
79	0xc0385a1a	-2.8804994
80	0xbf25817f	-0.6465072
81	0x3f3c01f6	0.7344049
82	0xbec5ecc2	-0.38657194
83	0x3f823338	1.0171881
84	0xbff70b22	-1.9300272
85	0x3feaf97f	1.835739
86	0x3f571c64	0.84027696
87	0x3e9bf245	0.30458274
88	0xbfbef949	-1.4919826
89	0x3f4b4654	0.7940419
90	0xbf4d4a44	-0.80191445
91	0x3f330758	0.6993308
92	0x3f1ef0e5	0.62086326
93	0xbfbb5006	-1.4633796
94	0x3fe3a6bc	1.7785258
95	0xbf85c506	-1.0450752
96	0x3ece3e0b	0.4028171
97	0xbf60d4c0	-0.8782463
98	0x3ffac6b5	1.959189
99	0x3f1073c4	0.56426644
100	0xbe9f0a17	-0.31062385
101	0x3fceb386	1.6148536
102	0xbf3568b1	-0.7086287
103	0xbfdbb522	-1.7164652
104	0xbfab82bd	-1.3399273
105	0xbf27a694	-0.65488553
106	0xbe8df781	-0.27727893
107	0xc05416b2	-3.3138852
108	0x3f55de90	0.8354273
109	0xbf515ae7	-0.8177933
110	0x3e9c9816	0.30584782
111	0xbf2b503b	-0.66919297
112	0xc0048c71	-2.0710719
113	0xbf5f1164	-0.8713591
114	0xbfd29bdf	-1.6453818
115	0xc0844dc5	-4.1344934
116	0x3f2d3c8c	0.6767051
117	0x3de81c4b	0.113335215
118	0xbf9e80ee	-1.2383096
119	0xbf0d0e41	-0.55099875
120	0x3eab604c	0.33471906
121	0xc0205586	-2.50522
122	0xbfaebad2	-1.3650763
123	0xbfcbe3de	-1.5928915
124	0x3d4a76d6	0.049429737
125	0x3f048287	0.5176167
126	0x402a558a	2.661471
127	0xbfeba23a	-1.8408883
128	0x3e78e544	0.24306208
129	0x3e0c8b72	0.13725069
130	0xbead3f07	-0.3383715
131	0xbeccd158	-0.40003467
132	0xbde6dad9	-0.11272211
133	0xbf440db3	-0.76583403
134	0x3ad9f446	0.0016628585
135	0xbfba26dc	-1.4543109
136	0xbe817c2b	-0.25290045
137	0x3ece05ab	0.402387
138	0xbf150ff2	-0.58227456
139	0xbcd00cef	-0.025396792
140	0xbf80e402	-1.0069582
141	0xbcc3a9de	-0.02388471
142	0xbd504a29	-0.050851975
143	0xbed5bdf6	-0.4174649
144	0xbf680997	-0.9063963
145	0x3f5f56ce	0.8724183
146	0xbfa1035e	-1.2579153
147	0xbed767bb	-0.42071328
148	0x3f169714	0.58824277
149	0xbf0bf663	-0.5467283
150	0xbfb0b84a	-1.380624
151	0xbda09dec	-0.07842621
152	0xc037d844	-2.8725748
153	0xbfa42918	-1.2825041
154	0x3e66113f	0.22467516
155	0x3e947ecf	0.29002997
156	0x3dd97fe0	0.10620093
157	0xbef30c13	-0.4747015
158	0xc019802f	-2.3984487
159	0xbedb11ee	-0.42787117
160	0x3f0016fc	0.5003507
161	0xc00b2dda	-2.1746736
162	0x3ccb0cd6	0.024786394
163	0xbca15111	-0.019691976
164	0x3f237802	0.6385499
165	0x3e7d0bfe	0.24711606
166	0x3fbb8355	1.4649454
167	0x3eb9705f	0.36218545
168	0xbc0fe73e	-0.00878316
169	0x3ec19d71	0.3781543
170	0x3fc010b7	1.5005101
171	0xbfd0c0bb	-1.6308817
172	0x3f67e49e	0.9058322
173	0xbf9e8756	-1.2385051
174	0x3fcf989f	1.6218451
175	0x3f27bbf6	0.6552118
176	0xbf8cb22d	-1.0991875
177	0x3ecea41b	0.40359578
178	0x400d844e	2.2112002
179	0x3f1b651b	0.6070115
180	0xc00eebae	-2.2331347
181	0xbfda438e	-1.7051866
182	0xbea6ee9a	-0.32603914
183	0x3e928624	0.28617966
184	0xc0102d87	-2.2527788
185	0xbebd224a	-0.36940223
186	0x3d8d71ea	0.06906493
187	0xbe845601	-0.25846866
188	0xc00b0f5b	-2.1728122
189	0x3f77ecea	0.9684588
190	0xbe7445e6	-0.23854789
191	0xbf17f37d	-0.5935591
192	0xc05533c4	-3.3312845
193	0xbf831c92	-1.0243094
194	0x3f29ade0	0.6628094
195	0x3ebcc3c2	0.368681
196	0xbd6ac5e6	-0.057317637
197	0xbff37c65	-1.9022337
198	0xbfd15110	-1.6352863
199	0x3fc1a025	1.5126997
200	0x3f9a93fa	1.2076409
201	0x3f4f3559	0.8094078
202	0x3fb4e522	1.4132426
203	0xbf38fbd3	-0.72259253
204	0x3e890f5c	0.2676953
205	0x3f7df7db	0.9920632
206	0xbf4734ce	-0.7781495
207	0xbed1ac45	-0.40951744
208	0xbf2793f2	-0.6546012
209	0x3c1ce249	0.009575435
210	0xbf0872dc	-0.5330026
211	0xbf9b3554	-1.212565
212	0x3f5e914a	0.86940444
213	0xbf83962f	-1.0280207
214	0x3ff7e068	1.9365358
215	0xbf0819cf	-0.5316438
216	0x3db01aad	0.08598838
217	0xbeff2382	-0.49831778
218	0xbde45e63	-0.11150815
219	0x3d82d420	0.06388116
220	0x3db5cfda	0.08877535
221	0xbffabc00	-1.9588623
222	0xc0223cf8	-2.5349712
223	0x3f261b75	0.64885646
224	0x3df85cda	0.12127085
225	0xbebdff11	-0.37108663
226	0xbf759d54	-0.9594319
227	0xbe6a5481	-0.22883798
228	0xbf93ebb7	-1.155631
229	0xbf05e50f	-0.5230264
230	0xc0025ad1	-2.036793
231	0xbebfa19d	-0.3742799
232	0xbf599072	-0.8498603
233	0x3d909a3f	0.0706067
234	0xbfdb1f84	-1.7118993
235	0x3ee03403	0.43789682
236	0xbf7b49ae	-0.981593
237	0xbf9107a2	-1.1330454
238	0xbd842aee	-0.06453501
239	0x3f487d18	0.7831588
240	0xbfaf43f6	-1.3692615
241	0xbf31d439	-0.6946445
242	0xbfc8e795	-1.5695673
243	0x3f8d43a8	1.1036272
244	0xbf2b8719	-0.6700302
245	0x3e024143	0.12720208
246	0xbf3f8fe5	-0.7482894
247	0xbe963cd6	-0.2934329
248	0xbcf64c84	-0.030065782
249	0xbed2b874	-0.41156352
250	0x3ea3e4d4	0.3201052
251	0x3ebf21cd	0.37330475
252	0x3f99892d	1.1994988
253	0xbd59e56e	-0.053197317
254	0x3f20c1eb	0.62795895
255	0x3e18e1b6	0.14929852

net.4.bias f4 [128]
0	0x3cf7f8fb	0.03027009
1	0xbf4287ca	-0.7598845
2	0xbf6db90c	-0.92860484
3	0xbfb1f450	-1.3902683
4	0xbf865b16	-1.0496547
5	0xbfc96e88	-1.5736856
6	0xbf8e20ae	-1.1103723
7	0xbfd9bfd7	-1.701167
8	0xbf450f0d	-0.7697609
9	0xbf9173f9	-1.1363517
10	0xbf988ba8	-1.191762
11	0xbf8661fc	-1.0498652
12	0xc0205102	-2.5049443
13	0xbf62071d	-0.88292104
14	0xc010011d	-2.250068
15	0xbf7fe88c	-0.99964213
16	0x3e98648f	0.2976422
17	0xbfe0fbd9	-1.7576858
18	0xbf4c4692	-0.7979518
19	0xbf863585	-1.0485083
20	0xbfa13dca	-1.2596982
21	0xc00cf36e	-2.2023578
22	0xbeb5590b	-0.35419497
23	0xbfb941a7	-1.447316
24	0xbf963326	-1.1734359
25	0xc021b165	-2.5264523
26	0xc0079ae2	-2.1188283
27	0xc0377b75	-2.8669102
28	0xbfbdb1ad	-1.4819847
29	0x3e7ed88f	0.24887298
30	0x3ed7be4c	0.42137372
31	0xbfae3ffd	-1.3613278
32	0xbf962c74	-1.1732316
33	0xbfed17c9	-1.8522884
34	0xbfba335a	-1.4546921
35	0xc024c9ad	-2.5748093
36	0xbf16bbe2	-0.58880436
37	0xc0326d1c	-2.7879095
38	0xc0397bd9	-2.898184
39	0xbe34e1ef	-0.17664312
40	0xbf4685fd	-0.775482
41	0xc02e38ce	-2.722217
42	0x4004758c	2.0696745
43	0xbe2422ae	-0.16028854
44	0xbfcba323	-1.590916
45	0xc01c36a5	-2.4408352
46	0xbff0fa9b	-1.8826479
47	0xbfc3f748	-1.5309839
48	0xbf103952	-0.56337464
49	0xbf168792	-0.58800614
50	0x3f944e05	1.158631
51	0xbfea1b01	-1.8289491
52	0xbec61c68	-0.38693547
53	0xbf02e41a	-0.51129305
54	0xc0512bb2	-3.268292
55	0xbfa53a2a	-1.2908375
56	0xbfbfb39f	-1.4976691
57	0xbf832986	-1.0247047
58	0xbff17b8f	-1.8865832
59	0xbf53b297	-0.8269438
60	0x3e6909f4	0.22757703
61	0xbf84d966	-1.0378845
62	0xc02f4469	-2.7385504
63	0xbff15b60	-1.885601
64	0x3f404a2a	0.75113165
65	0xbfe01d4d	-1.7508942
66	0x3f81c4ae	1.0138147
67	0xbfb18b14	-1.3870568
68	0xbfd5e871	-1.671156
69	0xbfdd2526	-1.7276962
70	0x3f0e4ed9	0.5558906
71	0xc00cc180	-2.1993103
72	0xbfdd4c5e	-1.728893
73	0xbfcebd5c	-1.6151538
74	0xbf4a0314	-0.78910947
75	0xbe90fbb6	-0.2831704
76	0xbf531eb9	-0.82468754
77	0xbf8bdc75	-1.0926653
78	0xc00479e4	-2.0699396
79	0xbf60c6fa	-0.87803614
80	0xc0031c93	-2.048619
81	0xbfd16e00	-1.6361694
82	0xbebd3072	-0.36951023
83	0xbdfa28a7	-0.12214785
84	0xbfb18d52	-1.3871253
85	0xbf608fa1	-0.8771916
86	0xbfb99bf7	-1.4500722
87	0xbfdf7bef	-1.7459697
88	0xbfb35b9f	-1.4012336
89	0xc0511de0	-3.2674484
90	0xbfceeb71	-1.6165601
91	0xc003fbc5	-2.0622418
92	0xc013e4bd	-2.310836
93	0xbfd82f0c	-1.6889358
94	0xbf06ed5d	-0.5270594
95	0xbe927cb3	-0.28610763
96	0xc01b4311	-2.4259684
97	0xbfbb5090	-1.4633961
98	0x3dc0cc4a	0.09413965
99	0x3eca86d8	0.39556003
100	0xbfda9745	-1.7077414
101	0xbfee3664	-1.8610349
102	0xbfed8672	-1.8556654
103	0xc011364b	-2.2689388
104	0xbf9b6c13	-1.2142357
105	0xbf9652c6	-1.174401
106	0xbc8d0c1a	-0.017217685
107	0xbf73a9d8	-0.95181036
108	0xc01022bd	-2.2521203
109	0xc02cc85f	-2.6997297
110	0xc02e85cb	-2.726916
111	0xbfc3c89c	-1.5295596
112	0xbfcc8420	-1.5977821
113	0xbe70ebf5	-0.2352751
114	0xc014e760	-2.326622
115	0xbf7f2f07	-0.99681133
116	0xbee6ca31	-0.45076135
117	0xbf196cf7	-0.5993189
118	0xc02b61dd	-2.677848
119	0xc0004be6	-2.0046325
120	0xc0023677	-2.0345743
121	0xbf2cde97	-0.67527145
122	0xc058529a	-3.3800416
123	0xbf4def68	-0.8044343
124	0xbf80d51a	-1.0065033
125	0xc00342ea	-2.050959
126	0xbfa5ead2	-1.2962286
127	0xbfdac1b9	-1.709037

net.6.weight f4 [7, 128]
0	0x3f7c2d16	0.98506296
1	0x3e7a2b0e	0.24430487
2	0x3fa62395	1.2979609
3	0x3e0d167f	0.13778113
4	0x3f3ebac3	0.74503726
5	0x3e8326ea	0.25615627
6	0xbde8d7a6	-0.11369257
7	0x3f0316fb	0.5120694
8	0x3f84bde3	1.0370449
9	0xbf00d5ad	-0.50326043
10	0x3f150903	0.58216876
11	0x3e3c4a30	0.18387675
12	0xbece085d	-0.40240756
13	0xbf624cdd	-0.88398534
14	0x3dc48cba	0.09597154
15	0x3fb3d997	1.4050778
16	0xc010c542	-2.2620397
17	0x3f41994f	0.75624555
18	0xc0700ced	-3.750789
19	0x3f6c900c	0.924073
20	0x3f0bdfa0	0.546381
21	0x3ea525ab	0.322553
22	0xbef7fa6a	-0.48433238
23	0x3f96cf12	1.1781943
24	0x3ede9f17	0.4348075
25	0x3f150e40	0.5822487
26	0xbf69d2a9	-0.91337067
27	0x3f4ecc12	0.80780137
28	0x3f400d81	0.75020605
29	0x3da51dd3	0.08062329
30	0xbe01faad	-0.12693281
31	0xbf785381	-0.97002417
32	0x3f7256bd	0.946636
33	0xbe242d2e	-0.1603286
34	0xc05ec87a	-3.480986
35	0xbee75cce	-0.45187992
36	0xbf2be814	-0.67151
37	0x3f4bc428	0.79596186
38	0xbf20a95a	-0.6275841
39	0x3dc977ba	0.09837289
40	0xbfa76254	-1.3076882
41	0xbd7b1bde	-0.061305873
42	0x3f1d3c30	0.61419964
43	0xbf54dafb	-0.8314664
44	0x3e9aea88	0.30257058
45	0xbcd86899	-0.026417064
46	0xbfab3269	-1.3374759
47	0x3f280eca	0.65647566
48	0xbf2304e0	-0.63679314
49	0x3e13c39c	0.14430088
50	0x3e39bd5c	0.18138641
51	0xbf3e5c05	-0.7435916
52	0xbfb5d070	-1.4204235
53	0xbed020ed	-0.4065012
54	0xbf307a17	-0.68936294
55	0xbdcb9838	-0.09941143
56	0xbf26a4bf	-0.6509513
57	0x3d9bc323	0.07605579
58	0x3f36628b	0.71244115
59	0xbf46bd1a	-0.77632296
60	0xbdb01846	-0.0859838
61	0x3f80eab3	1.0071625
62	0x3f40b71c	0.752794
63	0xbf95c486	-1.1700599
64	0xbe7e7f18	-0.2485317
65	0x3fb87b34	1.4412599
66	0x3ee650f6	0.44983643
67	0xbfbcf594	-1.4762444
68	0x3febe531	1.8429319
69	0xbf8c2fae	-1.0952051
70	0xc023f9bd	-2.5621178
71	0x3eafd24b	0.34340128
72	0x3f2d1cd6	0.67622125
73	0x3f23b58b	0.6394889
74	0x3f871f21	1.0556375
75	0x3ec5c287	0.38624975
76	0xbdecf594	-0.11570278
77	0x3f06429f	0.52445406
78	0x3f8dc96d	1.1077095
79	0xc034f38b	-2.8273647
80	0x3eb6c787	0.35699102
81	0x3e2c3f29	0.16820969
82	0x3f316ade	0.6930369
83	0x3f381681	0.7190934
84	0x3f5ede05	0.87057525
85	0x3f25bc48	0.6474042
86	0xc0074666	-2.1136718
87	0xbe0f0473	-0.13966541
88	0x3f6960f5	0.9116357
89	0xbf2d937a	-0.67803156
90	0x3eb0b285	0.345112
91	0x3f4bf455	0.79669696
92	0x3f1b99ce	0.6078156
93	0xbe569ad8	-0.20957506
94	0x3ed71579	0.4200857
95	0x3f2143f9	0.62994343
96	0x3e1559d6	0.14585051
97	0xbb89b5f9	-0.004202601
98	0x3f70a60e	0.9400338
99	0xbe0e32c3	-0.13886552
100	0x3ee154d1	0.44010022
101	0xb99a4e7f	-0.00029431653
102	0x3d7a8c80	0.061169147
103	0xbd5ce5e4	-0.05393018
104	0x3ead31b6	0.3382699
105	0x3dd3b3aa	0.103370026
106	0x3f0a477a	0.54015315
107	0x3f87a7ae	1.0598047
108	0xbebb1b84	-0.3654443
109	0xbd2182fa	-0.03943155
110	0x3eda0608	0.42582726
111	0x3f12f716	0.57408273
112	0x3f2b7a15	0.6698316
113	0x3f56bc6a	0.8388125
114	0x3e66917b	0.22516434
115	0xc08e35c4	-4.444063
116	0xbf5f30e2	-0.87183964
117	0xbec158f3	-0.37763175
118	0xbe047a1f	-0.1293721
119	0xbe955dad	-0.2917303
120	0x3ecb8d99	0.39756468
121	0x3e656294	0.22400886
122	0x3e2ac154	0.16675311
123	0x3f55265d	0.8326166
124	0x3fab8255	1.3399149
125	0xbeab6e4c	-0.33482587
126	0x3eb1a4c0	0.34696007
127	0xbf122905	-0.5709384
128	0x3f27e400	0.65582275
129	0x3f551d8b	0.83248204
130	0xbf8a27e9	-1.079343
131	0x3f6077e8	0.8768296
132	0xbe8b24e6	-0.2717659
133	0x3d9d215c	0.076723784
134	0x3f438ed3	0.7638981
135	0x3f7c321b	0.98513955
136	0x3f78ae97	0.971414
137	0xbf132c6d	-0.57489663
138	0x3eb3a0c7	0.350836
139	0xbe0d4463	-0.13795619
140	0x3f1055a4	0.5638068
141	0x3e4652e7	0.19367562
142	0x3e97ab45	0.29622856
143	0x3f0d68ab	0.55237836
144	0x3f278d3d	0.6544989
145	0x3f9068ab	1.1281942
146	0xc0619c5d	-3.5251687
147	0x3e27f963	0.16403727
148	0x3f2cebe9	0.6754747
149	0x3eda0e75	0.42589155
150	0x3f21a1c0	0.63137436
151	0x3f442ab8	0.76627684
152	0xbfccb2fd	-1.5992123
153	0x3f97e291	1.1866018
154	0xbf5c72b8	-0.86112547
155	0x3f5c883c	0.8614538
156	0xbd3a993c	-0.045556292
157	0x3d2cc989	0.042184386
158	0x3f752210	0.957551
159	0xbf891892	-1.0710623
160	0x3f6b0307	0.91801494
161	0xbe80431e	-0.25051206
162	0x3f5443f5	0.82916194
163	0x3f669669	0.9007326
164	0xbf1102ec	-0.56645083
165	0x3e43f320	0.19135714
166	0x3f0ff17b	0.56227845
167	0x3d5cebe1	0.05393589
168	0x3db32eb2	0.08749141
169	0x3e2315f5	0.15926345
170	0xbce41471	-0.027841778
171	0x3ebf763d	0.37394896
172	0x3f63a7bc	0.8892782
173	0xbf55c227	-0.8349938
174	0x3f8d4e6b	1.1039556
175	0x3f19a7cb	0.60021657
176	0xbc880f60	-0.016608894
177	0xbebbacf0	-0.36655378
178	0x3dcdc31d	0.100469805
179	0x3ee0702c	0.4383558
180	0xbf822b75	-1.0169512
181	0x3f22ab7b	0.6354291
182	0x3f392e0e	0.723359
183	0xbeea48e3	-0.45758733
184	0x3dea28f1	0.1143359
185	0x3f0f79df	0.56045336
186	0x3e7ceec0	0.24700451
187	0x3e88f8c3	0.2675229
188	0x3f2547f1	0.645629
189	0xc0280981	-2.62558
190	0x3f08c35b	0.5342309
191	0xbec28905	-0.37995163
192	0xbfd85949	-1.6902248
193	0x3fb5daaf	1.4207362
194	0xbfabfc42	-1.3436358
195	0xbe8333b7	-0.25625393
196	0x3f56bf7b	0.83885926
197	0xbf706a20	-0.93911934
198	0xc04bad65	-3.1824582
199	0x3ec612cd	0.3868622
200	0x3f449543	0.76790255
201	0xbf063fe7	-0.5244126
202	0xbf4b4e62	-0.7941648
203	0x3ecadbc0	0.3962078
204	0x3db8d2ee	0.09024607
205	0xbf06beb4	-0.5263474
206	0x3e571290	0.21003175
207	0x3ef828e6	0.48468703
208	0xbf195bf5	-0.5990594
209	0x3f1d2b60	0.6139431
210	0x3d92900c	0.07156381
211	0x3f779286	0.9670795
212	0x3f5e40b7	0.86817497
213	0x3f68c665	0.90927726
214	0xbef3593b	-0.47529015
215	0xbdd8f1ce	-0.105929956
216	0x3f606627	0.8765587
217	0x3f4f6094	0.8100674
218	0x3edd1b79	0.43185022
219	0x3f89f788	1.0778666
220	0xbe3c14ca	-0.18367305
221	0x3ec328be	0.3811702
222	0x3f89e4d4	1.0772958
223	0x3f4969ad	0.78676873
224	0xbc429596	-0.011876484
225	0x3ea918e3	0.330268
226	0x3f401acc	0.7504089
227	0xbfb2c43b	-1.3966135
228	0x3f6a285d	0.9146784
229	0xbe9d03fc	-0.30667102
230	0x3f860c23	1.0472454
231	0xbf0379bc	-0.51357627
232	0xbfdaea4b	-1.710275
233	0xbe97f774	-0.2968098
234	0x3f487a32	0.78311455
235	0xbdce7f0e	-0.100828275
236	0x3f0b48c5	0.5440791
237	0x3f16a1c9	0.58840615
238	0x3f2464e5	0.6421645
239	0xbd416985	-0.047219772
240	0xbf9124f9	-1.1339408
241	0xbf2b7572	-0.6697608
242	0x3f05b697	0.52231735
243	0xc08a665e	-4.324996
244	0xbe9e781d	-0.30951014
245	0xbe738e8f	-0.2378485
246	0xbf451b30	-0.7699461
247	0xbeb3401b	-0.35009846
248	0x3f678aa2	0.9044591
249	0x3f8d0f8f	1.1020373
250	0x3ed95ce2	0.42453676
251	0x3f1df8da	0.6170784
252	0x3f9bf442	1.2183917
253	0xbecb2983	-0.39680108
254	0x3db2a4e1	0.087228544
255	0x3d65b118	0.056077093

net.6.bias f4 [7]
0	0x3fb54e6d	1.4164559
1	0x3fa6e768	1.303937
2	0x3f008b63	0.5021269
3	0x3ff6418a	1.9238751
4	0x3fcaba83	1.5838169
5	0x3f979c69	1.1844608
6	0x3fa332cc	1.2749877
