experts/DQN/net_configs/agent_dqn.pth (torch, 59359 bytes, 10 tensors)

net.0.weight f4 [4, 1, 3, 3]
000000 9f 1c 02 c0 3b bd 77 bf a5 90 95 be dd 78 b2 3f
       -2.032997 -0.9677312 -0.29211918 1.3943135
000010 37 bd ee be 4c c4 04 bf 1f 06 1b c0 f1 d4 fa be
       -0.46628734 -0.51862025 -2.4222486 -0.48990586
000020 ca 83 d7 be d7 c3 5a 3f 66 25 34 3f c1 6b 45 3f
       -0.42092735 0.8545508 0.70369565 0.77117544
000030 1e 23 29 3f d6 89 a3 be 8e 1e 66 bf 23 30 e5 be
       0.6606921 -0.31941098 -0.8989037 -0.44763288
000040 51 61 36 bf d6 95 ac 3f ed ea 24 3f 0e 7f 69 bf
       -0.71242243 1.3483226 0.6442097 -0.91209495
000050 95 24 fa 3f 5e 6d 9a bd d2 1b ff be ab 6d ae 3f
       1.9542414 -0.075403914 -0.49825913 1.3627218
000060 b8 44 d9 bd 77 68 3b bf 32 b4 6c bf a2 83 55 3d
       -0.1060881 -0.73206276 -0.92462456 0.052127488
000070 8b ec 0c 3f b5 b2 00 3f ba a6 02 bf ca ca 4e 3e
       0.55048436 0.50272685 -0.51035655 0.20194545
000080 f5 c5 a0 3f ca 3b a6 bf bd f9 8e 3c 53 b8 57 bc
       1.2560412 -1.2986996 0.017453069 -0.013166505

net.0.bias f4 [4]
000000 79 0f 50 bf 02 b2 a3 be 3a bb 5a 3d 90 fc c9 3d
       -0.8127361 -0.31971747 0.05340121 0.098626256

net.3.weight f4 [64, 80]
000000 93 1f 4b bf 35 76 f3 3c a3 22 c7 3f 73 7e 89 bc
       -0.79345053 0.029719451 1.5557445 -0.016783928
000010 23 9e 29 be 9f 91 db 3e eb 8a b9 3f a3 9b a9 3e
       -0.1656423 0.42884538 1.4495519 0.33126554
000020 27 d4 26 40 84 40 21 bd 14 b0 86 bf fe d0 34 bf
       2.6066988 -0.039368168 -1.0522485 -0.70631397
000030 9f 7c 8d 3f cc c3 20 40 4e 59 70 be 2a 4e cf be
       1.1053656 2.5119505 -0.23471567 -0.40489322
000040 44 63 0f 3f 22 04 d8 3f 91 a5 9d be a3 d8 8f bf
       0.5601084 1.6876261 -0.3079038 -1.1237987
000050 db e4 bc bf 2e a4 80 be 98 5c a1 3f fb 31 7b 3e
       -1.4757341 -0.2512526 1.2606382 0.24530785
000060 db 16 b1 3f 21 90 b7 3f 2b 99 25 3d 10 da 82 3f
       1.38351 1.434086 0.040429275 1.0222797
000070 ef 9f 1d be 18 a9 62 3e 89 1d d0 3c ff d4 16 bf
       -0.15393041 0.22134817 0.025404708 -0.58918756
000080 85 84 c3 3f 18 83 b0 bc d8 c1 82 bf eb b2 e1 3e
       1.5274817 -0.021546885 -1.0215406 0.44081816
000090 84 06 cb be 98 a9 0d 3f 82 23 22 bf 63 55 1b bf
       -0.3965341 0.55336905 -0.6333543 -0.60677165
0000a0 ae 1f 50 3e d0 35 0a 40 ba 60 51 bf 29 c4 e8 3e
       0.20324585 2.1595345 -0.8178822 0.45462158
0000b0 5d 12 d3 3f fa c1 28 3e b7 ff 55 3f 60 28 37 40
       1.6489979 0.16480246 0.83593315 2.8618393
0000c0 ab 89 ad bf 52 1c 39 bc b3 f2 a8 bf b7 3c 8d 3d
       -1.3557638 -0.011298256 -1.3199066 0.06896346
0000d0 54 8d a1 3d 52 88 ac bf f8 2e 23 3e ee 61 49 3f
       0.07888284 -1.3479102 0.15935886 0.78665054
0000e0 f6 ad 84 bf db fc 3a 3f 1f f2 bc be c4 c1 dd bd
       -1.0365589 0.73042077 -0.36903474 -0.108279735
0000f0 f1 a7 02 40 26 d4 5e bf 8b d2 b3 3e bb e1 36 3f
       2.0415003 -0.8704246 0.3512157 0.7143819
000100 7f 30 6f be a3 0a fb bf b3 95 39 bf e3 5d 93 3e
       -0.23358344 -1.9612621 -0.7249405 0.28782567
000110 15 01 f8 bd 79 aa 6b bf 50 17 c1 3d 46 a2 9f bf
       -0.121095814 -0.92056996 0.09428275 -1.2471397
000120 6f 17 91 3e 15 69 1a 40 8f f7 85 3d 64 75 20 3e
       0.2833819 2.4126637 0.06541359 0.15669781
000130 22 02 2a bf a8 0a 1d 3d 42 c4 86 3f 81 86 cd 3d
       -0.66409504 0.03834024 1.0528643 0.1003542
000140 c4 8b 26 3c 0c bc 20 bf 02 05 94 be 16 a5 06 3f
       0.010165159 -0.62786937 -0.2891007 0.5259565
000150 44 8f b9 3f b9 35 4a be 65 ef 29 3f 73 97 24 40
       1.4496846 -0.19747056 0.6638091 2.5717437
000160 cc 0e 89 3f 20 48 7d 3e 39 d3 50 3f 2b 9c 46 40
       1.0707641 0.24734545 0.815723 3.1032817
000170 a3 07 ca 3f e2 5f 98 be f1 9b 80 3f a7 9d 1f 3f
       1.578358 -0.29760653 1.004759 0.62349933
000180 bd 91 d8 3f 71 ff 18 40 eb 85 5f 3f 83 db d5 3f
       1.6919476 2.390591 0.8731372 1.6707615
000190 2f 3c 3a be 0e 0c 79 3f 7c 5e 85 3f 80 89 29 3f
       -0.1818702 0.9728402 1.0419459 0.66225433
0001a0 5e b5 8c 3f e1 93 28 bf 20 71 ed 3e 10 f6 6d 3f
       1.0992849 -0.65850645 0.4637537 0.92953587
0001b0 1e 1d a7 3e ae 26 46 3f 48 01 d8 3f 43 78 1b 3e
       0.32639402 0.7740277 1.6875391 0.15182595
0001c0 3d e2 6d bf c3 4e e6 be 99 0e 42 3f e2 6c f3 bd
       -0.9292334 -0.44981965 0.75803524 -0.11886002
0001d0 03 e5 b0 bf 9e ca 4a bf 90 f9 c2 bd 2d 36 d2 3f
       -1.3819889 -0.7921542 -0.095202565 1.6422783
0001e0 d8 b8 82 3f 2c 58 6f 3e 29 b3 21 bf f3 e1 7e 3f
       1.021266 0.23373479 -0.63164 0.9956352
0001f0 e0 ec b0 bf 40 35 e2 3e e7 5f b2 3f c0 45 0e bf
       -1.3822289 0.44181252 1.3935517 -0.5557518
000200 28 1a ab 3e 94 e8 32 bf 9f 49 10 bf 02 09 00 40
       0.33418393 -0.69886136 -0.56362337 2.0005498
000210 48 5a e7 3e 25 a9 79 bc ca 29 79 bf 5c 8b 91 be
       0.45186067 -0.015238081 -0.9732939 -0.28426635
000220 27 27 3f bf 03 bc 98 3d 16 d0 61 bf bb 9a 85 3f
       -0.74669117 0.074577354 -0.8820814 1.0437845
000230 32 2b 12 3f 5a c2 90 bf a0 f3 1c 3f d6 eb 2f 3f
       0.5709716 -1.1309311 0.6130924 0.6871923
000240 d3 72 dd bc c3 60 d5 be 6a b7 c7 3d 3b 83 c5 3e
       -0.027032292 -0.41675386 0.0975178 0.38576683
000250 18 c6 6e 3f 0e 3e 5f 3f 64 ef 11 c0 ca 9b 8a bf
       0.9327102 0.8720406 -2.2802362 -1.0828793
000260 2a 8a a9 3e 29 66 1f 3f 39 6d 27 bf 8d 9c 0b c0
       0.33113223 0.6226526 -0.65401036 -2.18143
000270 ee 4c 25 bf b7 b2 16 3f aa d4 ae 3e 04 85 be 3e
       -0.6457051 0.5886645 0.34146625 0.37210858
000280 69 d9 bb 3f 7c b0 0d 3f ab 0d f6 be e9 dd 9b 3f
       1.4675723 0.5534742 -0.48057303 1.2177097
000290 9a 06 e7 bd 0b ca 8a bd a5 7c 21 3e 1f 2a f0 3e
       -0.11280556 -0.06776818 0.15770204 0.46907136
0002a0 d9 20 d1 3f d8 3e 0f 40 4b a6 56 3f a9 80 ce 3d
       1.6338149 2.2382107 0.8384749 0.10083134
0002b0 9d 60 4e bf 5c 2a 20 3e 01 ea 92 3f 5f d8 53 bf
       -0.8061617 0.15641159 1.1477662 -0.8275203
0002c0 79 f5 4b bf 24 04 aa 3f a3 d0 02 3e 69 f0 b0 be
       -0.79671437 1.3282514 0.12774901 -0.34558418
0002d0 fa 30 20 3f 6c d5 8e 3e 7e 61 e4 3e a8 02 94 bf
       0.6257473 0.27897203 0.4460563 -1.1563311
0002e0 9c d6 3b 3e 9d 6c 82 3e 91 e2 60 bf 90 33 69 bf
       0.18343586 0.2547349 -0.8784571 -0.91094303
0002f0 fc e2 ee 3d a9 8e c6 3f e1 0f 4a 3f 32 b5 2c bd
       0.116643876 1.5512286 0.7893048 -0.04216499
000300 de 91 28 bf 3e 0c 82 bf 90 2a 05 40 25 d3 9e be
       -0.65847576 -1.0159986 2.0807228 -0.31020465
000310 17 6d 1a 3f 72 5a a7 be c0 7c 81 bf 83 00 ac 3f
       0.6032271 -0.32686192 -1.0116196 1.3437656
000320 ee 78 9b bf f4 17 41 3f 1a bf ad 3e 0e 8c a6 3e
       -1.214628 0.75427175 0.3393486 0.32528728
000330 d8 47 51 3f 79 c5 10 bf 7d 36 a4 3e 6b 01 85 bf
       0.8175025 -0.5655132 0.3207282 -1.0391058
000340 4b ea bf 3e ad 15 21 3f 89 32 0d c0 5d 25 a3 bf
       0.3748344 0.629237 -2.2062094 -1.2745777
000350 6e fe df 3e 56 54 ad bf 38 fe 02 40 4f db ab 3f
       0.43748802 -1.3541362 2.0467663 1.3426303
000360 fc 18 98 bf 41 21 e8 bf 05 c5 79 bf 41 72 9b 3d
       -1.1882625 -1.8135148 -0.9756625 0.075901516
000370 80 7a c2 be 8f 7c c9 be e5 4c ac 3d 97 92 ac be
       -0.37984085 -0.39352843 0.08413104 -0.3370559
000380 de e6 c9 bf 87 e0 90 3d c1 5c 90 be fe c3 c2 be
       -1.577358 0.07074075 -0.28195766 -0.38040155
000390 10 e7 72 be c6 fd 29 bc 54 c7 34 3f d6 a3 89 3f
       -0.23720956 -0.010375446 0.7061665 1.0753124
0003a0 70 7b 90 bf ea ea d1 3e 08 96 ec bd 1f 31 dc 3e
       -1.128767 0.40999538 -0.11552054 0.43006226
0003b0 48 80 b3 3e f1 55 95 bf 1d 4a e5 bf e1 f4 10 bf
       0.35058808 -1.1666852 -1.7913243 -0.56623656
0003c0 9c 75 69 3f c6 a7 88 be fc aa 4b 3f 0e 27 10 3f
       0.9119508 -0.266905 0.79557776 0.5630959
0003d0 00 d6 f0 3f 06 86 15 40 0c 11 32 3f 14 1a dc 3f
       1.8815308 2.3363051 0.6955726 1.7195458
0003e0 c6 55 93 3e c8 3c 00 bd 50 ab f7 be ee b9 16 be
       0.28776377 -0.031307966 -0.4837289 -0.14719364
0003f0 95 a3 8c be 56 53 15 40 cb b0 9a 3f 15 23 c5 be
       -0.27468553 2.3332114 1.2085203 -0.38503328

net.3.bias f4 [64]
000000 35 0c a7 be 38 72 01 be 7c 26 41 be b1 f3 6e bf
       -0.326265 -0.12641227 -0.18862337 -0.93340594
000010 e3 ec 6f be fd 23 f1 be 2e fa 49 bf eb cd e6 be
       -0.23430209 -0.4709777 -0.7889737 -0.45078978
000020 48 cf 27 bf ca 36 4a bf 3f d9 6f bf 30 b6 29 bf
       -0.6555066 -0.7898985 -0.93690866 -0.6629362
000030 b4 6e 3c bf b0 e1 58 3d 75 62 34 bf 66 2f 5a 3e
       -0.7360642 0.052949607 -0.70462734 0.21307144
000040 ca d9 98 bf 9d 7b 50 bf 90 13 a5 be 79 55 34 bf
       -1.1941464 -0.8143862 -0.32241488 -0.7044292
000050 dd ed 0b bf 0a 24 51 bf 9c 74 19 bf 73 6f 92 be
       -0.54659826 -0.81695616 -0.59943557 -0.28600654
000060 49 2a 64 bf 65 2b 93 bf 54 9a ec be c3 c7 71 be
       -0.8912702 -1.1497618 -0.46211493 -0.2361136
000070 12 27 00 bf 43 2c ea be d3 77 27 bf 72 34 c4 be
       -0.50059617 -0.45736894 -0.6541721 -0.38321263
000080 b2 e2 7e bf 8b f4 89 bf 51 47 0b bf 95 77 0e 3e
       -0.9956466 -1.0777754 -0.54405695 0.13912804
000090 5e ba 83 bf 0a 6b 4d bf 7f a7 83 bf 80 6e 9b bc
       -1.029125 -0.80241454 -1.0285491 -0.018973589
0000a0 e7 5f 91 3d e4 7a b0 bf ee 90 38 bf ef d2 d1 be
       0.0709837 -1.3787503 -0.72096145 -0.40981242
0000b0 ea de 92 bf 6b 58 ab be 28 a7 30 bf 7b c1 43 bf
       -1.1474278 -0.33465895 -0.6900506 -0.764671
0000c0 40 24 6b bf 4b 39 bf be fd 29 3b 3e 3e 40 3e bf
       -0.9185219 -0.373484 0.18277736 -0.74316776
0000d0 48 2b 81 3d 31 5d e8 be 66 81 73 bf 1d 8a a6 bd
       0.06307083 -0.453836 -0.9511932 -0.08131812
0000e0 ed cb aa be e0 9f cd be f5 c5 3c bf f7 7f e2 be
       -0.33358708 -0.40161037 -0.7373956 -0.44238254
0000f0 67 89 4f bf 4c a9 f5 be df 15 87 be 1f 94 9a be
       -0.81069034 -0.47980726 -0.26383874 -0.30191132

net.5.weight f4 [64, 64]
000000 66 e4 82 bf 3c 4c 92 3e 0d f5 40 3f 61 a8 8a 3f
       -1.0225952 0.28573787 0.7537392 1.0832635
000010 28 fd a8 3f 0c 67 db bf 56 bb 22 3f 87 78 6e bf
       1.3202257 -1.7140822 0.635671 -0.9315266
000020 f9 4c ab bf a8 4e 96 3f cd 22 53 bf 67 f1 0a 3f
       -1.3382865 1.1742754 -0.82474977 0.542746
000030 2f 63 36 3f 33 b1 fa bf df 56 96 3e 43 9b ff be
       0.7124509 -1.9585327 0.29363152 -0.49923143
000040 65 11 41 bf de 5b c9 be 0f bd fa bd e2 b2 05 c0
       -0.75417167 -0.39327902 -0.12243091 -2.0890431
000050 6d ea 0c bf 2c 5b f6 3d 71 8a 26 3f 35 ba b2 3f
       -0.55045205 0.120291084 0.65054995 1.3963076
000060 d7 92 e2 3c eb 9b dc 3d 93 6c 3b 3f 17 6b b5 3f
       0.02765791 0.107719265 0.73212546 1.4173306
000070 12 16 8e bf 83 c7 68 3f 24 7a de 3e 5a bf e6 be
       -1.1100485 0.9092943 0.4345256 -0.45067865
000080 e8 70 d9 bf 55 3f 91 bf 19 80 b8 bf de 99 25 3f
       -1.6987581 -1.1347452 -1.4414092 0.6468791
000090 1f fd dc 3f 6c 64 62 3f 35 3f df 3e e0 0d 5b c0
       1.7264746 0.8843448 0.4360291 -3.4227219
0000a0 ff ce bf 3e a0 99 e6 bf 02 bd be bf f0 27 45 bd
       0.37462613 -1.8015633 -1.4901431 -0.04813379
0000b0 6d 9a 29 be db f7 09 3e a9 b5 36 3f 96 0d 72 bf
       -0.16562815 0.13473456 0.7137094 -0.9455198
0000c0 4a 01 a9 3e 52 66 9a bf d9 9c d7 bf 60 92 0c 3f
       0.33008796 -1.2062476 -1.6844741 0.5491085
0000d0 45 87 01 bf 4a 25 88 3f 98 39 95 be 81 1d d5 be
       -0.5059703 1.063638 -0.29145503 -0.41624072
0000e0 6e ef a7 bf e7 85 c9 be 47 8f 0f bf f5 f1 e1 3f
       -1.3119943 -0.39359972 -0.56078 1.7651964
0000f0 99 34 eb be c6 3a e4 be b4 b5 eb 3e bb bc 0e c0
       -0.45938566 -0.4457609 0.46037066 -2.2302692
000100 79 34 a3 3e bb d5 2c bf 27 9d 88 3e 59 03 0b bf
       0.3187597 -0.67513627 0.26682398 -0.54301983
000110 a3 d3 19 3f b5 89 a3 be 3b 30 2b be 19 39 73 3f
       0.60088557 -0.31941 -0.16717617 0.95009
000120 a4 6d 0b 3e ab d2 e3 bf 19 ae 36 3d ac d6 0b 3d
       0.13616043 -1.7798666 0.044599626 0.034140274
000130 58 5e 90 3e a3 86 eb bf ef 01 39 be 70 0e ce 3e
       0.2819698 -1.8400463 -0.18067144 0.4024539
000140 32 17 5a 3f 5e 61 88 3f 06 c4 e7 3d 0f 4c 35 bf
       0.85191643 1.0654714 0.113166854 -0.7081918
000150 d2 5d 68 bf c7 cd 15 bf dc fb d1 bd 28 fa e2 3e
       -0.9076816 -0.58517116 -0.102531165 0.4433148
000160 fa 99 ce 3f 84 db 88 bf b3 f8 94 bf 2d fa c1 3f
       1.614074 -1.0691991 -1.1638397 1.5154473
000170 4b b4 a6 be 42 45 58 be 6a 76 15 bf d7 f4 05 3f
       -0.32559428 -0.2112017 -0.5838381 0.5232672
000180 d5 84 25 bf 7f b5 0d c0 88 a4 4f 3e f2 1b 4f bf
       -0.6465581 -2.2142026 0.20277607 -0.80902016
000190 41 a7 3b bc 17 ce 93 3d f0 c7 62 3f 02 45 4f c0
       -0.011453451 0.07217043 0.8858633 -3.238587
0001a0 3b b8 c0 bf f9 b7 13 3f fd ee ed bf 61 e4 0a bf
       -1.5056223 0.57702595 -1.8588558 -0.5425473
0001b0 d8 56 2e 3e ce 82 ef 3f 7c a2 9d bf 4d f9 9a b9
       0.17025316 1.8711793 -1.2315211 -0.00029558913
0001c0 a1 f9 5c 3f 30 75 4c bf e5 11 a0 bf c4 9f bd bf
       0.86318403 -0.79866314 -1.2505461 -1.4814382
0001d0 a1 07 44 3f 86 2e 94 3d 9d 8d 7f bf 3f 43 a2 3f
       0.7657414 0.07235436 -0.9982546 1.2676772
0001e0 0b 1b ce bf 41 5e 19 c0 0a d5 99 3f 2b c8 c7 be
       -1.6102003 -2.3963778 1.2018139 -0.39019904
0001f0 8c f7 b0 3d 98 12 26 3f 03 9e 5c bf 63 db 82 be
       0.08640966 0.6487212 -0.86178607 -0.25558004
000200 2b 82 13 be ab 99 d9 3c 86 ee 24 be dc e1 d0 be
       -0.14405124 0.026562532 -0.16106614 -0.40797317
000210 c2 b1 55 bf 5f 60 9a be 62 3d 0b 3e 97 6f c5 bf
       -0.8347436 -0.3015165 0.13597634 -1.542468
000220 d1 35 29 3f 79 12 39 3f d2 5b cb be d6 c2 42 3e
       0.6609774 0.7229381 -0.3971849 0.19019637
000230 2a 7d c1 be 80 ba da be 1f 30 d3 3e 0e 95 87 3f
       -0.37790805 -0.42720413 0.4124765 1.0592363
000240 9d 74 3d bf bb 32 88 be ea 37 57 bb fa 4c 2a c0
       -0.7400606 -0.26601204 -0.0032839724 -2.6609483
000250 53 5e 26 3f f7 73 8c 3f ed ba e5 3f 2a 6e 3a c0
       0.6498768 1.097289 1.794767 -2.9129739
000260 cb 35 ad bf 70 3d eb bf 2e 68 0c be 01 66 7c 3f
       -1.3532041 -1.8378124 -0.13711616 0.98593146
000270 84 3f ac 3c 2c 5d 0f bf a9 21 2a bd 39 1d c6 bf
       0.02102638 -0.56001544 -0.041536007 -1.5477668
000280 3a 54 2d 3f 61 72 65 3f 3e ec ed 3e da 6e 46 3f
       0.67706645 0.89627653 0.464693 0.77512896
000290 e3 33 c1 be 09 b5 89 3f 5d e2 2d bf 5f 8f 75 c0
       -0.377349 1.0758373 -0.6792353 -3.8368757
0002a0 4e 8c e8 3e 18 a0 96 3f d1 67 3c bd 61 20 a3 be
       0.45419544 1.1767607 -0.045997445 -0.3186064
0002b0 89 17 60 3f 9d af 9e 3f 04 92 33 3f 63 c8 82 3e
       0.8753591 1.2397343 0.7014468 0.25543508
0002c0 f6 bf 8b 3e d1 46 fb 3e ec d5 57 3f 97 8e f1 be
       0.27294892 0.49077466 0.84310794 -0.471791
0002d0 f3 c6 c8 3f 02 07 74 3d 18 a1 86 3d 48 00 0e be
       1.5685714 0.059576996 0.06573695 -0.13867295
0002e0 24 61 9a 3f 58 c8 48 be 54 11 0f bf 99 19 6d be
       1.2060895 -0.19607675 -0.55885816 -0.23154296
0002f0 bb 65 64 3f 76 6b 96 3e f9 28 9e bf 7d 60 a3 bf
       0.8921773 0.2937886 -1.2356254 -1.2763821
000300 1d 36 af 3e dd 74 4b c0 40 56 bf bf 02 23 70 3f
       0.34220973 -3.1790078 -1.4948196 0.9380342
000310 c0 fe b0 bf b5 91 22 3d f4 99 12 3f 45 93 69 3f
       -1.3827744 0.03968974 0.57266164 0.9124034
000320 14 16 ac bf e1 44 e6 3e 97 9f 24 3f d1 b6 9b 3f
       -1.3444238 0.44974425 0.64306015 1.2165166
000330 81 ca 86 3f 6a f4 21 bf 1d 62 9d 3f ba 2f 32 3f
       1.0530549 -0.6326357 1.2295567 0.69604075
000340 f6 de 13 3f 11 ae 2a 3e cc 18 59 3f 7a bd 3e 3f
       0.57762086 0.16667964 0.8480346 0.7450787
000350 d7 fd b3 bd 30 f8 0b bf 30 5f 91 3f f3 c4 13 bf
       -0.087886505 -0.5467558 1.1357174 -0.57722396
000360 98 fb 35 3d 2f 61 bb be d2 1d 2e bf 0e 6b 71 3f
       0.04442939 -0.36597583 -0.6801425 0.9430398
000370 a0 77 96 3f 90 8c a6 3e 7e d8 d7 be 61 db 80 bf
       1.1755257 0.32529116 -0.42157358 -1.0066949
000380 ff ce 82 be a9 fc a6 3f da ed da be 06 3c 1b c0
       -0.2554855 1.3045856 -0.4275959 -2.4255385
000390 98 38 8e bf c4 8a 68 c0 df 0d 96 bf 27 f4 05 bf
       -1.1111021 -3.6334696 -1.1722983 -0.5232567
0003a0 04 d9 2d 3f ef 85 d9 3f 1b 73 66 3e fa 4c 10 bf
       0.67909265 1.6993998 0.22504847 -0.56367457
0003b0 b2 f0 74 3f 70 fa b2 3e 61 4b e0 3e d4 a9 81 3e
       0.9567977 0.34956694 0.4380751 0.2532488
0003c0 14 71 d0 3b 3b 07 0e 3e 1b f5 0f 3f d9 ad 6a bf
       0.006361136 0.13869946 0.56233376 -0.9167152
0003d0 d5 a1 7f bf 4e e5 4d bf ce b4 ac 3e 36 25 00 be
       -0.9985631 -0.80428016 0.33731693 -0.12514195
0003e0 1d 2e 67 3e 6a f3 27 bf f6 ac 8c be a1 00 0c c0
       0.22576185 -0.65605795 -0.2747571 -2.1875384
0003f0 f2 73 14 3f 06 1a 09 bf 36 2b ed 3f 57 46 bd 3f
       0.5798942 -0.53555334 1.8528812 1.4787091

net.5.bias f4 [64]
000000 7a 6e b2 3e c9 13 d2 bc 3e f5 a4 bf e8 fb 1e bd
       0.34849912 -0.0256442 -1.2887342 -0.038814455
000010 99 5b 60 bf 3f 38 d5 3d db 94 b6 bf 49 af 8c bf
       -0.87639767 0.10411119 -1.4264177 -1.0990993
000020 c4 7d 2a bf 19 19 01 c0 b7 78 f7 be c0 da 8b bf
       -0.66598153 -2.0171568 -0.48334286 -1.0926132
000030 0d c5 af be ba 90 21 bf 25 3b e2 3e 7b 51 8b bc
       -0.34330025 -0.6311146 0.4418575 -0.017006626
000040 57 80 78 be bd f7 09 3f 98 b0 35 bf 6e 90 2a bf
       -0.24267708 0.53893644 -0.70972586 -0.6662663
000050 90 c3 9b bf 20 f7 1f bf 03 81 c9 bf 9e 19 15 3f
       -1.2169056 -0.6248646 -1.5742496 0.58242214
000060 59 80 5e 3d b8 bf 8c 3d c9 01 89 3c 09 9d 18 c0
       0.05432162 0.06872505 0.016724484 -2.3845847
000070 e4 36 98 bf a5 76 a4 3e ed 06 a7 bf e3 93 4c bd
       -1.1891751 0.3212177 -1.3048989 -0.049945723
000080 e6 cf f8 be 52 f9 a5 bd e8 88 45 3f 2d e0 ad bf
       -0.48596114 -0.08104195 0.7716203 -1.3584038
000090 1e 35 e2 3e a1 35 3c bf 01 8c 1d 3e cc a2 b0 be
       0.4418115 -0.7351933 0.15385439 -0.34499204
0000a0 86 e0 a2 bf 75 9b 83 bf 46 64 cd be 52 43 a2 3d
       -1.2724769 -1.0281817 -0.40115565 0.079229966
0000b0 a8 ad 6d 3f 45 2b 92 bf 40 fd 8d bf 1b e0 62 bf
       0.92843103 -1.1419455 -1.1092911 -0.8862321
0000c0 fc 6f a9 bf 1c bb ac 3f 8f 3b 93 bf f0 6e 37 3f
       -1.32373 1.3494601 -1.1502551 0.7165365
0000d0 40 62 fe be 90 93 bc 3e 19 9e d9 3e 18 f3 ca bf
       -0.49684334 0.3683133 0.4250343 -1.5855436
0000e0 62 bb 59 bf 97 dd 47 3f 62 f9 15 bf f4 89 03 40
       -0.8505155 0.78072494 -0.5858365 2.055295
0000f0 df db f1 3e a2 1b 6d bf f2 25 2e bf 69 83 a9 3c
       0.4723806 -0.9262029 -0.6802665 0.020692544

net.7.weight f4 [64, 64]
000000 5e b9 f2 be 96 6e e4 3e ac 7d c4 3e e0 cc 21 3e
       -0.4740705 0.4461562 0.3837713 0.1580081
000010 70 f5 a8 be 3f 93 6c 3b d1 7f 12 be fd 5c b1 bf
       -0.32999754 0.0036098508 -0.1430657 -1.3856503
000020 32 a2 b7 bf 77 99 33 bf 15 7b 9d bf 10 c1 ed bd
       -1.4346373 -0.70156044 -1.2303187 -0.116090894
000030 5f a8 c9 3f 26 0f 98 bf 0f c6 4a be 64 1d 79 c0
       1.5754508 -1.1879623 -0.19802116 -3.8924189
000040 e6 d6 a9 bf 52 35 f3 bc a1 6e 43 40 77 34 65 3e
       -1.3268707 -0.029688511 3.0536273 0.22383295
000050 8f 67 d3 bf c3 78 af bf 70 10 09 3f f8 66 8d 3c
       -1.6515979 -1.3708729 0.53540707 0.017261013
000060 36 5b 1d bf e0 f7 57 3f cc 83 c1 bc 02 e6 c6 bf
       -0.614673 0.843626 -0.023622416 -1.5538943
000070 a2 43 f0 3f 8c d2 d8 be 2b 9c 38 bf 53 f7 07 bc
       1.877064 -0.42348135 -0.72113293 -0.008298713
000080 ee 4d 7f bf dd 45 72 be db af 83 3f 60 e2 10 bf
       -0.99728286 -0.23659463 1.0288042 -0.5659542
000090 18 51 09 c0 92 dd 0c bf ff 6d 13 c0 9e bc bd be
       -2.1455746 -0.5502559 -2.3035886 -0.37057966
0000a0 01 f9 58 be ce 96 56 3e 8c b4 0f 3f c2 52 03 bf
       -0.21188737 0.20955965 0.5613487 -0.51298153
0000b0 d9 4d 1c 3f 58 d4 a0 3e 0d f2 64 be 71 a4 15 bf
       0.61056286 0.31412005 -0.2235796 -0.5845404
0000c0 64 4a 52 be b2 62 9b 3e d5 ab 80 3d 45 31 07 bf
       -0.2053619 0.30348736 0.06282774 -0.52809554
0000d0 9a 96 a9 3e 1d 98 ba bf da 13 04 3e 34 67 93 3f
       0.33122712 -1.4577671 0.12898198 1.151587
0000e0 61 f3 77 bf 2b 02 58 bf f9 68 ea be f9 2c d3 bf
       -0.9685574 -0.8437831 -0.45783213 -1.64981
0000f0 34 98 f3 3e 21 b1 9c 3d 39 00 ee be 66 6f dd 3f
       0.4757706 0.07650972 -0.46484545 1.7299621
000100 7b a1 c4 be 4a 1b 2c 3f c8 c8 6b 3f b9 b2 d8 bd
       -0.3840445 0.6722914 0.9210324 -0.10580964
000110 ba 01 65 3f 41 c4 4c bf 4e 2a 38 bd 2a 81 13 bf
       0.8945576 -0.7998696 -0.04496222 -0.57618964
000120 48 7e f3 bf 19 05 73 bf 59 ea 59 3f 00 58 15 3e
       -1.9022913 -0.94929653 0.8512321 0.1458435
000130 83 46 ba 3e 56 05 73 3f 6c e3 ab 3f 2f f1 43 bf
       0.3638192 0.94930017 1.3428779 -0.7653989
000140 ef a0 05 3f cf be 98 3f 96 81 62 3f 16 6a 4e bf
       0.5219869 1.193323 0.8847898 -0.80630624
000150 42 d5 91 3c c9 61 8b bf 46 8c ca be a4 d8 9c 3e
       0.017801885 -1.0889217 -0.39560145 0.30634034
000160 ca 86 41 bf 55 01 d1 bd 0c 3b 15 bf c9 40 3c bf
       -0.75596297 -0.10205332 -0.58293223 -0.73536354
000170 1c 7d 6d 3d 19 86 33 3f 5f 1a 10 c0 74 b6 f9 3e
       0.05798064 0.7012649 -2.2516096 0.48772013
000180 81 e3 97 bf 62 d0 43 3f a7 8a e4 be 17 6d d6 bf
       -1.1866304 0.7648984 -0.44637033 -1.6752042
000190 8f 58 14 40 18 76 5e bf 21 d4 09 3e 0f d7 ae be
       2.3179052 -0.86898947 0.13459827 -0.34148452
0001a0 d3 02 47 3e 1e 2b 88 be 0a ed 80 bd e6 50 17 bf
       0.19434671 -0.26595396 -0.062952116 -0.59107816
0001b0 42 bb 31 bf 22 fe b7 3e 52 79 81 3f d1 82 cf bf
       -0.6942636 0.35936075 1.0115149 -1.6211797
0001c0 eb cf 13 bf 90 b2 fc bf 40 bf bf be 08 7a 4b 3f
       -0.5773913 -1.9741993 -0.374506 0.7948308
0001d0 37 81 69 3d 23 9f 5d 3f 2c 6b 29 3f 86 03 ec 3e
       0.057007995 0.8657095 0.66179156 0.46096438
0001e0 80 d7 fc 3c 7a 1f b2 bf 9c d8 da bb 0b c0 07 3f
       0.030864477 -1.3915856 -0.006678654 0.5302741
0001f0 fc c2 62 bf 9f a0 a3 3e 70 57 90 3d 10 ae cc 3f
       -0.8857877 0.31958482 0.070479274 1.599062
000200 5f c5 70 be 30 8d 9f 3f 4c 36 03 c0 88 ac 28 bf
       -0.23512791 1.2464962 -2.050189 -0.6588826
000210 26 df da bf c4 31 8d 3f b2 68 89 bf cc 1a 43 bf
       -1.709935 1.1030812 -1.0735075 -0.76212764
000220 d4 45 a8 3d 78 a7 8b bf 46 da 1f 3f b5 b1 b8 3f
       0.08216444 -1.0910482 0.62442434 1.4429232
000230 0e 02 c7 bd e8 ea 5d 3f 6c 9b 8a 3e 83 20 07 bf
       -0.09717189 0.86686563 0.27071702 -0.52783984
000240 6d 9d 76 3d be f8 d1 3e 4d c9 73 be 77 aa a4 bf
       0.060208727 0.41010088 -0.23807259 -1.2864522
000250 33 67 fb be 4a 80 31 3e 80 0c dd bf fd d3 00 3e
       -0.49102172 0.17334095 -1.726944 0.12580867
000260 05 4e a3 be 58 e4 c0 bf 66 17 9b bf 84 6f 0a bf
       -0.31895462 -1.5069685 -1.2116516 -0.5407641
000270 9a f0 86 be c9 b6 d7 3e 07 96 71 bf e9 95 a2 3e
       -0.2635544 0.42131642 -0.9436955 0.31754997
000280 32 02 67 3e 03 4a 1e bf d5 b3 1f 3f cf c8 6d bf
       0.22559431 -0.6183168 0.62383777 -0.92884535
000290 95 cd f9 be c4 0e 2c bf 13 b3 06 3f 3e f3 9a bf
       -0.4878966 -0.6721003 0.52616996 -1.2105482
0002a0 2b 79 b2 bd 9b 3a 17 bd a3 2c a2 bf 71 66 be bf
       -0.08714517 -0.036921125 -1.2669872 -1.4875013
0002b0 02 f1 b3 be 06 4e 57 bf 6a 68 29 3f f9 6f 06 bd
       -0.35144812 -0.8410343 0.6617495 -0.03282163
0002c0 b6 54 0d bf f2 b7 62 3e a8 a1 b3 bf 02 0d 93 bf
       -0.55207384 0.22140482 -1.4033709 -1.1488345
0002d0 20 22 06 3e 5a a2 0e bf 1d f7 aa 3f ea 42 18 3f
       0.13098955 -0.5571648 1.3356663 0.594771
0002e0 34 74 8a 3d df 28 b9 3d e8 a2 97 3f be f9 06 bf
       0.06760445 0.09040999 1.184659 -0.52724826
0002f0 45 b6 cc be 20 c8 22 bf fb d3 77 3f bf 59 c2 bf
       -0.3998281 -0.63586617 0.9680783 -1.5183638
000300 94 1e 88 bf 60 2c 71 bd 25 e6 3c 3c 33 00 87 be
       -1.0634332 -0.05888021 0.01152948 -0.2636734
000310 05 f7 56 bf 56 c3 04 bf 23 78 90 bf 86 19 bf bd
       -0.8397067 -0.5186056 -1.1286663 -0.0933104
000320 55 3f 59 be f3 27 11 bf 0c 8f fd be 70 31 e4 3f
       -0.21215566 -0.5670158 -0.495232 1.7827587
000330 29 92 06 3e c9 a0 fb be 1b d7 76 bd e2 82 9d bf
       0.13141693 -0.49146107 -0.060263734 -1.2305567
000340 fc 13 9a 3f 39 9f d1 3e e8 e6 85 3f 08 76 c7 bf
       1.2037349 0.4094179 1.0461092 -1.5582895
000350 41 ef 9f bf d4 ec 9f bf e6 ae 09 3f ce c4 a7 bf
       -1.249489 -1.2494149 0.537825 -1.3106935
000360 03 d7 5a bf a6 87 ee 3e 6e 0c 4f 3f 21 77 27 3f
       -0.8548433 0.46587867 0.8087834 0.6541615
000370 18 17 5d bf a3 36 13 bf 05 59 34 be 2f 46 e8 3e
       -0.86363363 -0.57505244 -0.17612083 0.45366046
000380 1c c2 27 be e9 3a b1 3d 2c 02 81 c0 0f 7d 2f 3f
       -0.1638264 0.08653814 -4.031515 0.685502
000390 5d f1 56 3f 11 15 91 bf 1d e5 34 3f 43 e0 a5 bf
       0.8396204 -1.1334554 0.706621 -1.2959064
0003a0 6d d2 3d 3f 7b 3d 07 3f fa b5 43 bf f8 a1 75 3e
       0.7414921 0.52828187 -0.7644955 0.23987567
0003b0 04 17 f0 bf 2f c0 df bd 37 c7 4a 3e 4a 7e 28 c0
       -1.8757024 -0.10925328 0.19802557 -2.632708
0003c0 5f b9 58 bf b8 fb 88 ba b5 cd 34 bb b5 c4 bd 3f
       -0.84657854 -0.0010450995 -0.0027588431 1.4825655
0003d0 0f 88 3a 3d a0 ad 83 bf 68 86 5d bd b6 d0 df be
       0.04553991 -1.0287361 -0.054083258 -0.4371392
0003e0 b2 d9 41 3c a4 4d 1a c0 1b 2e 82 3e 47 34 5a bf
       0.011831688 -2.4109888 0.254258 -0.8523602
0003f0 ce 15 af bf 25 15 97 be 81 38 ec 3f 5b 91 e8 3e
       -1.3678529 -0.2950832 1.8454744 0.45423397

net.7.bias f4 [64]
000000 ff 4e 6f 3f d1 da 67 3f 9e 4b fd bf 57 ce 02 c0
       0.93479913 0.9056826 -1.9788702 -2.043844
000010 4e 50 68 3f 1a e8 6d bf ca 11 82 3e 0e 3e 70 3f
       0.90747535 -0.92932284 0.25404197 0.9384469
000020 84 f7 8a bf 70 43 c6 3e d9 c7 a2 3e 48 f2 59 bf
       -1.0856786 0.38723326 0.31793097 -0.85135317
000030 43 63 3c bf e9 61 82 bf 76 8c 89 bf 15 61 e6 bf
       -0.7358896 -1.018613 -1.074599 -1.7998377
000040 f7 7c 58 bf 63 a5 db bd 1e 82 6f bf dd e4 2f c0
       -0.8456568 -0.107249044 -0.9355792 -2.7483437
000050 eb 2f fe bf f7 80 03 40 89 56 f0 bf 30 3c 73 bf
       -1.9858373 2.0547464 -1.8776408 -0.95013714
000060 dd 1e e1 bf 4d c5 88 bf 23 85 c4 bf 51 18 43 3f
       -1.7587544 -1.0685211 -1.535313 0.7620898
000070 24 75 9b be 34 57 d2 3f 66 87 ad bf 56 80 ca bf
       -0.3036281 1.6432862 -1.3556945 -1.5820415
000080 a8 db 93 bf bb 88 ce bf 11 b9 7d 3d e5 e2 2b bf
       -1.1551409 -1.6135477 0.06194407 -0.6714309
000090 e8 58 58 c0 18 55 f3 3e 6a af b4 bf c6 f6 80 bf
       -3.3804264 0.4752586 -1.4116032 -1.0075309
0000a0 1e 01 f8 bf a9 af 22 c0 23 36 b8 bf f2 ab 74 bf
       -1.9375341 -2.5419714 -1.4391521 -0.9557487
0000b0 fe 84 ae bf d0 5c 35 c0 bd a9 d1 bf d1 59 b3 bf
       -1.3634336 -2.8337898 -1.6379925 -1.4011785
0000c0 00 4a 19 bf e8 d5 2a bf f2 59 a5 3e 95 9b e7 bf
       -0.5987854 -0.66732645 0.32295185 -1.8094355
0000d0 7a cd e0 bc 27 31 4a c0 9d 7f 05 bf e5 cb 04 bf
       -0.027441729 -3.15925 -0.5214785 -0.5187362
0000e0 a6 99 96 bf 0b a5 e7 3e df 36 8d bf cc 84 a6 bf
       -1.176564 0.45243105 -1.103237 -1.3009276
0000f0 ba 0b af bf b9 30 d5 bf 36 0f 4d c0 ad 10 61 3f
       -1.3675454 -1.6655494 -3.2040534 0.8791607

net.9.weight f4 [7, 64]
000000 94 97 76 3d 0e 2e a5 3e d7 04 fc bf e4 bd 90 3f
       0.06020315 0.322617 -1.9688977 1.130795
000010 3c fb d8 3d 0c 99 1c 3f 88 1d 33 bf b1 ce 22 bf
       0.10594794 0.6117103 -0.69966936 -0.63596636
000020 76 0b fc bd 3a 66 a9 bf 98 d0 62 be 14 4e 60 3e
       -0.123068735 -1.3234322 -0.22149885 0.21904784
000030 3b e4 7a 3f 85 82 ee be 26 56 a6 3e b6 83 92 be
       0.980045 -0.46583953 0.324876 -0.28616112
000040 3d f3 0e c0 28 1a 88 3f bb d7 63 bf c2 0e cb 3f
       -2.233596 1.0632982 -0.89001054 1.5863879
000050 b5 39 59 3f c8 48 01 3f 66 8b 94 3f 88 6a 9a 3e
       0.8485368 0.5050168 1.1605041 0.30159402
000060 25 9f ec 3e 2b 24 57 3f 16 af 1c 3f fe 80 52 3f
       0.46215168 0.8403956 0.6120466 0.82228076
000070 d0 13 0c 3f 88 49 8b bc 27 3b 11 c0 be 68 cb 3e
       0.5471773 -0.017002836 -2.2692354 0.3972835
000080 b9 85 40 3f 41 cf af 3e f5 22 ba 3f 20 5e ee 3e
       0.75204045 0.3433781 1.4541918 0.46556187
000090 83 0c 98 3f 5f 2f d1 3d 94 82 47 3f d7 42 59 3d
       1.1878818 0.102141134 0.7793362 0.05304226
0000a0 1f c0 5a 3f d8 58 2a 3f d2 75 8a 3d 1f 2e f1 3e
       0.85449404 0.66541815 0.06760754 0.471055
0000b0 89 32 99 3f 41 1b 8a 3e 43 1f 8d 3f 13 9c e1 3d
       1.1968547 0.26973918 1.1025165 0.11016097
0000c0 0f d3 32 be 0f d7 55 bf 20 95 8c bf 4d 18 ff 3e
       -0.17463325 -0.8353128 -1.0983009 0.49823228
0000d0 b5 2f d2 3d 19 89 9d 3e ee 98 b5 bc 65 bf 3a 3f
       0.10263006 0.3076866 -0.02216765 0.72948295
0000e0 41 05 25 3f a3 88 02 bc c2 37 19 bf 62 76 4c 3f
       0.6446114 -0.007967147 -0.59850705 0.7986814
0000f0 6c ad 0c bf 86 2f fb 3e aa 02 f9 bc d4 b2 8d bf
       -0.5495212 0.49059695 -0.030396778 -1.1070199
000100 e7 5e c5 3e ea 79 38 be df 9e 1f 3f 83 76 34 3f
       0.38548967 -0.18015257 0.62351793 0.70493335
000110 dc 28 2e be 7b 46 8b 3e fd 10 35 3f ac 00 23 be
       -0.17007774 0.2720221 0.7072905 -0.15918225
000120 bf df 23 3f 0e 1d 0d 3f 32 13 fa be cc 1b 13 3f
       0.64013284 0.5512246 -0.4884277 0.5746429
000130 c1 fa 4f 3e 22 5a 31 3e 2e 0f 7d 3f bc 9f 2b 3f
       0.20310499 0.17319539 0.9885129 0.6704061
000140 29 dc b4 bf 7c 08 26 3f 61 cd 44 3f e0 4b c0 bc
       -1.4129688 0.64856696 0.76875883 -0.02347368
000150 26 23 c0 3f 28 bb 68 be 67 d3 5f 3f dc ba f8 3e
       1.5010726 -0.22727644 0.8743195 0.48580062
000160 03 a8 f0 3e 94 97 aa 3d 0e 0f b9 be 02 e1 a2 3e
       0.47003183 0.083296925 -0.36144298 0.31812292
000170 8f d7 24 bf dc 0e 02 3f 24 8e b6 3e c2 d4 17 3e
       -0.64391416 0.50803924 0.3565532 0.14827254
000180 c4 39 a3 3e af 35 e9 3e af ed 8a 3f d9 6a d0 3e
       0.3188001 0.4554877 1.0853785 0.40706518
000190 95 8a 99 3f 4d 75 56 3d 67 cc 6b 3f 29 32 5e 3d
       1.1995417 0.05235796 0.9210877 0.054247055
0001a0 23 5d e1 bc db 6b 56 3e 77 0d 3e 3f 23 52 cd 3e
       -0.027510231 0.20939581 0.74239296 0.40101728
0001b0 9e 4c 2d 3f ae c2 09 bd 23 af 65 3f 59 84 fa 3e
       0.67695034 -0.033632927 0.8972036 0.48929098
0001c0 9e 1a 8b 3f 7b df d1 3e f2 19 d2 be a6 30 33 3f
       1.0867498 0.40990815 -0.4103542 0.69996107
0001d0 c7 8d 85 be 2b bb 64 3f 8f 22 03 3f bf f8 1f 3f
       -0.2608473 0.89348096 0.5122461 0.6248893
0001e0 84 a3 41 3f 06 b1 c9 bf a0 24 99 3e 6f cd 4d 3f
       0.7564013 -1.5757148 0.29910755 0.8039159
0001f0 ef 77 85 3d e1 22 ac 3e 44 2c 0d 3f 92 0b a2 3d
       0.06517016 0.3362036 0.5514567 0.07912363
000200 79 9f 40 3f 9c fc 0a 3f d8 64 46 bf 93 d1 92 3f
       0.75243336 0.542917 -0.77497625 1.1470207
000210 5f f0 e3 3e fa 16 21 bc ae df 27 3e 15 78 06 3f
       0.44519326 -0.009832138 0.16393921 0.5252698
000220 fe 51 29 3e 03 59 be be ab 7d 57 3e 74 eb b3 3e
       0.16535184 -0.37177286 0.21044032 0.35140574
000230 aa 4a 28 3f 90 1c c6 3e d1 28 76 3f 9d 4e 3d 3e
       0.6573893 0.38693666 0.9615603 0.1848702
000240 85 91 1d 3f 67 9d 86 3e 0d d8 2f be 6f 36 37 3f
       0.6155017 0.26291963 -0.1717226 0.71567434
000250 03 9b 85 3f 28 36 28 3e 35 ef 9a 3f 89 a4 30 3f
       1.0437931 0.16426909 1.210425 0.6900106
000260 62 b5 2e 3f 26 42 ea 3e 65 6e 45 3f 8b 67 4a 3f
       0.6824552 0.45753592 0.77121574 0.79064244
000270 c7 d4 77 3f 43 55 c3 3e 65 9c 0d bf 3f 91 a0 3e
       0.9680905 0.38150987 -0.55316764 0.31360814
000280 1d 5e 41 be 21 97 16 bf eb 8a ec 3e 2a d1 dc bd
       -0.18883558 -0.58824354 0.46199736 -0.107820824
000290 dc be 48 3f 06 c7 9b 3b 1b f1 1f bf f6 76 9c 3e
       0.7841623 0.00475395 -0.6247727 0.3055951
0002a0 66 45 3d 3f f3 3e be 3e 4e 43 84 3e f8 f1 db 3c
       0.7393402 0.371574 0.258326 0.026848778
0002b0 fc 32 6f 3f be c9 71 3f 2d 4e 32 3f 89 a6 1a bf
       0.9343717 0.9444846 0.69650537 -0.6041036
0002c0 00 24 bf bf 35 5f 18 3f 26 a8 e4 be b0 e7 d1 3f
       -1.4932861 0.59520274 -0.44659537 1.639883
0002d0 ad 14 89 be b1 cc bb bc 94 d9 82 3e a4 3e 1a 3f
       -0.26773587 -0.022924753 0.25556624 0.6025183
0002e0 e3 7a a3 3e ef 67 ab 3e 12 14 bc 3e 62 71 7b 3f
       0.31929693 0.33477733 0.36734062 0.98219883
0002f0 26 b4 00 3f f2 7c 79 bf 25 94 2a 3f e7 a4 c4 3e
       0.50274885 -0.97456276 0.666323 0.3840706
000300 3f 13 22 3f 13 61 7f 3e 23 0e 8a be 26 86 66 3f
       0.6331062 0.24939375 -0.2696391 0.90048444
000310 62 57 06 3f b1 8f 3f 3f 1f 16 f3 3e 84 e9 0b 3f
       0.52477086 0.7482863 0.47477815 0.5465319
000320 70 09 1b be aa 84 8b 3e 9b 8c 1d 3d f8 5c ab 3e
       -0.15140319 0.27249652 0.03846417 0.33469367
000330 f4 75 bb 3e 24 6c a6 3e 99 b2 10 3c 65 53 98 3e
       0.3661343 0.3250438 0.0088316435 0.29751125
000340 19 5e d3 3e d0 0b 1a 3f 90 d4 c8 3e 62 0e 84 3f
       0.41282728 0.60174274 0.39224672 1.0316889
000350 2c 31 c7 3f b8 cd 17 3f bc 1d 3e 3f 7e 4b 87 3f
       1.5561881 0.59298277 0.7426412 1.0569913
000360 ad 23 d3 3e 1d ae b0 be 66 e0 59 3f 34 e3 80 3e
       0.41238156 -0.34507838 0.8510803 0.25173342
000370 fb 13 2e 3d d3 4e 28 3e 1d 57 27 3f 0c ba 5a 3d
       0.042499524 0.16436319 0.653673 0.053400084
000380 6c 8d 59 3f b3 03 5f 3e fd 69 2e 3f 6e 8f 26 bf
       0.8498142 0.21778755 0.68130475 -0.65062606
000390 59 55 ba 3f 73 8d db 3e 2d b3 83 3f 3e 76 22 3f
       1.4557296 0.42881355 1.0289055 0.63461673
0003a0 96 73 72 3e 01 32 0e 3e c6 b5 0c bd 8d a9 f5 3e
       0.23676905 0.13886262 -0.03435304 0.4798092
0003b0 25 b9 43 3e 53 b5 0b 3f e9 0c 72 3e b4 3b eb 3e
       0.19113596 0.54573554 0.23637737 0.45943987
0003c0 07 30 f2 3e 25 98 03 3f 28 56 f6 3e 83 ea b7 3f
       0.47302267 0.5140403 0.48112607 1.4368442
0003d0 13 98 10 3f ae 72 fa 3e a6 57 38 3f 77 1d 87 3e
       0.56482047 0.4891562 0.7200874 0.26389667
0003e0 d1 76 b1 3e 07 96 11 3f 3b ed 36 3f 4a 00 59 3f
       0.34660962 0.5686955 0.71455735 0.84766066
0003f0 85 33 9b 3d 07 92 fc 3e 39 23 48 3f b7 cb 5b 3e
       0.07578186 0.4933016 0.78178746 0.2146443

net.9.bias f4 [7]
000000 9e f2 f5 3e 37 a2 81 3e dd c0 01 3f f0 3d 44 3f
       0.48036665 0.25319073 0.5068491 0.7665701
000010 7c 14 45 3f 3f 88 04 3f 14 30 fc 3e
       0.7698438 0.51770395 0.4925543
