experts/DQN/net_configs/agent_dqn.pth (torch, 160547 bytes, 8 tensors)

net.0.weight f4 [128, 42]
00000000: 62fc 823f ba59 ea3f abb9 973e 4710 e53d
00000010: fe8c 723f 504b e9bf 9b9b d0bf 6c96 cd3f
00000020: 4046 a43f ee71 0d3f b62f e9bf a51f ba3f
00000030: f940 413e 1124 e9bf 0067 d9be 0d3f ccbe
00000040: d7b5 05be 00c1 803e b184 debd 4804 0d3d
00000050: 24b4 34bf 8fc5 0c3f 8aa7 74bf b5c8 993e
00000060: 98cc 483f 400e e5bd 6312 a43f 8dbd f9bd
00000070: b908 5e3f 6683 8bbf c9af d4bf a6aa 2cbe
00000080: 5a69 fe3e f099 efbd 4a44 68bf d10d babe
00000090: f783 35bf 429c bf3e 746f d9be 882f 583f
000000a0: 12cd 37be 2007 9bbf fa59 c3bf 7f3f 75bf
000000b0: 0678 443e 519b d3bf 7183 71bc d20b a83e
000000c0: 820f c23e f5d0 c4bd e6fd f83e 72a0 6f3f
000000d0: 066f a13e 6636 673f e888 253e 5737 f9be
000000e0: 4202 0b3f f17c 233e 523c 04bf 366d 883f
000000f0: 59f6 cf3e 0059 7abf 1b44 a73f a255 a0bf
00000100: 5f0c b8bf fba6 813f 6433 963e a3d7 173f
00000110: aa5f db3e a90c 1bbf 4c62 183f 61e7 7e3f
00000120: 9a4b b6bd a792 83bf 5145 893d b99b 763e
00000130: 7b97 a43f 28f3 633c edca 793e a803 d13e
00000140: 4090 ebbe 43ac 41be 1020 3abd abde 3c3e
00000150: 6641 8a3e af70 45bf 6ee4 d53f 17f9 ebbe
00000160: 5e4e 16c0 23fc 9b3d 73c6 593e 0565 22bf
00000170: 6d5d 48bf 757b 763f e228 5a3e 4251 8bbf
00000180: 3a23 8abf 2290 db3e dba1 b73f 3c2b 393f
00000190: 1a71 a0be a205 7b3f cfac 52be 8de3 e7bf
000001a0: 2e87 72be f7a4 e43c 6f4d 99bd 2570 85be
000001b0: 318d 8e3f 9b07 a9bf 9860 f33e 2e2b 983e
000001c0: 95c2 663f eec9 aebf a360 fabe 71fb 5e3e
000001d0: 0134 d5be ee0e d4bf 32d6 5d3f 7272 52bf
000001e0: 93d4 5dbf fdc4 54bf 17fd 523d 5789 873f
000001f0: 1a5f 90be b75a 013f ff9c ee3c e17a 29bf
00000200: e98b 91bf 77ca 75bd 4e43 4cbf 6727 aa3f
00000210: 3784 ccba fed7 1bbf e776 713c 3b83 95bf
00000220: 78de a7be 3b13 063f e624 b73e c6e7 a03e
00000230: 902e 9dbe ce26 943f ae2f 4cbe e087 8d3e
00000240: 6bc7 873f 2964 643f 87c6 233e 4569 83bf
00000250: 1399 8ebf 8309 59be 918e c4be 0438 32bf
00000260: 4f06 dcbe 2770 c73f df13 24c0 eed9 6d3f
00000270: fc81 c3bf ad12 fcbe b9e5 17bd a819 803e
00000280: d59a b83f ff3f abbf fc40 bc3e a107 593f
00000290: c6e6 b0be c66b 60bd 7a56 febc 56cb eebe
000002a0: a3b2 d03e 3250 e0bf 7687 8ebf b467 5cbe
000002b0: c457 0cc0 ea50 0340 9d81 a23f da2d 05bf
000002c0: b60e 7abf 792e bf3d e612 4f3f 6c2f 8f3f
000002d0: 311a c2bd 069c 02be 738f 8b3f 4d68 67bf
000002e0: cd14 e63e ec65 cbbf 5295 bebe b294 9cbc
000002f0: b984 e8bf 847c c33d adbc 08be 6e85 1c3f
00000300: 8f41 4fbe 983f 8f3a 5de8 9abf 8985 a53f
00000310: 165b b2bf ac5e 0bbf fc85 30be 1552 833f
00000320: 935c 1a3e a612 d93b 853a ee3d da41 ec3e
00000330: c2b8 b1be 4e24 9dbe 8dbb 573f e03d 9abe
00000340: 0d22 de3e 5854 dcbe 02ce db3e 9ac4 e8bf
00000350: 7b1f cd3f ff02 ecbf 23b1 943f af29 1a3e
00000360: 325d 383e e4e4 89bf c707 083d 501d 513f
00000370: 1a7f 4cbf 2327 ddbe 48e1 413f 6349 6e3f
00000380: 85c4 863f 95c6 1f3e 6de2 263e feeb 6a3e
00000390: eca6 9a3f 44c0 483f eebc 8c3c 7863 843e
000003a0: bd31 64bf 9451 273f 5f2f 58be 636b 06bf
000003b0: 59a2 febe 9fee 4cbf d9f4 70bf 9d31 f6be
000003c0: b75c 0fbe 3eed 47bf e7b5 123e c0d5 c63e
000003d0: 02b4 fdbf 13a9 dc3e 4be9 a63e b179 a23e
000003e0: ea4e 9a3e 0aa7 6dbf 2c3c 543f 21ff 3bc0
000003f0: c769 91bf 9398 bd3e 4b7b 153f 9687 443d
1.0233271 1.8308632 0.2963384 0.11184745 0.94746387 -1.8226109 -1.6297487 1.606153
1.2833939 0.5525197 -1.8217685 1.4540907 0.18872441 -1.8214132 -0.42461395 -0.39891854
-0.13057648 0.25147247 -0.108651526 0.03442791 -0.7058737 0.5498895 -0.95568144 0.3003594
0.78437185 -0.111843586 1.2818111 -0.12194357 0.8673206 -1.0899475 -1.6616145 -0.16861972
0.49689752 -0.11699283 -0.907292 -0.36338666 -0.7090449 0.37423903 -0.42467844 0.84447527
-0.17949322 -1.2111549 -1.5261834 -0.9580001 0.1918641 -1.6531774 -0.014740811 0.32821518
0.37902457 -0.09610168 0.4863121 0.93604195 0.31530017 0.9031738 0.16165507 -0.48675033
0.5430032 0.1596563 -0.5165454 1.0658329 0.40617636 -0.97792053 1.3067659 -1.2526133
-1.4378775 1.0129083 0.29336083 0.5931341 0.42846423 -0.6056619 0.5952499 0.99571806
-0.089011386 -1.027913 0.06702674 0.24082841 1.2858728 0.013912953 0.24393816 0.40823102
-0.46008492 -0.18913369 -0.045440733 0.18444316 0.2700302 -0.77125067 1.6710336 -0.46088478
-2.3485332 0.07616451 0.21267109 -0.63435394 -0.78267556 0.9628213 0.21304658 -1.0884173
-1.0792 0.42883402 1.4346269 0.72331595 -0.3133629 0.9805547 -0.20573734 -1.8116318
-0.2368438 0.027910693 -0.074854724 -0.26062122 1.1136838 -1.3205446 0.47534633 0.29720443
0.9014066 -1.3655374 -0.48901853 0.21775605 -0.41641238 -1.6567056 0.8665496 -0.8220588
-0.8665249 -0.8311308 0.051510897 1.0588788 -0.28197557 0.50529045 0.029127596 -0.66203123
-1.1370822 -0.06000754 -0.797902 1.3293275 -0.0015603368 -0.6087645 0.014737821 -1.1680673
-0.32786918 0.52373093 0.3577034 0.3142683 -0.30699587 1.1574342 -0.19940063 0.27642727
1.0607733 0.8921533 0.15993701 -1.0266501 -1.1140465 -0.21195035 -0.3839002 -0.69616723
-0.42973563 1.5581101 -2.5637128 0.9291066 -1.5274043 -0.49232998 -0.037084315 0.25019574
1.4422251 -1.3378905 0.3676833 0.84777266 -0.34551066 -0.05479028 -0.031047095 -0.46639508
0.4076129 -1.7524474 -1.1135089 -0.21523935 -2.1928568 2.0518136 1.2695805 -0.5202309
-0.976787 0.09335036 0.8088821 1.1186347 -0.09477652 -0.1275483 1.0903152 -0.90393525
0.44937745 -1.5890479 -0.37223297 -0.019113872 -1.8165504 0.09545234 -0.13353224 0.611411
-0.20239852 0.0010928987 -1.2102162 1.2931377 -1.3934047 -0.5444133 -0.17238611 1.0259424
0.15074377 0.0066245375 0.116322555 0.4614399 -0.34711272 -0.3069176 0.84270555 -0.30125332
0.43385354 -0.430331 0.4293061 -1.8184998 1.6025232 -1.8438414 1.1616558 0.15054964
0.18004301 -1.0772977 0.033210542 0.8168535 -0.7988144 -0.4319392 0.75734377 0.9308073
1.0528723 0.15603097 0.16297312 0.22941586 1.208219 0.78418374 0.017179932 0.2585714
-0.89138395 0.65358853 -0.2111182 -0.5250761 -0.49733236 -0.80051607 -0.9412361 -0.48084727
-0.14000212 -0.7809638 0.14327203 0.38834953 -1.9820559 0.43097743 0.32599863 0.31733468
0.30138332 -0.92833006 0.82904315 -2.9374468 -1.1360406 0.37030467 0.58391255 0.047980867

net.0.bias f4 [128]
00000000: a4ac 30bd 45d2 a1bf cc6a 203e c6be 47bf
00000010: dd5d d7be 4688 5d3f cf96 9bbf 4f7b 81bd
00000020: a7f9 b0be da33 833e f814 1dbf 25d4 12be
00000030: e686 403f fcf1 ccbe 5729 5dbf d6b9 bbbe
00000040: 8352 a0be fe67 89be fffe 6dbf 437a dcbe
00000050: 3bdd 39bf d986 5fbe 425a 33bf ce3a aabf
00000060: fa75 07be c049 0dbe 3e5b 05bf 4daa 8bbd
00000070: 76ff 11bf e1c9 1cbe cf99 263f 136d 18be
00000080: bd35 80be 9786 4abf 4af6 28bf 6ff1 34bf
00000090: b550 31be e7ee c2be 5d41 33be 30c6 6abf
000000a0: 6dcc 1ebe 642b 233e 304f 773f 02cd 8bbe
000000b0: e8b1 e4be 4dfe 47bf 3b07 38bf c494 f8be
000000c0: 083b 36bf 16e0 bdbe 0571 89bf 58ee 9abf
000000d0: 82c1 60bf 3e37 2abf fef3 1c3f bfa3 91bf
000000e0: e676 afbe c666 2cbf 499d 873d ac57 89bf
000000f0: 2830 553e 04e7 9fbe 4a4f f9be aa7f 93bf
00000100: 8536 cebe 3626 68be 35e0 88be 35d2 32bf
00000110: 0cc7 9e3e 54f4 a2be fc59 30bf b68f 15bf
00000120: 716f ebbd 9d2c 2fbf e677 a93e eda8 0bbe
00000130: ac53 b1be c7d9 ba3e a426 5cbe 9cf4 2b3e
00000140: 503d 7bbf 3233 07be 9039 af3f 57cb 4bbf
00000150: 6076 3c3f ee07 273e cc96 3dbf f888 eebe
00000160: 8295 21bf 76b5 58be 7307 3cbf 6134 50bf
00000170: 1e67 3abf 71df 7f3e 141d 91bf 5c18 0bbf
00000180: 6e75 683f 1a7c 82bf 5007 14bf 4381 97bf
00000190: 0f40 e0be 5434 dabd daaf c13e e6b2 2dbe
000001a0: 6e17 37bf a154 33bf 3772 2e3e 2b79 97bf
000001b0: 3314 d0bd c6ca 173f 2f4a 4bbf accb f3bd
000001c0: 395e 13bf 4af7 c6be a770 d1be 57c0 14bf
000001d0: a4fe 69bf 5230 8bbe ff9d 24bf 09b7 2dbd
000001e0: 87b7 c3be 6ca9 9cbe 584b 7cbf 3bce c7be
000001f0: 5d22 133d 5698 acbe 4ab6 a73d fb7d e4bd
-0.043133393 -1.2642294 0.1566574 -0.7802547 -0.420638 0.8653606 -1.2155398 -0.063223474
-0.3456547 0.25625497 -0.6136012 -0.14338739 0.7520584 -0.4002837 -0.86391205 -0.3666522
-0.3131295 -0.26837152 -0.9296722 -0.43062028 -0.72603196 -0.21828784 -0.700596 -1.3299196
-0.13228598 -0.13797665 -0.5209235 -0.06819592 -0.5703043 -0.15311386 0.65078443 -0.14885359
-0.25041 -0.7911162 -0.6600081 -0.706809 -0.17315944 -0.38072893 -0.17505403 -0.9170866
-0.1550767 0.15934521 0.96605206 -0.27304846 -0.44666982 -0.7812241 -0.7188603 -0.48551
-0.71183825 -0.37085027 -1.0737616 -1.2103987 -0.8779527 -0.6649054 0.613098 -1.1378096
-0.342704 -0.6734432 0.06621797 -1.072988 0.20819151 -0.31230938 -0.48693305 -1.1523335
-0.4027597 -0.22670826 -0.26733556 -0.69852 0.31011236 -0.31827033 -0.68887305 -0.5842241
-0.11495865 -0.6842745 0.33099288 -0.13638659 -0.3463415 0.36494276 -0.21499115 0.1679253
-0.9814043 -0.13203123 1.3689442 -0.79607147 0.73618126 0.16311619 -0.7405822 -0.46588874
-0.63118756 -0.21162972 -0.73448867 -0.81329924 -0.72813594 0.2498758 -1.1336999 -0.54334044
0.90804183 -1.0194123 -0.5782366 -1.1836323 -0.43798873 -0.10654512 0.37829477 -0.16962776
-0.71520126 -0.7005101 0.17035757 -1.1833853 -0.10160103 0.5929378 -0.7941007 -0.11904082
-0.5756565 -0.38860542 -0.4090626 -0.5810599 -0.91404176 -0.27185303 -0.6430358 -0.042410884
-0.38225958 -0.3059801 -0.98552465 -0.3902453 0.035921443 -0.33709973 0.08189066 -0.11156841

net.2.weight f4 [128, 128]
00000000: fba3 43be 984c 19bf f1e4 03be 2fb6 68be
00000010: 1629 85be f35d 40bf de86 93be 63aa 96bf
00000020: 9102 adbe ecc5 1bbf 23f4 a6bc b63d b83e
00000030: cfee 393f 2ed7 f7bf c621 a7bd aa5a 16c0
00000040: 1235 9abf 3608 acbd 827c ae3f ae40 423e
00000050: aed5 0d3f ad0e bd3b 190f 7abf bef2 e53e
00000060: 0b44 91be edca debd 7957 843e e8ed 83be
00000070: 5bbd 4d3f 2ce3 84bf 60de 07c0 da99 6f3f
00000080: a582 89bf 69fe 13c0 ff4d bcbe bb78 a3bf
00000090: c954 20bf 411a 0cc0 769d 393e 3998 2cbf
000000a0: c706 793f eb8d 6c3f f7f0 843f 9f2c 8a3f
000000b0: 23f2 f3be bc2a 89bf c6b7 533f e6a2 a5bf
000000c0: d903 293f 02d7 a93c 210b 9a3e 90ca 0f3e
000000d0: a1de 86bf d5e0 cc3f 1723 993e 1962 d03e
000000e0: efa0 93be 416d 2ebf a15a a73d 80f1 343e
000000f0: 15ad 403f 7e13 033f ed91 a4be 37c8 85be
00000100: 064a 5fbf b879 54bf 4982 34bf 02e2 823e
00000110: 33fd 59be 67e7 5fbc 8a94 57bf 8232 bc3f
00000120: 3092 5bbf e5ed 093f 639f debf d4e0 1e3f
00000130: fe4b 163f 4b9c abbe 2f5d 00bf d4d3 d83e
00000140: 2f2a 783c d139 803f a031 0b3c 26e8 edbf
00000150: 4e16 79bf 9783 4a3f 3d86 a9bd d4a7 d83e
00000160: 71e3 22bf 846b 4bbf 250c 39bf 1773 e1bf
00000170: c267 8f3f 8d20 afbf 9049 a73f e72c 013f
00000180: 61e6 e13e 7c5e 77be 0bb8 ee3c 5b9c 9d3f
00000190: b6da 643e 88a4 65be 21dd f33e bc6c 203d
000001a0: 3ff4 9b3d b9c1 9abe f889 13bf 2509 f6be
000001b0: fb8e fbbe 8482 32bf a998 1f3f 871d 10bf
000001c0: 587e 17c0 ae09 7bbc ee29 3c3d 048d 7ebe
000001d0: cfc9 77be d470 3f3e e820 833e 8075 4ebf
000001e0: 2124 b93e 9c3f fe3e 2482 643f de02 65bf
000001f0: 1b41 6b3f 8258 813f 2e25 0d3f 4cac c93e
00000200: 2a7f 213f 097d 6c3f efe0 413f b5f1 14bf
00000210: e0a9 7fbe 8443 a0bd 069a 233f ba87 b33d
00000220: 66dd 4b3d a150 2b3f 63ea 81bf ed10 903e
00000230: a179 a5bf d0a9 103f a89f dbbf 8388 f9be
00000240: df1f 24bf 66ef d33d e3f7 2c3f 9570 29bd
00000250: 79de 09c0 c218 023e b41b bcbf 7c6e 94bf
00000260: 35ef 8bbe 19c8 5e3e a372 d83d e91e 3a3f
00000270: e234 6c3f 9790 b4bd 3af6 5dbf c107 f2be
00000280: dd6d 1b3f 7b16 bb3f 7d88 3dbf 585a 05bf
00000290: ba04 743e 344e 4d3f d96f 9c3f 90ae 583e
000002a0: fbc9 d7bf 77be 4c3e 6311 bcbf 5e77 66bf
000002b0: 0cd1 8e3f 5529 c53e 1094 a4be 7060 163f
000002c0: 457b 6c3f 2888 483a c2d7 823e 5d4e babe
000002d0: 9477 01bf 885a 29be 7a77 8dbf 4654 e83e
000002e0: f9d5 43be 4ce1 81bf 849f d63f 4bd5 7c3e
000002f0: 8c6e 4fbe 63af 103f 94bc 8abf b221 713f
00000300: f8b8 113e d891 d8be 067e b13e 8911 a6bc
00000310: 9fff e03f 85dc 85bf 77ff b2bd fead 32bf
00000320: 7d5a a2bd 0ed6 c1bf 7180 ec3f 321e 92be
00000330: d35b d8bf a327 9d3e 3f2f 633e 4f75 b0bf
00000340: 1e05 83bf 74e7 57be a41b 99be dbd1 0cbe
00000350: edfc 073f 50f6 b83e bc45 573d 4974 823d
00000360: e381 61bf a801 483f 9d9b a9be 4165 63be
00000370: 2491 85be b71e edbf f08b dfbf adb6 863f
00000380: d828 debd 6f92 d8be 3f3c 52bf 2dc3 b6bf
00000390: 4235 023f b061 c6bf 33f6 2d3f 5381 86bd
000003a0: 7c51 97be c55a 793f f21d b83d 02ca da3f
000003b0: 3025 47bf 5198 20bf 1b97 4a3f 79a1 2abf
000003c0: 2d16 20be 52e2 6b3e 5d6e c83b aee9 353d
000003d0: 24d7 b7bf b2be b13e 9d62 ac3e 7c7c 5ebf
000003e0: caf9 d5bf 790c ac3f 0df6 953f 039b ba3f
000003f0: e9b1 aa3c da56 e7be a3f9 593f 86a1 403f
-0.19105522 -0.598825 -0.12880303 -0.22725748 -0.2600791 -0.75143355 -0.28813833 -1.1770748
-0.3379102 -0.6084888 -0.020380085 0.35984582 0.7263002 -1.9362543 -0.08160739 -2.3492837
-1.2047446 -0.084000036 1.3631747 0.18969986 0.55404174 0.0057695718 -0.9767929 0.4491176
-0.28372225 -0.10878549 0.25847986 -0.25767446 0.8036706 -1.0381827 -2.1229477 0.93594134
-1.0742995 -2.312403 -0.36778256 -1.2771219 -0.6262937 -2.1891024 0.18126473 -0.67419773
0.97275966 0.9240405 1.0386037 1.0794867 -0.47645673 -1.0716166 0.8270229 -1.2940338
0.66021496 0.020732407 0.30086616 0.14042115 -1.0536691 1.6006113 0.29909584 0.40699843
-0.2883372 -0.6813546 0.08171583 0.1767025 0.752641 0.5120162 -0.32142583 -0.26129314
-0.87222326 -0.8299823 -0.705113 0.25563055 -0.21287994 -0.01366601 -0.8421103 1.4702914
-0.8576994 0.53878623 -1.7392391 0.6206181 0.58709705 -0.3351768 -0.50142187 0.42349112
0.015146776 1.0017644 0.008495718 -1.8586471 -0.9729966 0.7910704 -0.08277557 0.42315543
-0.636283 -0.7946093 -0.72284156 -1.7613248 1.1203539 -1.3681809 1.3069324 0.5045914
0.44121078 -0.24157137 0.029140493 1.2313341 0.22349057 -0.22426045 0.47629645 0.039166197
0.076149456 -0.30225924 -0.576324 -0.48053852 -0.49132523 -0.697304 0.62342316 -0.56295055
-2.3670864 -0.015322132 0.045938425 -0.2485848 -0.24198078 0.18695384 0.25611043 -0.8064804
0.36160377 0.49657905 0.8926108 -0.894575 0.9189622 1.0105135 0.55134857 0.39389265
0.6308466 0.9237829 0.75733846 -0.58181316 -0.24967146 -0.078253776 0.63906896 0.08766122
0.04977169 0.66919905 -1.0149654 0.28137913 -1.2927743 0.56509113 -1.7158098 -0.48736963
-0.6411113 0.10348396 0.67565745 -0.041367132 -2.1542037 0.12704757 -1.4695954 -1.1596217
-0.27330938 0.21756019 0.1056874 0.72703415 0.9226819 -0.08816641 -0.86703837 -0.4727154
0.60714513 1.4616235 -0.7403639 -0.5209098 0.23829928 0.80197453 1.2221633 0.2116034
-1.6858515 0.19994532 -1.4692806 -0.9002589 1.1157546 0.38508096 -0.32144213 0.587409
0.92375594 0.00076496834 0.25555235 -0.3638791 -0.50573087 -0.16538441 -1.1052086 0.45376796
-0.19124593 -1.014688 1.676743 0.2469074 -0.20257014 0.5651762 -1.08388 0.9419204
0.14230716 -0.4229877 0.3466646 -0.020272033 1.7578009 -1.0457922 -0.08740132 -0.6979674
-0.079274155 -1.5143449 1.8476697 -0.28538662 -1.6903023 0.30694303 0.22185992 -1.37858
-1.0235937 -0.21084386 -0.299039 -0.13751929 0.5312031 0.36125422 0.05255674 0.06369836
-0.88088816 0.7812753 -0.33126536 -0.22206594 -0.26087296 -1.8524998 -1.746458 1.0524498
-0.10847634 -0.4229922 -0.8212318 -1.4278313 0.50862515 -1.5498562 0.67953795 -0.065676354
-0.29554355 0.9740413 0.089900866 1.7092898 -0.7779112 -0.62732416 0.7913682 -0.6665264
-0.1563346 0.23035553 0.006116672 0.044412307 -1.4362531 0.347158 0.33668986 -0.869087
-1.6716855 1.3441306 1.1715714 1.4578556 0.020836787 -0.4518345 0.8514654 0.75246465

net.2.bias f4 [128]
00000000: 41b4 2cbf 7198 02be d5f5 01ba 70bf 37bf
00000010: 6218 b63e 28c0 23be 47dc 60bc 4a89 52bd
00000020: fc59 15bf ca7e 503f 5157 9ebd e608 4dbe
00000030: 18f0 45be 6ebc a5be b1f3 01bf d0c2 033f
00000040: ce3d 203e 5cc5 2fbe 0956 f93c 0a77 763c
00000050: 79b8 26be 2d90 3fbe fcb1 83bc d084 73bf
00000060: 44bf 51bf d4e8 1bbe 13d2 6abf cded 84be
00000070: b011 1fbf 0f14 c93d 7aac e9be 9fca 46be
00000080: 78fc 7f3e 405c 243f b985 5cbe e674 e9bb
00000090: 3db8 f63b 18e8 4fbe 44dd d4be c5f1 88bf
000000a0: 0457 e2be b74a 1cbe 38ff 6b3e b073 ffbe
000000b0: 88b5 95be 4eee b4be 605c 1e3e 53f4 063e
000000c0: c015 87bf 5a9c 0a3e 6e79 04be bf0b e0bd
000000d0: 9236 583e 9c93 3bbd ea69 03bf 6cf9 aa3d
000000e0: 929b 60be 278b 1ebf 4cc6 4fbe 7ba3 80bf
000000f0: aed6 30bf 00db 1abf f2e8 903d 5a68 e9be
00000100: bfca 23bf 6ca6 363c 7902 0abe 0efd aa3e
00000110: 1684 97be f969 cdbe f01d a8be 4077 21bf
00000120: 9a32 abbe c220 20be 6c19 9abe 2178 ffbe
00000130: ac8d 33be 22f3 66bf 6972 c1bd bbbd 0abd
00000140: 000f f5be 309d 33bf 7907 08bf e966 09bf
00000150: 9394 b6be c3f4 29be 4621 21bc 0c74 65be
00000160: 8cb0 ea3e a348 8abe c1d5 4dbf 5573 cebd
00000170: a239 563d 19fa ec3d 299c 20bd 1442 023a
00000180: b9f5 2abe 647e a6bc 3a2c 7a3e fca1 29be
00000190: 8f65 c9bc 7e40 80be d14f 2d3e 27a6 1fbf
000001a0: fd7a b23d e7fc 81bf 6a71 c6be c519 54bc
000001b0: 6cde a3be 2f66 183e 0009 b63e 07f2 99bd
000001c0: b14c 9dbe 9df9 8a3e 76b7 44bf 4036 bfbe
000001d0: 487b 1b3f 913c 9abe 4e72 0abf dfd6 77be
000001e0: bc86 0fbf 5002 6cbe f34c a4be d5b9 1cbf
000001f0: 6c64 11be 9fd3 9ebe 8e0c 74be 889e bbbe
-0.67462546 -0.12753464 -0.00049575913 -0.71776485 0.35565478 -0.1599127 -0.013724393 -0.05140046
-0.5834043 0.81443465 -0.07731498 -0.20022926 -0.1932987 -0.32370323 -0.5076247 0.51469135
0.15648577 -0.1716513 0.030436533 0.01504303 -0.16281308 -0.18707342 -0.01607608 -0.9512453
-0.81932473 -0.15225536 -0.917268 -0.25962678 -0.62136364 0.09818279 -0.45639402 -0.19413231
0.24998653 0.6420326 -0.21535386 -0.007124531 0.007529287 -0.2030338 -0.41575062 -1.0698782
-0.44207013 -0.15262876 0.23046577 -0.4989295 -0.2924006 -0.35338062 0.15464926 0.1317914
-1.0553513 0.13536206 -0.12936947 -0.109397404 0.21114567 -0.04579507 -0.5133349 0.08348355
-0.21934345 -0.6193108 -0.20290488 -1.004989 -0.69077575 -0.6049042 0.07075681 -0.45587426
-0.6398124 0.0111480765 -0.13477506 0.3339619 -0.2959296 -0.40119913 -0.3283534 -0.63072586
-0.33437043 -0.15637496 -0.3009752 -0.4989634 -0.17534512 -0.9021474 -0.0944565 -0.033872347
-0.47863007 -0.70161724 -0.531364 -0.53672653 -0.35660228 -0.16597275 -0.009834593 -0.2240755
0.4583782 -0.27008542 -0.8040429 -0.100805916 0.052301057 0.1157114 -0.039211426 0.0004968953
-0.16695298 -0.02032394 0.24430934 -0.16565698 -0.02458456 -0.25049204 0.16924979 -0.62362903
0.087148644 -1.0155305 -0.38758403 -0.012945597 -0.32005632 0.1488273 0.3555374 -0.07516866
-0.30722573 0.27143565 -0.7684244 -0.37346077 0.6073499 -0.30124334 -0.54080665 -0.2420306
-0.56064963 -0.23047757 -0.32089958 -0.6122106 -0.14198464 -0.3102083 -0.23832914 -0.36644387

net.4.weight f4 [128, 128]
00000000: 4b87 e4be e96e 043f 779e 23be 600a d4bf
00000010: 432b 3f3f 4d3a a1be 69bf a23f 1a71 9ebe
00000020: faa4 653e 5bac 10bf 7087 4b3f 0c37 753f
00000030: 1034 3cbf f8cd 523e f27c 803e e742 aebe
00000040: 0a30 fbbf 0c04 27bf b63b 20bf 48b5 d03e
00000050: c6d5 253f 45bf cfbb 8ea1 103f a463 8fbf
00000060: c004 d1bf f36d febe 55ee a83e f42e b5be
00000070: f3fa dcbd e3e0 c73e b14b 04c0 ae60 463f
00000080: 7916 a8bf 0145 9a3e 6dd3 eb3e 22aa f8bf
00000090: d157 033f da3f f1bd e99f a8be a23a efbe
000000a0: a87d bf3e 8124 bf3d d589 b4be 1b5b c93d
000000b0: 19fc 093f 30e7 2e3f df06 85be ce27 36bf
000000c0: 955a c0be 7be6 d83d d5ea 2dc0 16cd 29bf
000000d0: b3af 503d 5e11 c7bf 8693 d6bc 82ca c1bf
000000e0: ec52 2b3f ecc6 dabe 43df 97bf 6c33 a8bd
000000f0: ad22 10be 4376 2d3c 54ec 273f 1a4f c23e
00000100: 2656 5ebf 8dd1 e83e 0536 193e e357 d03d
00000110: 6077 d4be 09be 913f 824b 653f b593 82be
00000120: de10 33c0 1316 6ebe 92a5 a5be 6fdf f9bf
00000130: 1784 99bf 1954 123f 6740 0b3f db88 a8bf
00000140: 9650 18bf efa4 353f 0ee5 f5bf 3f31 8e3e
00000150: da90 7ebf bf81 08bf ae9d 8c3e 7aba 8fbf
00000160: 3200 3bbf a20f b4be 329a 9c3f 2d66 1c3e
00000170: c3d4 8bbf 482f 12c0 ee6c 7fbf 6796 ed3e
00000180: ee54 ce3f bc5b 42bf f8ed d1be eca0 873f
00000190: 5720 fcbe 2852 aebf 4080 5b3f 26de 2dbf
000001a0: d810 903e 2f0c 89bf 9718 013d 39ff 1cbf
000001b0: f5db ac3f f5fd f23d fa22 1cbf 23f6 3cbf
000001c0: 55e7 71bf 86ae 81be 09c6 e3be 29c5 323f
000001d0: 36f2 363d aa30 a63e 93e6 a0be ef21 5abe
000001e0: 98bb 133f b157 d83d aa49 8ebd 1a60 243f
000001f0: c00e 3e3f 9f13 a1bf 5db5 193d b2b4 a8bf
00000200: 1362 47bf 89bb 67bf b091 67be 4aba bbbd
00000210: 726d 1f3f d58c 5f3e 4975 a13d a76a 42bf
00000220: 76d7 7b3e dde8 55bf 1444 ab3e cc96 12be
00000230: 4522 5d3e 625c e4bd 5614 423f 1713 33bf
00000240: d711 b7bd 10bd 10bf d03e 353e 4b4c ddbe
00000250: de78 f9be 2a2e 023d d442 e43e 60fd 553f
00000260: ae4d 7ebf 7283 5dbf 04ff 4d3d 4244 28be
00000270: 8f96 aabe 8112 4ebf d17e 023f bbdd 36bf
00000280: bea3 c3bf 4960 64bf 968a 783e a4a3 69bf
00000290: c705 7cbf 98b8 863f 36b8 1bbf d4a3 00be
000002a0: 3e47 5abf 2104 c83e e271 4a3f 166e 4bba
000002b0: a3da 5c3f 0255 ab3e 055c 0e3f 9448 b23e
000002c0: 6e5f 54be 1e14 c5be 95b1 b13d 7cca 5a3e
000002d0: f98c 5fbf a658 18c0 ceec 4bbf 99a9 7cbf
000002e0: 67ea 673f 95a5 3a3e cf4e bebf a273 10bf
000002f0: e463 66bf eea2 a3bf eab1 e63c b3e2 b6be
00000300: dbe2 0bbf 8c75 27bf 1ae7 c7bb 4487 23bf
00000310: 2655 8a3e 3485 f23e 48fe 04bf ebcb 9cbf
00000320: a31a 3c3e 9eff 3b3f b92d aabf 66fc 373e
00000330: 4c11 9abe 0d0b 693f d8f2 ee3e 2d59 c5be
00000340: d064 ab3f 723b a33e e5c5 bbbe 5cd3 893e
00000350: 4e12 723f be72 2f3f f09d 1d3e 3c6c dbbe
00000360: 356e 94bd f8b8 a2bf 8ddc ce3e 1047 ab3f
00000370: 6f2c 0dbf fc28 5f3f 2967 9d3f 5d7e 0a3f
00000380: 714a 873f 2cd2 69bf 4afa fa3d 3b87 2f3e
00000390: decc 303f e9aa 533e 479e b83e 7997 2b3f
000003a0: ebeb 693e ebe6 8d3e fee4 c2be 17a6 58bf
000003b0: 1971 8fbf d53d 673e 8d6f 3a3f 6332 8cbf
000003c0: 951f 223f 8d25 003f 18fc 7a3e e3fc fcbf
000003d0: 72a6 e8bd 7b50 eebd 7ab0 58bf b6d4 963f
000003e0: df81 91bf b3cf 91bf fa4f 113f 1cf8 8b3e
000003f0: d39b 73bf 10d9 5a3d fb60 be3e e458 a83e
-0.4463447 0.51731735 -0.15978418 -1.6565666 0.7467539 -0.31489792 1.2714664 -0.30945665
0.22426215 -0.56512994 0.79503536 0.9578712 -0.7351694 0.20586383 0.25095326 -0.34035417
-1.9624035 -0.6524055 -0.6259111 0.40763307 0.6477932 -0.00633994 0.5649651 -1.1202283
-1.6329575 -0.4969326 0.32994333 -0.35387385 -0.10790052 0.39038762 -2.0671198 0.7749127
-1.3131858 0.3013077 0.46059743 -1.942692 0.5130587 -0.11779757 -0.32934502 -0.4672442
0.37400556 0.093331344 -0.35261407 0.0983183 0.53900295 0.68321514 -0.25981805 -0.7115449
-0.3756911 0.10590836 -2.717458 -0.6632856 0.05094881 -1.5552175 -0.026193392 -1.5139925
0.66923404 -0.4272989 -1.1865009 -0.08212933 -0.14075728 0.010587278 0.65594983 0.37950975
-0.868502 0.45472375 0.14962013 0.10173013 -0.41497326 1.1386119 0.8956834 -0.25503317
-2.7979045 -0.23250608 -0.32352883 -1.9521312 -1.1993436 0.5715957 0.54395145 -1.3166765
-0.59497964 0.70954794 -1.9210527 0.27771947 -0.99439776 -0.53322977 0.2746405 -1.1228783
-0.73047173 -0.35168177 1.2234557 0.15273352 -1.0924305 -2.2841358 -0.9977559 0.4640381
1.6119668 -0.75921226 -0.41001868 1.0595984 -0.49243423 -1.3618822 0.8574257 -0.67917097
0.2813785 -1.0706843 0.03151759 -0.6132694 1.3504626 0.11864845 -0.6099087 -0.73813075
-0.9449361 -0.25328463 -0.44487026 0.6983209 0.044664584 0.32459003 -0.31425914 -0.21302007
0.5770812 0.10563601 -0.06947644 0.6420914 0.74241257 -1.2584113 0.037526477 -1.3180144
-0.77884024 -0.9052053 -0.22614169 -0.09166391 0.62276375 0.21831067 0.078836985 -0.7594399
0.2459391 -0.83558446 0.33450377 -0.14315337 0.21595104 -0.11150433 0.7581228 -0.69951004
-0.089389496 -0.56538486 0.17699742 -0.4322227 -0.48725027 0.031782307 0.44582236 0.83589745
-0.9933728 -0.86528695 0.05029203 -0.16432288 -0.33317992 -0.80496985 0.50974756 -0.71432084
-1.5284345 -0.8920942 0.24271616 -0.9126532 -0.98446316 1.0525084 -0.6082796 -0.12562495
-0.85264957 0.3906565 0.7908002 -0.00077602395 0.86271113 0.33463293 0.5560916 0.34820998
-0.20739529 -0.3849191 0.08676449 0.21366304 -0.8732448 -2.3804107 -0.7965821 -0.98696285
0.90592045 0.18227227 -1.48678 -0.5642644 -0.8999617 -1.2784097 0.028161008 -0.35719833
-0.5464303 -0.6541374 -0.0061005475 -0.63878274 0.27018088 0.4736725 -0.519505 -1.2249731
0.18369536 0.73436916 -1.3295203 0.17967376 -0.3009132 0.9103249 0.4666965 -0.38544598
1.339014 0.3188129 -0.3667442 0.26919067 0.9455918 0.6853446 0.1539228 -0.42856014
-0.07247583 -1.2712698 0.40402642 1.3381062 -0.55145925 0.8717191 1.2297107 0.54099065
1.0569593 -0.9133632 0.1225477 0.1714143 0.690626 0.20670666 0.36058256 0.67028004
0.22843902 0.2771524 -0.38065332 -0.84628433 -1.120639 0.22582181 0.72826463 -1.0952877
0.6332944 0.500573 0.24510229 -1.9764675 -0.11359872 -0.11636444 -0.8464428 1.1783664
-1.1367759 -1.139151 0.5676266 0.2733773 -0.95159644 0.053429663 0.37183365 0.32880318

net.4.bias f4 [128]
00000000: 4936 483f ba73 76bf 584d 4dbf 00dd f7be
00000010: 37c8 a6be 8394 b9bf 7bf4 a0bf 1e33 97bf
00000020: 4322 5bbf 4070 5bbf e0bf 58bf 4996 2bbf
00000030: 50d7 5b3e 8bb1 94be c6cd c1bf f2da ccbe
00000040: 8f62 21bf 323c aebf f53b 92bf 0319 d5bf
00000050: 6584 44bf 2120 d7bf 1386 8bbf fd74 42bf
00000060: be4a a3bf 643e 21bf ccfd 6abf 6b38 88bf
00000070: 4a9e 87bf 0712 47be 7337 87bf f5b3 cd3e
00000080: 3faa 5fbf 20c9 a1bf 6dac 4ebf 60fb b7bf
00000090: 6441 e3be 71f8 81bf 295c 80be 3d80 ddbf
000000a0: eb8a 0ebe dacd 59bf 9c23 1cbf b1d9 dbbe
000000b0: da54 75bf a77c 6abe e4b6 043e f8da 07be
000000c0: 0165 d9be 6eba ecbe 0bd8 8fbf c1e9 99bd
000000d0: d312 61bf 1c53 ebbf 41a7 063e 781b 09bf
000000e0: eb5c adbe 814d 34bf 75b0 52bf 05ae 23bf
000000f0: 30cf a1bf fc5b 39bf 346b 3dbf 951c c6bf
00000100: c0c7 2abf 75be c0bf fc6c c3be 5e85 05bf
00000110: a49e 70bf e90a 63bf e795 53bf 07a5 18be
00000120: 0f98 a1bf 5958 50bf 1699 9bbf f2a7 b3bf
00000130: 451f 77bf f1a8 c6bf b17b 38bf 9a6a 3fbf
00000140: 7da7 56bf 4b37 cebf ca08 62bf a410 2d3d
00000150: c6ec 9bbf 297a 8ebf 181e b8bf e66b 13bf
00000160: 80b1 40be c9e3 04bf 5e4f c7be 4faa 95bf
00000170: 7cd6 8fbf 01ab 3abf c56a 583e 19d1 68bf
00000180: 29de a9be f6f3 f2be e48c c2bf db89 3bbf
00000190: d25f 463e 22ca 05bf b8d0 30bf d1c3 8cbe
000001a0: f456 28bf c50b 97be 13d4 c1bf 8070 4dbf
000001b0: 19c7 77bf 085c a0bf d43b 92be 2fb1 a6bf
000001c0: d690 24bf ad4b 5cbe 1a22 5abf 1065 d4bd
000001d0: 033c 2abf 2a27 79bf 599f 5abf 4bc4 9dbf
000001e0: 9e2a d6bf 2c74 4dbf 8e33 85bf 648c 49bf
000001f0: ee33 87bf 8b37 31bf 582f 22bf 1069 44bf
0.7820783 -0.96270335 -0.8019614 -0.48410797 -0.32574627 -1.4498447 -1.257461 -1.1812475
-0.85599154 -0.85718155 -0.8466778 -0.6702619 0.21468854 -0.29041705 -1.5140922 -0.40010792
-0.63041013 -1.361212 -1.1424547 -1.6648258 -0.7676452 -1.680668 -1.0900291 -0.7595976
-1.2757185 -0.62985826 -0.91793513 -1.0642217 -1.0595181 -0.1944047 -1.0563797 0.4017636
-0.8736915 -1.2639503 -0.8073185 -1.4373589 -0.44385827 -1.0153943 -0.25070313 -1.730476
-0.1392018 -0.8507973 -0.60991836 -0.42939523 -0.958326 -0.22899114 0.12960392 -0.13267124
-0.42459872 -0.46235985 -1.1237806 -0.07515288 -0.8791935 -1.8384738 0.1314974 -0.5355754
-0.33859953 -0.7043076 -0.823005 -0.6393741 -1.2641354 -0.7240598 -0.73991704 -1.5477473
-0.66711044 -1.5058123 -0.38169086 -0.5215663 -0.93992066 -0.8868852 -0.8265061 -0.14906703
-1.262453 -0.8138481 -1.2156093 -1.4035628 -0.9653209 -1.5520307 -0.7206374 -0.74772036
-0.83849317 -1.6110624 -0.8829466 0.042252198 -1.2181633 -1.113103 -1.4384184 -0.57586515
-0.18817711 -0.5191007 -0.3892774 -1.1692599 -1.123733 -0.7291718 0.2113448 -0.9094406
-0.33177307 -0.47451752 -1.5199246 -0.73257226 0.1937249 -0.52261555 -0.6906848 -0.27493146
-0.6575768 -0.29501167 -1.5142845 -0.80249786 -0.96788174 -1.2528086 -0.2856127 -1.3022822
-0.642835 -0.21513243 -0.85208285 -0.10370839 -0.6649782 -0.97325385 -0.85399395 -1.2325529
-1.6731756 -0.8025539 -1.0406358 -0.78729844 -1.0562723 -0.69225377 -0.6335349 -0.7672281

net.6.weight f4 [7, 128]
00000000: a179 c43e 7172 ec3e bad3 123f 6246 b03e
00000010: d012 c9bf 7e0b c4be c765 58bf f025 293f
00000020: ad1c 293f 17ad e13e a0ca 743f 477f 423f
00000030: 3719 1b3e 182b ac3b f50e 423f 6fa4 a23e
00000040: 1a1b 813f 92c5 e1be 2cfc 283f ec4d 81be
00000050: 8ba3 f53e f22c 143f 6207 b6bf bd49 403f
00000060: cff5 843e 4d19 603e a9f0 1c3f de37 843e
00000070: 63a7 9e3e c007 0f3f 167f 3bbe 1d25 2fbf
00000080: 755d 143f 76bf 0abe acef 07bf 75c8 333f
00000090: 0f2d c0be 4e9a 893e 806a af3d 22de d93e
000000a0: 0b2e 893e aab0 82be fb3c 153d 95ff 0b3e
000000b0: 05f8 243f 7bcf 2a3f cb1e 0bbe e22b 8b3e
000000c0: 3b92 78bf 1e4a 3ebf 00d3 ccbe 30b1 e23e
000000d0: 7f85 5f3d a399 593f 06b0 643f c237 49be
000000e0: 880c 9cbf cf50 6cbe 2768 983e ea23 7f3e
000000f0: 18af 18bf f9c1 3c3f a246 7f3f ccef 4abd
00000100: c718 50bd bb49 1c3e 90ef c43e 34ea 7d3f
00000110: bb20 8c3f d8d1 323e 2a90 b33e f8e9 cc3e
00000120: 644f 18bf a744 653f 0a60 ddbe 1e5a 683f
00000130: bc23 0a3f aa4e ec3d 7233 adbe 4d44 2a3f
00000140: c4ea 4a3f 0300 cd3e 8268 09be 1207 b1be
00000150: 0a18 263f 0b80 453d 92a8 ab3e e92b 36c0
00000160: 6c95 fe3e 2fc3 3f3f d439 233e 3a64 4f3f
00000170: f127 803e f9b8 353f 1511 f03e 9ab9 163f
00000180: 5ddf 60bc 0ef1 683f 4a8f cfbd 39ed b83d
00000190: 6ba9 74bc cc2f 3b3e 100c f53e 18e5 0d3f
000001a0: f515 7a3f 4f97 e73c 5b35 da3e eea5 12bc
000001b0: 9d1e 2abe 015f 953c bb47 bc3e f33f d93d
000001c0: 3228 19bf 8ca5 1d3f 0ed6 90be 8082 243f
000001d0: d232 1c3f 1495 523f bd56 cfbe 1856 5b3d
000001e0: 97e3 ff3d 7971 82bc f7ff 323d c03b 0ec0
000001f0: dd69 1a3f 1406 cb3e 1fef 0c3e b921 7c3f
00000200: ec0b 0dbc f112 813f c81f f7bd b2d6 af3e
00000210: c42d 38bd 3322 f23e deff 073f 5bda 7e3e
00000220: 1937 093f 9e3e 563f de07 263f a0c9 18bf
00000230: 18de c73e 528e 293f 7676 2d3f cb31 663f
00000240: 544b 163e 17c9 883e c6f4 293f 793d 983d
00000250: 45fd 9b3e 87f1 40be db3a fcbc b2e7 78bd
00000260: b2a0 473f bea1 d13e 62b8 5dbf dadb 60be
00000270: b46b 103f f601 d7be 2fd9 52bc b98b cebf
00000280: 0888 493f 8ca6 2dbd 91ed f6bd 857a 5a3f
00000290: 2699 e23e 867a 493f 29eb fbbe c46d 0d3e
000002a0: 5e89 df3e 61a4 c53e 71fb 973e d8a0 ddbd
000002b0: 0e5a 923c d995 4e3d c7d4 5b3f 0146 483f
000002c0: dceb 803f 2bc1 283f 63ae 213f 97b8 6b3f
000002d0: 6b84 1b3e 9b12 80be 53ab 0f3f 0f01 493f
000002e0: 0b37 12c0 8424 763e be7d a23f c33a 203f
000002f0: 8676 fcbd 3261 253f bc29 903f 8621 bc3f
00000300: 9ff3 6cbe 4138 4fbf 8856 293f 1108 d73e
00000310: 33bf e33d 6b8a 2cbf 01fa ab3a 0b8f 533f
00000320: eb88 6cbc d6f3 f23e 5706 5dbe 3937 413c
00000330: ceb1 2c3f 2511 823f 57b4 143f 5105 a5be
00000340: 6047 ee3e ad5b 81bd a6f6 003f aa6c 033f
00000350: 297c 553f cf93 323f 5fda d53e efe4 00bf
00000360: 1b3d b43e 69c4 64be cd99 573e 0142 92bd
00000370: 4c66 643f a4dc 69be b9f3 953e 041a a1be
00000380: 6070 413f 806c 423f 717f 80bf 118a f03e
00000390: fc7d 053f a4ad 4c3f c562 123f b8d9 80be
000003a0: 5b3d 4b3f 0aa0 493e 8281 a23e c11d 10bf
000003b0: c66e 9f3e ee87 c93e c6b0 593f 677f 383f
000003c0: 1ff0 483f 7279 78be 8ba6 94be 3a2f 143f
000003d0: e292 0c3e 0d40 6c3e 6016 523e edff e6be
000003e0: 3de4 d33e 3b27 5e3f b007 0c3f bef3 9cbf
000003f0: 0b7c 05bc f00f 133f a646 28bf 97a4 7e3f
0.38374045 0.46181062 0.5735432 0.34428698 -1.5708866 -0.38290018 -0.845303 0.66073513
0.6605938 0.4407737 0.9562168 0.7597546 0.15146337 0.0052541606 0.7580407 0.31766078
1.0086396 -0.44096047 0.66009784 -0.25254762 0.47976336 0.5788108 -1.4221003 0.75112516
0.25968787 0.21884651 0.6130472 0.25823873 0.3098708 0.558712 -0.18310198 -0.68416005
0.57955104 -0.13549599 -0.53100085 0.7022775 -0.37534377 0.26875538 0.08565235 0.42552286
0.2679294 -0.2552541 0.03643511 0.13671716 0.6444095 0.6672284 -0.13585965 0.27181917
-0.9709813 -0.74331844 -0.4000473 0.44275808 0.05457067 0.85000056 0.8933109 -0.19650176
-1.2191324 -0.23077701 0.29766962 0.24916044 -0.5964217 0.7373348 0.9971715 -0.049545094
-0.05080488 0.15262501 0.38464022 0.9918549 1.0947489 0.17462862 0.35070926 0.40022254
-0.5949614 0.8955788 -0.43237334 0.9076251 0.53960776 0.115384415 -0.33828312 0.6651047
0.79264474 0.4003907 -0.13418773 -0.34575707 0.6488043 0.048217814 0.33527046 -2.84643
0.49723375 0.749072 0.15940028 0.8101231 0.25030473 0.7098537 0.46888033 0.58876956
-0.013725129 0.9099282 -0.10134752 0.09029622 -0.0149329705 0.18279952 0.47860765 0.55427694
0.97689754 0.028270392 0.42618832 -0.0089506935 -0.1661324 0.018233778 0.36773476 0.106079005
-0.5982696 0.6158073 -0.2828831 0.6426163 0.61015046 0.82258725 -0.40495864 0.053548902
0.12494581 -0.015923249 0.04370114 -2.2223969 0.60317785 0.39653075 0.13763092 0.98488957
-0.008608799 1.0083905 -0.12066609 0.34343487 -0.04496552 0.47291717 0.531248 0.24887984
0.535997 0.83689296 0.64855754 -0.59682655 0.39036632 0.6623279 0.6775888 0.8991973
0.14677173 0.2671592 0.6638912 0.074336 0.30466667 -0.18842135 -0.030789783 -0.060767837
0.77979577 0.40943712 -0.8660947 -0.21958867 0.5641434 -0.41993684 -0.012869163 -1.613639
0.7872319 -0.04239516 -0.12057031 0.853432 0.44257468 0.7870258 -0.4920285 0.13811404
0.4365949 0.38601974 0.29684022 -0.10821694 0.017865207 0.050435875 0.8587155 0.7823182
1.0071979 0.6591975 0.6315672 0.92078537 0.15187232 -0.25014195 0.56120795 0.7851724
-2.2846096 0.24037367 1.2694623 0.62589663 -0.12327294 0.64601433 1.1262736 1.469773
-0.23139809 -0.8094521 0.6614766 0.41998342 0.11120453 -0.6739871 0.0013120772 0.8264014
-0.014436941 0.47451657 -0.2158445 0.011792951 0.6745881 1.0161482 0.58087677 -0.3223062
0.4653883 -0.06316314 0.50376356 0.51337683 0.8339258 0.6975679 0.41768166 -0.50349325
0.3520287 -0.2234055 0.21054764 -0.071414955 0.8921859 -0.22838074 0.29287508 -0.3146516
0.75562096 0.7594681 -1.0038892 0.46980336 0.5214536 0.79952455 0.5718196 -0.25166106
0.79390496 0.19689956 0.31739432 -0.562954 0.311392 0.3936152 0.8503536 0.720694
0.78491396 -0.24265078 -0.29033312 0.5788456 0.13727906 0.23071308 0.20516348 -0.4511713
0.4138507 0.8677861 0.5469923 -1.2261884 -0.00814725 0.57446194 -0.657328 0.99469894

net.6.bias f4 [7]
00000000: 5c10 cbbe feb2 91be cb96 5f3e f378 e63f
00000010: 7286 dabe 97a2 91be 9596 8e3d
-0.3966092 -0.28456873 0.21834867 1.8005661 -0.426807 -0.2844436 0.06962315
