experts/DQN/net_configs/agent_dqn.pth (torch, 59359 bytes, 10 tensors)

net.0.weight f4 [4, 1, 3, 3]
00000000: 53ea c4bf 2229 89bf e24c b1be 7f66 993f
00000010: 2d4c 00bf 524c 10bf ce87 febf 392a cfbe
00000020: 7a69 febe 5a98 773f d8fc 053f 15e5 5b3f
00000030: f422 4c3f 91e5 3dbe f81b 53bf 3df2 dfbe
00000040: cb4f 68bf fbc8 c43f 047b 2c3f f7c8 83bf
00000050: da57 dc3f a2ef 24bd efe4 e8be aa04 853f
00000060: c722 d3bd cddb 20bf 4701 61bf d8f3 1bbe
00000070: 04fa 493f 74be ce3e 3073 aabe 01b8 1f3e
00000080: 8fba b13f 1830 98bf e239 dc3c df11 fabd
-1.538401 -1.0715678 -0.3462897 1.1984404 -0.50116235 -0.56366456 -1.9885194 -0.404619
-0.49689847 0.96716845 0.52338934 0.85896426 0.79740834 -0.18544604 -0.8246455 -0.437395
-0.90746754 1.5373834 0.67375207 -1.0295705 1.721431 -0.040267594 -0.45487162 1.0392048
-0.103093676 -0.6283539 -0.87892574 -0.15229738 0.7889712 0.4037968 -0.33291006 0.15597536
1.3885058 -1.1889677 0.02688307 -0.1221044

net.0.bias f4 [4]
00000000: adcc 34bf 88e1 c7be f157 a93d c8cc 393e
-0.7062481 -0.39039254 0.082687266 0.18144524

net.3.weight f4 [64, 80]
00000000: caf8 47bf 657e 873e 224a c33f 3710 31be
00000010: 5014 56bd 774a bd3e a76e 4f3f bab3 b43e
00000020: 3513 ee3f d551 12bf 181f 9dbf efc4 1fbf
00000030: 7c4a ab3f 046f f13f 725d 1abf 0905 81bf
00000040: cb71 c13e dfc0 b43f da24 c5be 6b7d 15bf
00000050: d002 e2bf 76d7 aabc 5f4b b03e 173e 113f
00000060: ab88 af3f 859a a03f 51e9 813d 9ad3 843e
00000070: f06c ae3d 2604 20bf 5eea 033c 3c19 3fbe
00000080: 52a5 bf3f 7c88 ff3e 6bf0 81bf d6ef 303f
00000090: 87bb 97be b903 613e 1e2d 32bf 49ea e9be
000000a0: d990 33be 0799 bb3f fc89 fabe b40a 0e3f
000000b0: 1f05 f13f 954e 0ebf 65d6 943e 9bea 0140
000000c0: 3a89 a0bf 94f4 a7be 70ff 88bf e318 583f
000000d0: 119e eabe 5a12 7fbf 0f5d 0fbe f834 053f
000000e0: 5df1 29be f95c 4e3f c723 903e b236 e03d
000000f0: 2de0 6b3f 8cf8 88bf aacd ab3e c84a 333f
00000100: 649b 8d3e 0f94 bbbf 117d b0bf 8bfe 9cbe
00000110: 7227 60bf 2004 e0be 188d 463f e405 40bf
00000120: d1da 043f 61dd 0040 9d79 0abe d457 5cbf
00000130: ba26 2abf d3e9 1e3e d347 863f 1b91 083f
00000140: 47d3 0d3e ad27 a83d feb5 16be 856c 0d3e
00000150: d511 723f 7f8d 3fbe 8f6c 373f 7347 1240
00000160: 72f5 663f 101d 223e f101 383f 18cb 1640
00000170: 1a02 623f 3990 abbd b1fc 893f 9210 863f
00000180: 01ac c63f 48b5 df3f 3678 ce3e 3f5f a43f
00000190: acaa dcbe 7817 3e3f 89c7 a13f 0b03 303f
000001a0: cbe5 8c3f bba9 11bf cd50 0e3f f989 513f
000001b0: 6c47 9a3e 8f84 f53e 4bb3 9d3f 6cf8 193e
000001c0: 1a94 4fbf 0fe6 783d 6f77 633f 1270 0dbf
000001d0: 2408 e6be 4637 16bf 3996 9abe d0a6 9d3f
000001e0: 5055 0a3f 236a 603b 3b3b 39bf 685f 893f
000001f0: 4975 dabf 83b0 a23e 63e5 953f d6d9 74bf
00000200: 36cd 813e 3391 ffbf 5b2b bebe 3f5c cd3f
00000210: 2137 c63b da07 1a3e 21a5 51bf 1891 4cbe
00000220: 63e6 dfbb 74fd 7e3e 6333 85bf e952 823f
00000230: ce3c fd3b e02c 90bf 3ee0 79be e845 353f
00000240: 3a79 25be c005 b2bd 6fe8 9f3d 87f4 a63e
00000250: 15d9 3b3f 1d18 dc3e 37ac 07c0 a652 70bf
00000260: 9d71 423f 7cb6 d43d d36c 32bf 92d8 01c0
00000270: ac48 14bf 5b92 0c3f dbd0 96be c19e 8f3e
00000280: 0266 cd3e 24e4 c93e 4ff2 1abf b0f9 a03f
00000290: ed1d 39be ea59 f5be 73ce 2b3f e05e a03e
000002a0: d2da a33f 389e 0f40 e84c df3e c548 053d
000002b0: 1023 11bf 6b0d 05be 426e 853f 4494 51bf
000002c0: 4f9e 96bf 20cc 613f dbc1 86be e073 94be
000002d0: 587c c93e 746e 8d3e d74b 353f ed2c a9bf
000002e0: 84f5 8abd ac65 673e 1af9 8bbe ec5a 5cbf
000002f0: 8bcc 29b9 d28a d93f f6d6 283f ba80 733d
00000300: 6d23 3fbf 4927 75be 6b3d fc3f 1fab 483d
00000310: f2a5 093f 58af 9bbe 608c a5bf 819d aa3f
00000320: b9e6 c8be 6d8a b83e d918 003e c9f9 e23e
00000330: acff 9d3f 7cab 61be 4868 083c 1bfe 1dbf
00000340: e39a 4b3d a45c ac3e 4e4d d7bf 1f10 c1bf
00000350: 04b5 113f 9638 bebf 2bd1 dc3f 68c9 b03f
00000360: 48c5 90bf 6682 c6bf c681 5abf c95a af3e
00000370: c28b f13e 268e 74bf 6eca 1dbe 6aec 86be
00000380: 12d4 c4bf d91d 103f 00fd 2bbe e57c a8be
00000390: dfbf 00bf 835f 0fbe 592a 3e3f c992 b43f
000003a0: 8f28 85bf fccc a93b 7d7d 17be 7308 e53e
000003b0: f390 ad3e 5cc6 26bf 275d b4bf 9e33 ddbe
000003c0: 8f95 513f 4e13 83bf 62b9 173f 1ebe 563f
000003d0: 931c e83f d7a1 fa3f 15d0 313f ef5b d13f
000003e0: 0782 2bbe ce44 0c3e 9744 f7be 2540 8ebe
000003f0: ee1d e4be ca8f e13f eaef 933f d4e6 3d3e
-0.78113997 0.2646362 1.5256999 -0.17291342 -0.052265465 0.36970875 0.8102822 0.3529337
1.8599612 -0.57156116 -1.2275114 -0.6240987 1.3382106 1.8862004 -0.60298836 -1.0079662
0.3778213 1.412136 -0.38504678 -0.583945 -1.7657108 -0.020854693 0.34432504 0.56735367
1.3713583 1.2547156 0.0634333 0.2594269 0.08516872 -0.6250633 0.008051483 -0.1866197
1.4972327 0.49908817 -1.0151495 0.6911596 -0.2963526 0.21974076 -0.69600093 -0.45686558
-0.17535724 1.4656075 -0.489334 0.5548508 1.8829688 -0.55588657 0.2906982 2.0299442
-1.2541878 -0.32803786 -1.0702953 0.84412974 -0.4582372 -0.9963738 -0.14000343 0.5203395
-0.16595979 0.80610615 0.28152296 0.10947932 0.9213894 -1.070085 0.33555347 0.7003598
0.27657616 -1.4654559 -1.3788167 -0.3066295 -0.8756019 -0.43753147 0.7755904 -0.7500899
0.5189639 2.013512 -0.13522954 -0.86071515 -0.6646534 0.15518884 1.0490669 0.53346413
0.13850127 0.082106926 -0.14717862 0.13810928 0.9455846 -0.1870632 0.7165002 2.285611
0.9021827 0.15831399 0.7187796 2.3561459 0.88284457 -0.08377118 1.078024 1.0473807
1.5521241 1.7477198 0.4032609 1.2841567 -0.43098962 0.7425456 1.2639018 0.68754643
1.1007627 -0.56899613 0.5559204 0.81851155 0.30132616 0.47952697 1.2320341 0.15036172
-0.8108536 0.060766276 0.88854116 -0.5524913 -0.44928086 -0.5867809 -0.30192736 1.2316532
0.54036427 0.003424295 -0.72356004 1.0732241 -1.7067043 0.31775293 1.1710628 -0.9564489
0.25351876 -1.9966186 -0.37142453 1.6043776 0.0060490523 0.15042058 -0.8189259 -0.19977224
-0.006832884 0.24901372 -1.0406307 1.0181552 0.0077281957 -1.1263695 -0.24401948 0.70809793
-0.16159526 -0.08692503 0.07808005 0.32608435 0.73378116 0.42987147 -2.1198862 -0.9387611
0.7595461 0.10386369 -0.696973 -2.0288434 -0.5792339 0.5491082 -0.2945622 0.28050807
0.40116888 0.3943187 -0.60525984 1.2576199 -0.18077822 -0.4792016 0.6711189 0.31322384
1.2801154 2.244032 0.43613362 0.0325401 -0.56694126 -0.129934 1.0424273 -0.8186686
-1.1767062 0.88202095 -0.26319775 -0.28994656 0.3935268 0.27623332 0.7081885 -1.3216835
-0.0678511 0.22597378 -0.27338487 -0.86076236 -0.00016193294 1.699549 0.65953004 0.059448935
-0.7466343 -0.23940767 1.9706243 0.04899132 0.5376884 -0.30407214 -1.2933464 1.3329316
-0.39238527 0.3604311 0.12509479 0.44331196 1.234365 -0.22038072 0.008325644 -0.6171586
0.04970826 0.3366443 -1.6820467 -1.5083045 0.5691683 -1.4861019 1.7251333 1.3811464
-1.1310205 -1.5508544 -0.8535427 0.3424895 0.4717694 -0.955294 -0.15409252 -0.26352245
-1.5377219 0.56295544 -0.1679573 -0.32907787 -0.5029277 -0.14001279 0.7428337 1.4107295
-1.0403003 0.0051819067 -0.14793964 0.4473301 0.3389965 -0.6514642 -1.4090928 -0.43203443
0.81868833 -1.0240266 0.59267247 0.83883846 1.813372 1.958064 0.69458133 1.6356181
-0.1674882 0.13698122 -0.48294517 -0.27783313 -0.44554085 1.7622006 1.1557591 0.18545085

net.3.bias f4 [64]
00000000: f161 80be d9ab 9ebe 6bc9 19bc e288 92bf
00000010: dcc2 4dbe 9e6d febe 539b 5abf 0694 d3be
00000020: dc13 10bf 5b98 2fbf 7ad0 58bf bf3e 50bf
00000030: 3ea8 45bf cc6e 073e b6c5 57bf d0d9 033e
00000040: 2750 54bf 3690 3dbf c967 b7be fed9 d3be
00000050: 2c31 eabe c8ad 18bf c745 24bf cfeb 80be
00000060: 92fe 00bf 9d2f 56bf bdc3 1abf 3629 b1be
00000070: 9f34 28bf 2cb2 1bbf 2351 ffbe 794b b6be
00000080: c5da 1cbf 70a1 52bf e148 95be 755d 883d
00000090: f812 28bf 2081 41bf 2891 0fbf 1ca8 dcbd
000000a0: 4de9 693d e4f8 94bf 85f3 e6be c8a3 8cbe
000000b0: 6833 6cbf 8911 47bd b94a 36bf 79ce d7be
000000c0: 709b 27bf bb2d f3be 41fa 4dbd 6b91 3bbf
000000d0: bb7d 8dbe 295b bfbe 6977 63bf e1f4 1c3c
000000e0: afa9 05bf 96f1 9bbe 1bdf 04bf 771a abbe
000000f0: bc9a 44bf ef90 26bf d617 d7bd aa14 bdbe
-0.25074723 -0.30990484 -0.009386401 -1.1448023 -0.20093864 -0.49693006 -0.85393256 -0.4132387
-0.56280303 -0.6859185 -0.8469311 -0.8134574 -0.7720984 0.1322586 -0.8428606 0.12876058
-0.829348 -0.74048173 -0.3582137 -0.41377252 -0.4574064 -0.5964017 -0.6416897 -0.25179908
-0.50388443 -0.836664 -0.6045492 -0.34601754 -0.65705293 -0.60818744 -0.4986659 -0.35604456
-0.61271316 -0.82277584 -0.29157165 0.066584505 -0.65653944 -0.75587654 -0.56080866 -0.10774252
0.05710726 -1.1638455 -0.45107666 -0.27468705 -0.9226594 -0.048600707 -0.7120777 -0.42149714
-0.65471554 -0.47495827 -0.05028749 -0.73268765 -0.27634987 -0.37374237 -0.8885408 0.009579868
-0.5221204 -0.30457753 -0.5190293 -0.3341863 -0.76798606 -0.650649 -0.10502593 -0.36929828

net.5.weight f4 [64, 64]
00000000: 0391 8ebf a5a8 b6bd eb24 0c3f a147 253f
00000010: cb77 603f ac75 adbf 1f5a 3a3f 0bdd f1bf
00000020: 120a 27bf f44c 693f 2152 a1bf 8e66 263f
00000030: 5be4 2b3f a3aa 16c0 d34d e7be 0cee 6ebf
00000040: 59d1 0abe 42fe 02bf 8ecb b1be bf76 b1bf
00000050: 6ca3 19bf 9185 e03e a3cb 0f3f 29b4 613f
00000060: ddf3 653e 020b f63c 411d 8e3f 1af8 823f
00000070: 9628 dabe 46db fd3e 6dc3 47be 6b72 65bd
00000080: 0201 96bf b4f9 01bf b22a 28bf ba56 663e
00000090: d1d8 9e3f 8999 253f e6ad 443f ce41 23c0
000000a0: 46a3 373e 1bd5 b0bf 1592 fbbf 3ecc 113e
000000b0: c009 16bd 8e7d 97be 4844 2ebf ffe5 b2bf
000000c0: bd26 843f bde0 b7be 728c 98bf 0d57 f13e
000000d0: 1781 eabd 4c14 6b3f a6bf 1dbf f8e7 dabe
000000e0: a44f 583d 4cdc a1be 6bbf 08bf 4a01 773f
000000f0: 0059 95bf 146e 1fbc b131 0c3f 8fa8 d8bf
00000100: 415a 023e b2e1 c4be a7c3 ac3b 5fe5 c4bc
00000110: 5af7 4a3e 2393 2ebf 4b9d 6bbe 895a 813f
00000120: bf45 a33d 121c 1dbf 4084 b6be 66c4 243e
00000130: 6a42 323e 45b4 f7bf fced 633d 1068 3b3e
00000140: 60eb ee3e 1000 6b3f b13f e5bd 16eb 44bf
00000150: 102f 5bbe 3bad 5abc c109 71bf c825 f0bc
00000160: e90d b33e bcb9 93bf 7d26 6abf ff47 713f
00000170: 2851 c9bd f510 1cbe 8bfe a63d 3363 5c3f
00000180: d926 0abf a204 c4bf a570 94be 288c 18bf
00000190: 731a d4bc 2e9f 89be 792d 8a3f 78be e9bf
000001a0: b4e4 02c0 5db8 f83e bb7c 8cbf 37ab 03bf
000001b0: d8b8 89bd fae7 0240 a40f 0dbf 4894 e3bd
000001c0: 4cf9 493f 871c 29bf 3866 00bf 91a0 d2bf
000001d0: 715c 253e ce73 2cbe 66f1 adbf 3bea 713f
000001e0: 43a9 70bf d838 9dbf 6641 4f3f 7c67 b1be
000001f0: 0936 623f 1037 943f c5b2 11bf 7c5a 64be
00000200: c66c ec3d 7d02 23bf b2ee ca3e 5ff0 8abf
00000210: c4fa 24bf 859b 14be 0844 a13e 404c cabf
00000220: 1f2e 033f 8833 d33d e6ad 34bf 6183 a1be
00000230: 8f7a e53e b743 eebc 8ef5 8d3f ba1f 683f
00000240: 9ce4 18bf 5b3a 76be dfe5 2abf 5780 2bc0
00000250: a4bb 403f 0f7e 4a3f f6d9 393f 2f35 3bc0
00000260: f206 b9bf 33fb 97bf 5145 b4bc 48cd 043f
00000270: bf5b 613e 278a 3dbf d056 2bbf 850a 15c0
00000280: 6d00 e53e f2c9 693f 74d9 0bbd 491f f23c
00000290: e44f 1fbe 29eb 4a3f 9b0f 74be c008 93c0
000002a0: 3b90 2a3e 359a a33f a837 d73b 08dc 2ebe
000002b0: 0d84 343f 6f04 6f3f 84c7 70bd 04d8 1d3f
000002c0: f32b 2f3e a0a8 143e d7ff d13e a6a7 783f
000002d0: 5e6c a03f 2bda 953d 137e a8be 0925 19bd
000002e0: dfc9 b03f 6385 a03d fc02 d53e b776 4ebf
000002f0: b00a 8c3e cc00 f2bd 589d f2bf dd06 a1bf
00000300: 0c0d e93e 7a0a 0ac0 c7fc a0bf 6a62 68be
00000310: 5ef1 74bf 54e7 98be 7de3 3a3d 3ecd 0d3f
00000320: 5bec 95bf d82a fa3d a6b8 583f 77f1 923f
00000330: 155a 483f a12a 55be f897 2d3f 964e 083f
00000340: bb34 073f 79ff 153f 2879 773f ac50 bc3d
00000350: f748 93be 55b7 24bf 9ec1 3b3f ebde 1ebf
00000360: 9a80 7e3e 7eb5 3fbe 27f2 84be f4c0 6b3e
00000370: fb3a a33f 858b f53e 2e52 84bf 7a02 10bf
00000380: 767b 90bf 5983 0b40 3fd7 59be 590f d2bf
00000390: c3a0 12bf f1b0 63c0 7f79 06bf 9f54 f5be
000003a0: a12c 363e 1851 b13f 4476 033e daca c9be
000003b0: cbbf 4b3e 409a c53d 5a49 563f d9c0 063f
000003c0: e352 5e3e 6d4e 383f 37e8 633f 45a3 15be
000003d0: c8b9 91bf e540 2ebf dd47 043e 2cfc be3e
000003e0: 90fb 353e 7c0d d6be 9220 a5be 1548 cebf
000003f0: ff67 513f b2ea e1be 8495 953f ff9b 863f
-1.1138004 -0.08918885 0.5474383 0.6456242 0.8768279 -1.3551536 0.72793764 -1.8895582
-0.6524974 0.91133046 -1.2603189 0.65000236 0.6714532 -2.3541648 -0.45176563 -0.9333198
-0.13556422 -0.51169217 -0.34725612 -1.3864363 -0.60014987 0.43851903 0.561701 0.8816553
0.22456308 0.030034546 1.1102678 1.0231965 -0.4260909 0.49581355 -0.19508143 -0.05601732
-1.1719058 -0.5077164 -0.6569015 0.22494021 1.2409917 0.646874 0.7682785 -2.5508914
0.17933378 -1.3815035 -1.9653956 0.14238068 -0.036630392 -0.29587978 -0.6807294 -1.3976439
1.0324322 -0.3591365 -1.191786 0.47136727 -0.11450403 0.91827846 -0.6162056 -0.42755103
0.052810326 -0.31613386 -0.5341708 0.9648634 -1.1667786 -0.0097308345 0.54763323 -1.692644
0.12729742 -0.38453442 0.005272347 -0.024035154 0.1982092 -0.6819326 -0.23009221 1.0105754
0.079722874 -0.61370957 -0.35647774 0.16090545 0.17408147 -1.9351889 0.05564688 0.18301415
0.46663952 0.9179697 -0.11193789 -0.7692121 -0.21404672 -0.013346965 -0.9415551 -0.02931489
0.3497155 -1.1541057 -0.9146498 0.9425048 -0.098299325 -0.15240844 0.08154019 0.86088866
-0.53965527 -1.5313914 -0.2899219 -0.5958886 -0.025891518 -0.26879257 1.0795127 -1.8261251
-2.045209 0.48578158 -1.0975565 -0.5143313 -0.06724709 2.0454087 -0.5510199 -0.11112267
0.7889602 -0.66059154 -0.50155973 -1.6455251 0.16148545 -0.16841051 -1.3589294 0.9449803
-0.9400827 -1.2282972 0.80959165 -0.34649265 0.883637 1.1579304 -0.56913406 -0.22300142
0.115441844 -0.6367567 0.39635235 -1.0854605 -0.6444514 -0.14512451 0.31497216 -1.580452
0.5124225 0.10312563 -0.7057785 -0.31545547 0.44820067 -0.029085023 1.1090562 0.9067341
-0.5972383 -0.24045698 -0.66757005 -2.6797082 0.75286317 0.790986 0.72598207 -2.925121
-1.4455245 -1.1873535 -0.022005709 0.51875734 0.22007655 -0.7403893 -0.6692934 -2.328767
0.44726887 0.9132377 -0.034142926 0.029555934 -0.1555782 0.79265076 -0.23834078 -4.594818
0.16656582 1.2781435 0.006567914 -0.17076123 0.70513994 0.9336614 -0.058784023 0.6165774
0.17106609 0.1451745 0.41015503 0.9713081 1.2533071 0.07317003 -0.32908687 -0.037388835
1.3811606 0.078379415 0.4160384 -0.80649894 0.27351904 -0.11816558 -1.8954268 -1.258022
0.45517766 -2.1568894 -1.2577142 -0.22693792 -0.956808 -0.2986399 0.045627106 0.553913
-1.1712755 0.12215203 0.8465675 1.1479939 0.78262454 -0.20817043 0.6781001 0.5324491
0.52814835 0.58592945 0.96669245 0.091950744 -0.28766605 -0.6434224 0.7334231 -0.62058896
0.24853745 -0.18721578 -0.25965998 0.23022825 1.2752374 0.47958007 -1.0337579 -0.5625378
-1.1287677 2.1798918 -0.21273516 -1.6410934 -0.5727655 -3.5576746 -0.5252914 -0.47916123
0.17790462 1.3852873 0.12838084 -0.39412576 0.19897382 0.096485615 0.83705676 0.5263801
0.21711306 0.7199467 0.89026207 -0.14613064 -1.1384821 -0.6806777 0.12918039 0.37301767
0.17771745 -0.41807163 -0.32251412 -1.6115748 0.8179931 -0.4412437 1.1686254 1.0516356

net.5.bias f4 [64]
00000000: 6f57 233e fbd5 e2bc 7ac1 a3bf e807 713e
00000010: f21f 04bf fad9 983d 7b54 94bf 81e0 3abf
00000020: 7e3d 0bbf 8050 d3bf f2d3 abbe afbe 44bf
00000030: 4797 a9be b0f2 babe 9cca 2b3f adee c83d
00000040: 9fcc dbbe 4d93 f13e a2e0 b3be e96f 84be
00000050: 88f4 78bf ce6e 11be 38cd bdbf 5f73 2a3f
00000060: f7da e73c 4a33 413a 5407 cabd 0f71 eebf
00000070: efc4 65bf 15a9 2f3f 213d 59bf b074 d4be
00000080: c2c2 c9be d230 07bf db68 143f c3b9 8bbf
00000090: 2aae 413f d079 0cbf 5b33 053f fd8b 11bf
000000a0: f968 b3bf 368e 90bf 33ef 46be f1f3 55be
000000b0: b4b6 0a3f 2c0c 5bbf ff07 2fbf fcc0 7bbf
000000c0: 45e8 69bf e54e a13f 6029 3bbf b60d 383f
000000d0: 2921 b2be 1ac8 f23e 3309 9f3e e71f 71bf
000000e0: 58a3 52bf cddf ee3e 4172 09bf a94d 1f40
000000f0: 9456 4c3b 0969 54bf 057a aabe f1e6 043e
0.15951322 -0.027689924 -1.2793419 0.23538172 -0.51611245 0.07463451 -1.1588281 -0.72998816
-0.54390705 -1.6508942 -0.3356014 -0.7685346 -0.33123228 -0.3651328 0.6710603 0.09811149
-0.4292955 0.47182694 -0.3513232 -0.2586663 -0.97248125 -0.14202425 -1.4828253 0.6658229
0.028302653 0.00073700084 -0.09864679 -1.8628253 -0.8975362 0.68617374 -0.848589 -0.41495275
-0.394064 -0.5280887 0.57972497 -1.0916065 0.7565638 -0.5487337 0.5203149 -0.5685423
-1.401641 -1.1293399 -0.19427185 -0.20893838 0.5418503 -0.8556545 -0.68371576 -0.98341346
-0.9137004 1.2602202 -0.7311001 0.7189592 -0.34790924 0.4741829 0.31061706 -0.94189304
-0.8228049 0.4665512 -0.5368996 2.489115 0.0031179534 -0.8297277 -0.3329622 0.12978722

net.7.weight f4 [64, 64]
00000000: ece0 b63c 7c08 163e 98a9 9b3e b342 a43d
00000010: 9da1 b5be 42c5 3b3f a5ef cd3e b47f 87be
00000020: 0bce 8cbf 760a 98be e511 9cbf bb3b eebe
00000030: d763 a93f 9d78 05bf 6793 a93e f0ac 26c0
00000040: 9c74 9abf 8ed9 46bf eabb 1040 660c 083f
00000050: ae62 86bf 9f2f 62bf d76b 873f 6096 0ebe
00000060: 8791 98be d7e9 113f cf06 08be 153a 9cbf
00000070: ea31 d13f 1bec 61be c392 01bf 6fe4 82be
00000080: 6bca b3be a955 0cbf 752d 373f fa6c afbf
00000090: 6eed 8ebf 60c3 37bf 465e 9fbf 8600 49bf
000000a0: 106c 12bf 4ebc 5ebd 89cc a33e 4d6d 88be
000000b0: 4ace 743f ffca 20bf 7e06 0fbf 1ffd d7be
000000c0: eda4 d3be 98dc 553f aa06 e2be f846 11bd
000000d0: 1fd3 363f 0492 fbbe 1a87 eabd 5663 173d
000000e0: 5710 d9bf 8d38 06bf e052 65bd d56b 00c0
000000f0: 433b 693f c50d 423d 8641 873d 85dc a83f
00000100: c9b7 a6bd 8805 3e3f 4d74 6c3f 0a57 2939
00000110: 6463 ab3f ee2b 97be c720 71bf 531d afbf
00000120: d832 9abf 17a1 8dbf 3f94 383d fcda 8b3e
00000130: fe46 ad3e b99f 553f 1110 863f 4de9 47bf
00000140: 6676 d83e 1450 9d3f 8b0a 893f 586a 3d3d
00000150: 342f 90be fcb9 84bf a107 3dbf 529e ae3e
00000160: 3e78 2ebf 94f9 403d 800c 88be 898f afbf
00000170: 0475 32bc 0e2e 5d3e c204 e2bf 9d00 df3e
00000180: d030 c4be 84dd 5a3f 35af 093d 4158 43bf
00000190: 8dd0 0440 52ca 33bf 55b3 96be 2f5f 1abe
000001a0: 778c a5be 4067 c03e 9008 183f 893b 6bbf
000001b0: f896 ccbe 4068 f8bd 1e55 86bd 2774 8fbf
000001c0: 5ec4 edbe c5fc 87bf 553c 88bf 1469 273f
000001d0: c394 a93d d043 4a3f 5e0f f93e ec6a 1d3e
000001e0: 5f1c ad3a e231 d6be a9b8 6ebe 715a 9b3e
000001f0: ea6b ddbf f490 a23e 0eeb 4a3d d11a 633f
00000200: 9506 6abf 12e6 653f 134c ddbf db97 493e
00000210: fa79 fdbf 3eda 5a3f 7e3a 5ebf bfaa 9dbf
00000220: 58dd 4dbf b0ff 2fbf 12b8 d43e ad67 8b3f
00000230: 0fdc 18bf e088 163f b768 4c3f f367 8bbf
00000240: a9d0 a6bd fac1 683e 3d2f c1be 0b68 efbf
00000250: 8440 b6bf f657 4f3f bcb8 dfbf b319 df3e
00000260: b21d 56be b59b 87bf a652 00c0 da75 5ebf
00000270: 6208 1c3e effd ca3e 397f b4bf 8139 993e
00000280: cc19 aa3b 0abc 41bf 504a 743e 999d 5fbf
00000290: ca40 9f3e 2fc7 4abf f790 e0be 18ca 28bf
000002a0: a196 403d 7cde 63be 8688 81be 72b0 efbf
000002b0: 074b c33b 930c 61bf c0e1 d5be 1ed4 74bf
000002c0: 1919 453e 19f2 973e 7133 9abe 4730 bcbf
000002d0: 833b edbd ca15 29bf 0ec6 993f efa8 183f
000002e0: 53eb 313f 3a43 083e 4654 293f dd5d 39bf
000002f0: b78c 26be 2f13 21bf 86dd 753e 235c f0be
00000300: d96b 25bf 4d80 14be 7602 043e 71b7 46be
00000310: 9b51 0ebf c07c 6ebe 5244 fbbf 90e0 7cbf
00000320: a772 ba3c 421a b1be 168e 4fbe 50be 523f
00000330: 6add 303d 20c8 283d 515b 153d 5c8b d6bf
00000340: 767d 1d3f 6dc4 3ebf 7742 983f b7ea d3bf
00000350: 5ac3 f2bf 8a3a e4be 0f4f 883f dc64 8ebf
00000360: 0240 93be a29f 463f 2cb8 493f c8d3 2d3f
00000370: 4ed4 19bf f678 05bf 2287 d53e f8bb 17be
00000380: 5dec 8f3e 967f b33e e6a7 5dc0 061e 0b3f
00000390: 964a 5b3f d21a aabf 25e8 343f 7fb8 8bbf
000003a0: 88bd 303f a07d 3e3f f546 83bf 1783 65bc
000003b0: b323 abbf 16e0 55be 98c6 91be b9fa 23c0
000003c0: 3479 0dbf 2fa8 74be f6dd f3be 42d0 913f
000003d0: e497 d33e 9e78 5dbf 5a04 9c3e 8c31 7e3e
000003e0: 383e 8c3c c4d1 08c0 3057 79be 1f19 47bf
000003f0: 5ba4 56bf d139 58bf 975d d23f 419e ba3e
0.022324048 0.14651674 0.30402827 0.08020534 -0.35474864 0.73347867 0.40221897 -0.26464617
-1.1000379 -0.2969548 -1.2192961 -0.46529946 1.3233594 -0.52137166 0.33120272 -2.6043053
-1.2066836 -0.7767571 2.2614694 0.5314392 -1.0498865 -0.88353914 1.0579785 -0.13924551
-0.2979853 0.56997436 -0.13283847 -1.2205225 1.6343358 -0.22062723 -0.50614566 -0.25564906
-0.3511537 -0.5481821 0.71553737 -1.3705132 -1.1166208 -0.71782494 -1.2450645 -0.78516424
-0.5719614 -0.0543788 0.31991985 -0.2664589 0.9562727 -0.6280975 -0.5586928 -0.42185304
-0.41336766 0.83539724 -0.4414571 -0.03546807 0.71415895 -0.4913484 -0.1145155 0.03695997
-1.6958112 -0.5243004 -0.05598724 -2.0065815 0.9110605 0.047376413 0.066042945 1.3192297
-0.08140523 0.7422719 0.9236496 0.0001614952 1.3389707 -0.29525703 -0.9419064 -1.3680824
-1.2046766 -1.1064786 0.045063253 0.2731551 0.33843225 0.8344684 1.0473653 -0.78090364
0.4227783 1.2290063 1.0706342 0.046243995 -0.28161013 -1.0369258 -0.73839766 0.34105164
-0.68152225 0.047113016 -0.26572037 -1.3715678 -0.0108921565 0.215996 -1.7657702 0.43555155
-0.3831849 0.85494256 0.033614356 -0.7630654 2.075229 -0.7023059 -0.29433694 -0.15075372
-0.3233373 0.37578773 0.59388065 -0.9188772 -0.3995893 -0.12129259 -0.065592036 -1.1207322
-0.4643888 -1.0624014 -1.0643412 0.6539471 0.08280327 0.79009724 0.48644537 0.15372819
0.0013207308 -0.41834933 -0.2331263 0.3034244 -1.7298558 0.31751215 0.049540572 0.88712794
-0.91416293 0.89804184 -1.7288841 0.19686835 -1.9802849 0.8548926 -0.86808 -1.2317733
-0.8041587 -0.68749523 0.41546685 1.0891014 -0.5971078 0.58802605 0.7984728 -1.0891098
-0.081452675 0.22730246 -0.37731352 -1.8703626 -1.4238439 0.8099359 -1.7478251 0.43574294
-0.20909765 -1.0594393 -2.0050445 -0.8689858 0.15237573 0.3964686 -1.4101325 0.29926684
0.0051910635 -0.7567755 0.23856473 -0.8734985 0.31104118 -0.7921018 -0.438606 -0.6593337
0.04701865 -0.2225284 -0.25299472 -1.8725722 0.0059598717 -0.8790981 -0.41773796 -0.95636165
0.19247855 0.29676893 -0.30117372 -1.4702233 -0.115836166 -0.6604887 1.2013566 0.5963277
0.694997 0.13306895 0.66144216 -0.7240885 -0.16264616 -0.62919897 0.24010286 -0.46945295
-0.6461769 -0.14502068 0.12891564 -0.19405915 -0.5559327 -0.23289776 -1.9630225 -0.98780155
0.022759749 -0.34590346 -0.20269045 0.82321644 0.043179907 0.04120648 0.03646404 -1.6761279
0.61519563 -0.7451847 1.1895283 -1.6556004 -1.8965867 -0.44575912 1.0649127 -1.112453
-0.28759772 0.7758733 0.7879665 0.6790128 -0.60089576 -0.52137697 0.4170466 -0.14817798
0.28110018 0.35058278 -3.4633727 0.5434269 0.85660684 -1.3289435 0.70666724 -1.0915679
0.690392 0.7441044 -1.0256029 -0.014008305 -1.337027 -0.20886263 -0.28471828 -2.562178
-0.55263066 -0.23892282 -0.4763028 1.139168 0.4132682 -0.8651217 0.3047207 0.24823588
0.017119512 -2.137803 -0.24349666 -0.77772707 -0.83844537 -0.8446322 1.6434811 0.36448863

net.7.bias f4 [64]
00000000: a5a8 4b3f 5a45 843f 81c5 d8bf 3a20 c2bf
00000010: 38f7 253f d811 47bf 2fdb af3e 5033 af3f
00000020: fefc 69bf 444d 9b3f d43c 373f fd59 9a3e
00000030: 3b39 2abf 6833 5ebf c2dc 1cbf 8a23 b2bf
00000040: 4851 5cbf 1e12 193f ba8c 20bf 36b0 0fc0
00000050: 42fb f7bf ae9c c43f 515f adbf 07ea 05bf
00000060: 1b7a dbbf 09a6 5abf be54 95bf d725 273f
00000070: 4bdb 09bf b4c8 a93f fee5 96bf 467d a1bf
00000080: fd7b b2bf 00bb a7bf c7bb 7d3e 0615 fdbe
00000090: ad02 3cc0 b107 383f d0df b6bf 3156 d8be
000000a0: 7a75 bebf 9827 14c0 cffe 8abf f9ef 44bf
000000b0: 5bbb d4bf 1316 04c0 6723 47bf 8921 8ebf
000000c0: e21c 0ebf b3c0 2fbf 391d 613e da92 cabf
000000d0: 20fd 20bc cdf4 28c0 7872 14be d40e 34bf
000000e0: b6ee 5cbf 6c66 723d f964 3fbf b8b0 bdbf
000000f0: 1aa4 63bf 72b8 b0bf 8df0 33c0 947c 523f
0.79554206 1.0333664 -1.6935273 -1.5166085 0.6483035 -0.777616 0.3434691 1.3687534
-0.9140166 1.2132955 0.7157719 0.3014678 -0.66493577 -0.8679719 -0.6127435 -1.3917096
-0.86061525 0.5979327 -0.6271473 -2.24513 -1.9373553 1.5360315 -1.3544713 -0.5231022
-1.7146639 -0.854096 -1.1666486 0.65292114 -0.5385024 1.3264375 -1.1788938 -1.2616355
-1.3944088 -1.3103943 0.24778663 -0.49430102 -2.9376633 0.71886736 -1.4287052 -0.4225326
-1.4879601 -2.3149166 -1.0859011 -0.7692867 -1.6619676 -2.0638473 -0.77788395 -1.1103984
-0.5551282 -0.6865341 0.21983804 -1.5826066 -0.009825975 -2.6399415 -0.14496791 -0.70335126
-0.86301744 0.05917971 -0.7476345 -1.4819555 -0.88922274 -1.3806288 -2.811557 0.8222134

net.9.weight f4 [7, 64]
00000000: 784d 72be c8d4 9c3e c732 183f 2945 4b3f
00000010: 20cd bbbe 87b3 78be 1e73 50be 4a02 adbf
00000020: 11eb acbe 5ea1 e9be 73f4 3abe 62df 473d
00000030: d7c6 353f 8d63 19be 76c6 9cbe 96ba 32bf
00000040: 6e1f 36bf e673 6e3f 0005 74bd 0b67 c03f
00000050: 1fc6 e43e 7ec0 983e 515a ae3f f8a8 363d
00000060: 8525 983d 7b95 513f b921 2e3f 2919 273e
00000070: d2fb 083f 41f1 983e fb99 9ebe b1e9 a53e
00000080: 8b31 8b3f 4014 253f 48a1 7e3f 4109 3fbe
00000090: 19ea 623f f885 80be 5e13 9d3e 869c 1d3f
000000a0: b24f 7c3f d1bc 1b3f 87cd 5f3d 58a8 c93e
000000b0: 7392 7e3f cff4 b03d 4c9a 5d3f 2b83 05bf
000000c0: 6b0e 993e 16ba 89bf add0 893f d732 93bd
000000d0: f67a 51be 5915 eb3d c09b fe3e ac94 2a3f
000000e0: 90df 2b3e 59f6 99bd c7e9 3cbf f742 3a3e
000000f0: ef52 01bf 1158 d93e 5264 b13e f6f2 4cbf
00000100: 3695 f73e 64b1 333e f103 d13e 6d70 263f
00000110: ca20 503e 6ea7 fabe 0e74 163f f639 253c
00000120: 7cc4 923e 0f81 bc3e 7d0f 1b3f 3325 103f
00000130: 5920 1b3f 1087 41be b8c6 503f 602e e73e
00000140: aa40 67bf f27d 663e dc88 813f ef0d 8a3e
00000150: 411e 953f a627 d1be 2cc6 4d3e c301 c43e
00000160: c082 c43d 7184 7c3e 2c3e 31bf 0c3c 92be
00000170: 7af0 1abe 37d2 e93e 6300 d73d cae4 cb3e
00000180: dde1 6d3e 68db b73e 3647 b73d 5124 7b3e
00000190: 5196 ab3f e629 863c b3c2 613f 41ed be3d
000001a0: 411e debd 8c32 4a3e e7c0 ff3e 40c7 633e
000001b0: 55bc ce3d 6376 4b3e 9608 1d3f c7aa 1b3f
000001c0: 1ecc 753f a103 3d3e 0840 cbbd 7de3 b03f
000001d0: 5739 923d 35f6 393f 0476 a03e 3d61 dd3e
000001e0: 56a2 1dbd 641b 67bf 7a7a c1bd a688 bb3e
000001f0: f668 79be 9642 5a3f b665 4cbc 14af 89be
00000200: 2f88 223f 33f2 e33e 692f 10bf 6d64 663f
00000210: 6663 c53e 8f60 823e 7cad edbe 061d b33e
00000220: c151 f43e 8db6 6cbd 4635 b33d f78d 813e
00000230: 3cce 353f 327a a33e 694b 463f e4c5 10be
00000240: 3e85 123f 1f21 2f3e 6dbf ad3e c6db 983e
00000250: ba42 8a3e 9047 66be 84df 063f ae23 a53e
00000260: 3907 073f f5a2 9a3e 366a 7f3e 4ed4 1a3f
00000270: faf6 1e3f 6b5e fc3d 77bb 433d 402b a2bd
00000280: 2652 0fbf d3f5 edbe 0b15 6e3f c1cb e53e
00000290: 6354 4d3f 8e1d fbbd 44e2 22bd afce b73e
000002a0: e022 8fbe 6f63 143e 03f6 dcbe 0aac 1dbe
000002b0: 88e5 4e3f 5f6f 433f 9fa3 323f 9bc4 b5be
000002c0: 8b67 8bbf d94b 263f e876 bbbe cc14 563f
000002d0: 1853 70be 3b30 79bd 5e80 743e 8dee 163f
000002e0: 13d1 94be 85aa 943e 5bf2 1cbe c81e 363f
000002f0: 9808 1e3f b230 09be 5d7a 463e f55b c13e
00000300: 421e 143f 88c5 8a3e 29cb 52be 4037 193f
00000310: 8dba f73e 06f5 d63d 5bdd bc3e 5e3f 1b3f
00000320: 75e3 953e 2454 6d3e 9707 d1bd 3745 2fbe
00000330: 2659 f33e e6eb 863e af90 a3bd 94df 053f
00000340: bab3 f93d d759 fe3e b894 293d b061 ca3e
00000350: 281c 913f 7486 063f f5da bf3e 36fb f43e
00000360: fcca ca3d 5918 77be 7713 a13e df11 c13e
00000370: cd5f a83e 846a 943e 4452 413f 509a ef3c
00000380: e232 0a3e 7c31 a6be a118 8abd 1275 7ebf
00000390: a869 873f 3ec5 ec3e 391c 243f e8b1 4c3e
000003a0: 388a f23e ff99 05bd dba1 483f 88e6 a63e
000003b0: 2aef 4b3d d459 d23e dfce ff3e 612b 4a3e
000003c0: 0bdb 883e fca6 4f3f 9332 e13e b6fc 0d3e
000003d0: 11ef a93e a9ec 153f 643d 163f 14cc d93e
000003e0: 1f25 e83e b739 f33e 594b 363f d625 773d
000003f0: e94b 1a3f c2c4 d1bd cd87 413f 2b86 763e
-0.23662364 0.3063109 0.5945248 0.79402405 -0.36679935 -0.24287234 -0.20356414 -1.3516324
-0.3377309 -0.45630926 -0.18257312 0.04879702 0.7100653 -0.14979382 -0.30620164 -0.6981596
-0.7114171 0.93145597 -0.05957508 1.5031446 0.44682404 0.2983436 1.3621312 0.044594735
0.07429031 0.81868714 0.68020207 0.16318192 0.5350925 0.29871562 -0.30976853 0.32404855
1.0874494 0.64484024 0.99464846 -0.18655874 0.88638455 -0.2510221 0.30678838 0.6156696
0.98559105 0.60834986 0.054639366 0.3938625 0.99442214 0.086404435 0.86563563 -0.5215327
0.29893813 -1.0759914 1.0766808 -0.07187431 -0.20457062 0.11478681 0.49728203 0.66633105
0.16784501 -0.0751769 -0.73794216 0.18189608 -0.5051717 0.42450002 0.3464685 -0.8005823
0.48356026 0.17548138 0.4082332 0.650153 0.20325008 -0.48955864 0.58770835 0.01008462
0.2866553 0.36817214 0.6057051 0.5630676 0.60596234 -0.18899179 0.8155322 0.4515257
-0.90333045 0.22508982 1.0119891 0.26963755 1.1649858 -0.40850562 0.20095128 0.38282594
0.09595251 0.24659897 -0.6923549 -0.28561437 -0.15130797 0.45668194 0.10498121 0.3982299
0.23230691 0.3590958 0.08949129 0.24525572 1.3405248 0.0163774 0.8818771 0.09322596
-0.10845614 0.19745845 0.4995186 0.22243977 0.10094515 0.1986938 0.61341226 0.6080746
0.96014583 0.18458416 -0.09924322 1.3819424 0.07139843 0.7264131 0.3134004 0.4323825
-0.038484894 -0.9027617 -0.09447189 0.36627692 -0.24356446 0.8525785 -0.012475422 -0.26891387
0.6348905 0.4452072 -0.5632234 0.8999699 0.38552397 0.25464293 -0.4642142 0.3498308
0.47718623 -0.05779128 0.087503955 0.25303623 0.71017814 0.31929165 0.77458817 -0.1413799
0.5723456 0.17102478 0.3393511 0.29855174 0.27004033 -0.22488236 0.5268481 0.32253784
0.52745396 0.3020245 0.2494286 0.604802 0.62095606 0.12322696 0.047786202 -0.079184055
-0.55984724 -0.46476611 0.9300086 0.44882014 0.8020689 -0.122614965 -0.039766565 0.35899875
-0.27956295 0.14491056 -0.43156442 -0.15397659 0.80818987 0.76341814 0.69780916 -0.3550156
-1.0890974 0.64959484 -0.36614156 0.83625484 -0.23469198 -0.06083701 0.23877093 0.5895775
-0.2906576 0.29036346 -0.15326826 0.7114072 0.61731863 -0.13397482 0.19382615 0.3776547
0.5785867 0.2710383 -0.20585312 0.5984993 0.48384514 0.10495953 0.3688763 0.60643566
0.29275098 0.23176628 -0.10206526 -0.17116247 0.47528952 0.2635185 -0.079865806 0.5229428
0.12192483 0.49677917 0.041401595 0.39527655 1.1336718 0.5254891 0.37471738 0.4784791
0.099019974 -0.24130382 0.31460163 0.37708947 0.3288559 0.28987515 0.7551615 0.029248387
0.13495973 -0.3245963 -0.06742979 -0.99397385 1.0579119 0.46244234 0.64105564 0.19989741
0.47371078 -0.032617565 0.7837197 0.32597756 0.04978863 0.41084158 0.49962518 0.1974311
0.26729617 0.8111417 0.43983898 0.13865933 0.33190206 0.5856424 0.58687425 0.42538512
0.4534082 0.4750497 0.7120872 0.060338818 0.6027208 -0.10242607 0.7559784 0.24074619

net.9.bias f4 [7]
00000000: 362f 913e 97ae 803e 8602 c73e 0508 cd3e
00000010: 811c ba3e c7bc af3e bb10 933e
0.28356332 0.251332 0.38869113 0.4004518 0.36349872 0.34323713 0.28723702
