experts/DQN/net_configs/agent_dqn.pth (torch, 160547 bytes, 8 tensors)

net.0.weight f4 [128, 42]
000000 2f ea db 3e 20 3f 88 3d 6c 66 d3 bd e0 b5 ac 3e
       0.42952105 0.06652665 -0.1032227 0.3373251
000010 8c 80 43 bc 22 0f 93 be d4 bd 2b bd 6e 2a 44 bd
       -0.011932503 -0.28722483 -0.04192908 -0.047892027
000020 18 52 9f 3c a2 92 15 3e be d4 6b be 5e 52 67 be
       0.019448325 0.14606717 -0.23030373 -0.22590014
000030 e3 50 5b 3e e9 a1 06 be bf 98 44 be 17 97 61 3e
       0.21417575 -0.13147701 -0.19198893 0.22030292
000040 ab e4 8e 3e 3a f0 a2 bd e6 30 be 3d 97 a4 42 3e
       0.27908835 -0.07955976 0.092866704 0.19008099
000050 54 29 7f 3e 4c c8 0e 3e 9e c8 01 3e 36 e8 3a 3e
       0.24918109 0.13943595 0.12674186 0.18252644
000060 c6 83 ae 3d c1 50 8f 3e 64 d7 08 bd 36 4a 60 be
       0.085212275 0.27991298 -0.033408538 -0.21903309
000070 88 81 77 be 3b 61 a0 be 6b af 12 3e a3 14 6b 3e
       -0.24170506 -0.3132418 0.14324729 0.22957091
000080 0a 4d 5c 3e 90 17 99 3c 42 82 86 bd 43 d7 9e bd
       0.21513763 0.018687993 -0.065678135 -0.07755902
000090 91 6b 87 be 9d 3f 7d be 8e 1a b6 3d e4 f3 e3 bc
       -0.26449254 -0.24731298 0.08891784 -0.027826257
0000a0 03 e2 3e bd a3 8f 22 bd d9 db de bd 83 93 1c be
       -0.04660226 -0.039687764 -0.10881776 -0.15290646
0000b0 40 66 c1 be d4 02 1f be 00 e5 99 3e 7b 97 37 be
       -0.37773323 -0.15528423 0.30057526 -0.17928879
0000c0 05 26 4f 3e d9 2d 52 3e 55 aa 05 bf 20 47 31 3e
       0.20229347 0.20525302 -0.5221303 0.17312288
0000d0 be 18 30 3d 09 e4 ac 3d 95 e8 6a 3d 52 94 e4 3d
       0.042992346 0.08441932 0.057350714 0.11161102
0000e0 5a b9 40 3e 95 3b da bd d2 b2 42 be 67 f1 31 bc
       0.18820706 -0.106558956 -0.19013527 -0.010860777
0000f0 ad 9f e5 bd 8f 29 d9 3d 9f fc 4d bd 6b ad 80 bd
       -0.11212096 0.1060363 -0.050289746 -0.06283077
000100 82 99 71 be cc a4 d4 3e 98 d1 5f 3d 97 7d 7c be
       -0.23593715 0.4153198 0.054643244 -0.24657284
000110 02 6a 9c be 3c bc d9 bd d2 6a a3 be 80 f1 1d 3e
       -0.30549628 -0.10631606 -0.31917435 0.15424156
000120 d8 84 8d be 55 e6 57 3e d7 34 9f be d9 77 67 3e
       -0.27640414 0.21083958 -0.31095 0.22604312
000130 72 5e d6 3d 96 e9 08 be 7f 0b 85 3e 5f e0 93 be
       0.10467233 -0.13370356 0.25985333 -0.2888212
000140 52 f9 7c 3e 38 0b b5 bb 99 b5 6b 3a d4 b2 37 be
       0.24704483 -0.005525019 0.0008991599 -0.17939311
000150 27 3e a2 3c 9f a6 45 3e ae b7 98 be 4e 19 5d 3e
       0.019805027 0.19301842 -0.29827636 0.21591684
000160 aa ed 5e 3e c4 71 f2 3d 97 78 48 3d 02 1a 83 3e
       0.21770349 0.11838105 0.04894313 0.2560578
000170 90 5d d2 3e 93 e6 46 3e 34 52 43 3d b9 da 81 be
       0.41087008 0.19423895 0.047685817 -0.25362185
000180 1e d6 d1 bd b5 07 0a bc 4b f7 9b 3d 63 37 58 be
       -0.10245918 -0.008424689 0.07615527 -0.21114878
000190 d9 bd 06 3f 45 82 90 be 73 d0 a1 3e 4a d9 03 bd
       0.52633435 -0.28224388 0.31604347 -0.032189645
0001a0 87 64 f4 bb ce c7 7a bd 42 8b 15 be a8 7b d5 3d
       -0.007458273 -0.061225705 -0.14603904 0.10423976
0001b0 fe 51 ed be 81 e1 92 be cd 00 a7 bd e5 6e 59 3c
       -0.46351618 -0.2868767 -0.081544496 0.013271068
0001c0 b3 3d 69 bd ff 45 5b 3e 92 17 bd 3b ca 44 54 bb
       -0.056943607 0.2141342 0.005770632 -0.0032389634
0001d0 b4 20 bc bd 5c 86 78 3e 2a 08 d0 bd 81 76 cf be
       -0.09185925 0.24270004 -0.10157807 -0.405201
0001e0 a4 95 8c 3d 12 7f 30 be be e4 ca 3d 1f 16 58 be
       0.06864479 -0.17235973 0.0990691 -0.21102189
0001f0 82 74 a8 bd 23 15 fc 3d 2a c9 6a 3d ed f7 87 be
       -0.08225347 0.12308719 0.05732075 -0.2655634
000200 08 17 02 bb 2e 57 57 bc a9 6b c4 bd 69 a5 e6 bd
       -0.0019850153 -0.013143344 -0.09590847 -0.11262018
000210 8d aa ea bd d1 dd 94 3c 01 f1 89 be ad ae ee be
       -0.11458311 0.018172177 -0.26941684 -0.46617642
000220 a5 1a 99 3e d7 aa a4 be 0e 1d 5c be 86 6b 2c 3e
       0.2990314 -0.3216159 -0.21495458 0.16837892
000230 52 56 45 be 10 8d 36 be 72 68 0a be 74 b5 a2 bc
       -0.1927121 -0.17827249 -0.13516405 -0.019861914
000240 bb dc a9 3d 8f af d1 ba bc 3a 1b 3e 69 12 d1 3d
       0.08294054 -0.0015997755 0.15159124 0.102085896
000250 22 8f 30 3e b9 d0 ab 3e 1c c2 e4 3e 2a 30 17 bf
       0.17242101 0.3355768 0.44679344 -0.5905787
000260 09 8c e4 3d e1 27 62 3e 53 48 a2 be 46 c3 55 3e
       0.11159522 0.22085525 -0.31695804 0.20875272
000270 21 54 e9 3d 9f 1e 15 3e fa a5 3d be fd 85 0e 3e
       0.113929994 0.14562462 -0.18520346 0.139183
000280 25 d0 52 bd bf 5d 43 bd 0c 65 bd bd 18 af fe 3c
       -0.051468033 -0.047696825 -0.09247789 0.03108935
000290 58 4d 3e 3e 3e 25 0b be 34 36 2f be 37 d9 80 be
       0.18584192 -0.13588426 -0.1711052 -0.25165722
0002a0 4d 18 84 be be 33 33 be aa 8f 2f be 1b ff 54 3e
       -0.2579979 -0.17500207 -0.17144647 0.2080044
0002b0 35 70 6b be 57 60 3d bd 97 ee 49 3e 3a 21 7a be
       -0.22992022 -0.046234455 0.19719921 -0.24426737
0002c0 18 f7 3b be e2 64 e7 bd ec 9c 8a 3e e9 0c 0c 3e
       -0.18355978 -0.11298539 0.27072847 0.136768
0002d0 68 a9 e3 bd 25 aa 3f bd 32 a7 8f 3e 38 93 68 be
       -0.11116296 -0.04679312 0.28057247 -0.2271241
0002e0 10 a3 21 3e 11 73 9e 3d 7b 4c 2e 3e 08 21 c9 3d
       0.1578486 0.07736791 0.17021362 0.09820753
0002f0 a9 e5 9b 3e 79 3d 36 3e b8 84 2c 3e ee 8d 50 be
       0.30448654 0.17796887 0.16847503 -0.20366642
000300 4a ea ea bd 54 96 c3 bd fb 3d 0f 3d fe 5f da 3b
       -0.11470468 -0.09550157 0.03497122 0.006664275
000310 e2 93 73 3c e0 b4 d2 3e 4c 54 ee 3d c2 7d d6 3d
       0.014866801 0.41153622 0.11637172 0.10473205
000320 80 2f d6 bd e7 cf 1f bc 00 b5 5d be f9 b9 80 bd
       -0.10458279 -0.009754158 -0.21651077 -0.062854715
000330 4f 0a 1e bd 75 8c 0d be 1a be 27 bd 09 93 6d bc
       -0.03858405 -0.13823111 -0.04095278 -0.014500388
000340 b2 90 2c 3e 86 ff 28 bd f8 3a cb bd b4 22 07 bd
       0.16852072 -0.04125931 -0.09923357 -0.03299208
000350 1e 73 ca bd d9 ff 42 be 0d 11 d2 3e da 87 15 3e
       -0.09885238 -0.1904291 0.41028634 0.14602605
000360 56 8f c7 bd 9c ff 9c be 6e 2c 32 3e 29 2c 16 3d
       -0.09744136 -0.30663764 0.17399761 0.03666321
000370 60 74 b3 3d ba 0f c4 3c bc 4b 62 3e 3d 92 a9 3e
       0.08762431 0.02393328 0.22099203 0.33119383
000380 b5 b8 95 bd cd 6c e7 bd cb be 88 bd 33 4d a9 3e
       -0.07310621 -0.11300049 -0.06677016 0.3306671
000390 2c 0a 29 3e 2c 1d 94 be 42 69 e3 3e 52 aa 89 3e
       0.16507787 -0.28928506 0.44416243 0.26887757
0003a0 73 85 50 bd 50 05 bd be 56 0d 80 be ea 45 97 3d
       -0.050908517 -0.36918116 -0.25010175 0.07386382
0003b0 93 c8 72 be c1 c0 e8 bd 35 d8 54 3e e6 c3 28 3e
       -0.23709325 -0.1136489 0.20785601 0.1648098
0003c0 2c ec 0e bc 90 ef ad bc a9 90 9f 3e 6a 27 ed 3d
       -0.0087233 -0.021232396 0.31165054 0.11579783
0003d0 12 52 5c be 21 f5 60 bd 61 d7 2c 3e 76 81 14 3d
       -0.21515682 -0.054921273 0.16879036 0.036256276
0003e0 d8 7d 22 3e e1 1a d3 be 28 05 e3 b7 72 9d 9c bd
       0.15868318 -0.41231444 -2.706291e-05 -0.07647218
0003f0 fc 48 55 3e 86 70 90 be 51 87 9f 3e 9e e1 db 3e
       0.20828623 -0.2821085 0.31157926 0.4294557

net.0.bias f4 [128]
000000 71 2c f6 bb 1d 4c fe bc 0f 44 cd 3e 3d 39 83 be
       -0.007512622 -0.031042153 0.40090987 -0.25629607
000010 96 8b 20 be a3 57 3e be e8 a1 d0 bd 82 cc 23 3e
       -0.15678248 -0.18588118 -0.10187131 0.15995982
000020 59 1d 84 bd 75 06 f1 bd ed 5a 1f 3e 82 ea 18 bd
       -0.0645091 -0.1176881 0.15562029 -0.03733302
000030 2c ff e2 bd 4d 09 02 be 9e 89 2b bc 38 64 d6 be
       -0.110838264 -0.1269886 -0.010469822 -0.41873336
000040 77 0d 07 bf 6c a4 69 be c7 ec 90 3c 98 08 29 bd
       -0.5275492 -0.22816628 0.01769103 -0.04126796
000050 81 83 24 bd f9 fc 3f be f4 2d 3e bc 47 f2 3d be
       -0.040164474 -0.18748845 -0.011607636 -0.18549453
000060 58 18 fd 3c d3 2d e9 3d e5 c2 a0 3d 77 01 1d 3d
       0.030895397 0.113856934 0.07849673 0.038331475
000070 8a 14 8a be 02 85 d1 bd e8 0c 04 3e 22 89 ab be
       -0.26968795 -0.10230447 0.12895548 -0.33503062
000080 ca da 1d 3e e0 7c 99 bb 50 ed 15 be 04 8d 80 3e
       0.15415493 -0.0046840757 -0.14641309 0.25107586
000090 7f a4 81 3d b9 64 e5 bd ef b7 36 3c 48 46 e1 bd
       0.06330203 -0.11200852 0.011152252 -0.10999733
0000a0 54 b1 93 be e3 9d ef bd d9 e5 23 3e f8 94 90 bc
       -0.28846228 -0.117000364 0.16005649 -0.017649159
0000b0 cb 8e 78 be 52 76 d2 be ff c1 b9 3c 72 0f 54 be
       -0.24273221 -0.41105896 0.022675512 -0.20709017
0000c0 ab e8 cd bd 48 c2 b7 bd ef b6 25 be 70 1a 8e bd
       -0.100541435 -0.08972603 -0.16183065 -0.06938636
0000d0 10 2f 8d be 7c 72 9c 3d f1 ae 57 be 7c 61 4f be
       -0.27574968 0.07639024 -0.21062829 -0.20252031
0000e0 9e b4 3e be 4b b6 73 be ec d5 1a bd 24 d1 45 be
       -0.18623587 -0.23800008 -0.037801668 -0.19318062
0000f0 c2 57 b3 3d ab 30 6f be 61 e5 32 bd 8e ff 0f be
       0.08756973 -0.23358409 -0.043675784 -0.1406233
000100 cf 97 6c be 99 a5 26 be 33 a6 b0 bc f7 bb c5 3b
       -0.23104785 -0.16274108 -0.021563625 0.00603437
000110 86 48 8a bd 8e 5f c4 bd de 4b b8 3e a6 0c 20 3e
       -0.06752114 -0.09588538 0.35995382 0.15629825
000120 df ea fc be 8b 0d b3 3e 42 a5 26 be 72 18 96 3b
       -0.49397942 0.3497127 -0.16273978 0.004580551
000130 4c 26 27 3e 4e 90 bd 3c da 3c a4 be 91 b5 1e 3c
       0.16323203 0.023140099 -0.32077676 0.0096868435
000140 ab 33 f0 bc 3e d3 b5 bd 13 03 da bd 36 6d c5 3a
       -0.029321512 -0.08878182 -0.106451176 0.0015062455
000150 2f e9 c5 be c6 07 da bc 44 0c 93 3d 0d 9c 12 be
       -0.38654467 -0.026615035 0.07180074 -0.14317341
000160 1b f8 6b bd d6 2b ef bd 08 b3 a9 3d e8 e4 ed 3d
       -0.05760966 -0.11678283 0.082861006 0.11615926
000170 b6 26 a0 bd 60 18 ac bd fe 18 38 3e 69 2a c1 3d
       -0.078198835 -0.08403087 0.17978284 0.09431917
000180 63 83 36 be 42 d7 1c be 8b 11 98 be 5d 5e 51 bc
       -0.17823558 -0.1531649 -0.29700884 -0.012778846
000190 ef 83 94 bd 97 94 16 be a0 57 4b 3e 20 cb 0b be
       -0.07251727 -0.1470512 0.19857645 -0.13651705
0001a0 5e 43 9a be 74 f8 bb bd c8 ea 4b bc 95 fa be 3e
       -0.30129522 -0.09178248 -0.012446113 0.37300554
0001b0 ac a0 1f 3e 99 05 42 be d8 ae 40 be 97 61 25 bd
       0.15588635 -0.18947448 -0.18816698 -0.040376272
0001c0 6d 89 30 be 0d 78 b8 3e 38 a1 f2 bd 96 e9 7b be
       -0.17239924 0.3602909 -0.11847156 -0.24600825
0001d0 5c ba 9f be 6a 85 9d 3d 3c b2 85 3e c7 28 45 bd
       -0.31196868 0.07691462 0.26112545 -0.04813459
0001e0 49 fe 86 bd c7 ae 31 3d 73 f8 a4 3c cd a3 ee bd
       -0.0659147 0.04337957 0.020138001 -0.11652336
0001f0 6e ba 1e be 31 56 61 be ad cc be bd 16 d3 5e bd
       -0.15500805 -0.22005536 -0.093163826 -0.054400526

net.2.weight f4 [128, 128]
000000 a2 ed 36 bd c4 30 82 3e 5f fd dc be a8 07 22 3e
       -0.044660218 0.2542783 -0.43162057 0.15823233
000010 c3 b5 b8 be ab 7a e2 3d 82 45 57 3d 78 55 ac 3d
       -0.36076173 0.11058553 0.052556522 0.08414739
000020 70 e2 3d bd 5c 22 75 be 06 0f a7 be a5 60 83 3e
       -0.046358526 -0.23938888 -0.3262865 0.2565967
000030 72 eb 68 3d 64 a3 b8 3e c9 47 04 be b8 73 f6 3d
       0.056865163 0.36062157 -0.12918009 0.1203379
000040 dd 60 ae 3e af 71 22 be 80 ff f3 bc 6b 62 a4 be
       0.34058276 -0.1586368 -0.029784918 -0.32106337
000050 e5 44 15 be e0 76 78 be e1 d0 db 3b 6f 57 13 3c
       -0.14577062 -0.24264097 0.00670825 0.008993014
000060 76 c6 e0 bd 33 ad 7d be 35 28 f4 be 49 ea 2f be
       -0.109753534 -0.24773102 -0.47686926 -0.17179216
000070 d3 70 26 3b 1d ca d8 bd 40 d6 55 bb 6d 93 8c 3e
       0.0025396838 -0.10585425 -0.0032628924 0.27456227
000080 79 62 fc be d6 18 96 3e 7c c0 86 be c4 f6 a0 be
       -0.4929388 0.29315823 -0.2631873 -0.31438267
000090 f3 dc c9 bd 84 47 ba be b3 a1 65 3e 21 81 05 3e
       -0.09856596 -0.36382687 0.22424965 0.1303754
0000a0 ea cd 4c bd c5 53 c0 be bf 80 c5 bd f3 42 32 bd
       -0.050001062 -0.3756391 -0.09643697 -0.04352088
0000b0 5a 13 bf 3c 51 e9 ad 3d 73 3a ab bd fd 5e 5a 3d
       0.023324657 0.08491767 -0.08360758 0.053313244
0000c0 46 59 8d 3e bb 35 89 bd f9 6c 28 bd 0d 59 ee 3d
       0.27607173 -0.066997014 -0.04111955 0.11638079
0000d0 8c 10 15 bd ca 3e 8a bd 8e 22 1e 3d b7 03 0f 3d
       -0.036392733 -0.06750257 0.038607173 0.034915652
0000e0 16 e6 82 3d 8d c2 4d be 2c 6f 1b be 74 9c 4b bc
       0.06391542 -0.20093746 -0.15179127 -0.012427438
0000f0 bf 21 cd bd d7 34 87 3e 81 a3 e2 be 06 f8 b8 be
       -0.10016202 0.264075 -0.4426537 -0.36126727
000100 23 93 24 3d aa 10 e3 bc ac eb 5b be cd 7f 02 3e
       0.040179383 -0.027717907 -0.2147662 0.12744065
000110 f1 8e e1 3e 0b 05 3b bd c3 9c 09 bf 28 5a 6b 3e
       0.44054368 -0.045659106 -0.53754824 0.2298361
000120 d6 8d ce bd 22 92 97 3d 81 9d 80 bc e0 bb 87 bd
       -0.10085647 0.074009195 -0.015700104 -0.06627631
000130 ac 9d 7f 3d cb 17 1f be 6c a9 62 be 79 eb 84 3e
       0.062406227 -0.1553642 -0.22134942 0.259609
000140 53 83 ba bd 81 d1 4d 3e 66 17 9a 3d fc 14 3c 3e
       -0.09107079 0.2009945 0.07523994 0.1836738
000150 a2 1a 2b be db ea 30 bd 60 11 22 bd 37 21 b9 3d
       -0.16709378 -0.043192726 -0.03956735 0.09039538
000160 c2 4b e2 be 75 f8 10 3e ca a2 a9 be d4 8b c6 3d
       -0.44198424 0.14157279 -0.3313201 0.09694639
000170 62 2c d8 bd cd 9e d7 3d 84 8e 0c 3e d3 bd ae 3d
       -0.1055534 0.10528336 0.1372624 0.085323
000180 e8 d6 10 be 8c 90 95 3e 1b f9 68 3d cb fa 1e bc
       -0.1414448 0.29211843 0.05687819 -0.009703348
000190 bc 55 19 3e 9b 41 5d 3e 62 a9 f0 bd 82 13 0e bc
       0.14974111 0.21607058 -0.11751057 -0.008671643
0001a0 b6 a0 2d 3d 8d 4a 7d bc d5 3f d6 be 71 c8 2d bd
       0.042389594 -0.015459669 -0.41845575 -0.042427484
0001b0 2e 4e b3 3d 6f 52 bd bd f3 cb 49 3d b2 d5 b5 bd
       0.08755146 -0.092442386 0.049266767 -0.0887865
0001c0 59 92 fc bc eb 0f 3d 3e 15 2f de bd 08 89 18 3e
       -0.030831503 0.18463103 -0.10848824 0.14896023
0001d0 10 69 7a 3e 91 79 5c be 57 f0 82 bf 66 f9 ad 3d
       0.2445414 -0.21530749 -1.0229596 0.084948346
0001e0 4b 3b 13 3e 43 ac 78 3d a3 52 e8 3d 47 32 18 3d
       0.14378087 0.060711157 0.11343887 0.037157323
0001f0 f9 e8 d2 bd e8 75 0a 3d 74 4c 8d be fd b3 14 be
       -0.10298342 0.03380385 -0.27597392 -0.14521785
000200 0c e0 8c be 94 c2 31 be 3d 9a ec be 5e b5 3a 3d
       -0.27514684 -0.17359382 -0.46211424 0.04558312
000210 1b 11 3c 3e e0 44 a3 3d 5c 74 fa bd 9e 8b d8 3c
       0.183659 0.07972121 -0.12229225 0.026433762
000220 26 90 28 be f6 64 1d 3e ba f7 a1 3e 60 c4 09 3d
       -0.16461238 0.15370545 0.31634313 0.033634543
000230 ee 97 80 3e d2 85 62 3e 5d af 48 3e 5a 62 0e 3e
       0.25115913 0.22121361 0.19598146 0.13904706
000240 59 75 29 be db d5 40 bd b6 6a db 3d c5 48 a6 bd
       -0.16548671 -0.04707895 0.10713713 -0.081193484
000250 eb 37 4f be a3 bc 01 be ed 7d 0c 3e a9 fd 2a 3d
       -0.20236175 -0.12669615 0.13719912 0.041745815
000260 35 ef a4 be f1 c5 15 3d 3d a4 2d be 44 f5 92 3e
       -0.3221375 0.036565725 -0.16957183 0.28702748
000270 76 03 17 3e 6d e4 07 bf 08 47 d6 be 47 25 bd 3d
       0.14747414 -0.53082925 -0.41851068 0.09235626
000280 e6 4c 16 bf 8b e0 1d be 2b b7 b4 bd 85 32 09 be
       -0.5871109 -0.15417688 -0.08823999 -0.13398178
000290 b0 d2 c0 3d 2b b4 98 3e 61 92 54 3d 86 62 3f 3e
       0.094151855 0.29824957 0.05189741 0.18689927
0002a0 d9 57 19 bc a4 c7 91 bd 72 32 99 bd f4 0b f9 3a
       -0.009359323 -0.071181566 -0.07480325 0.0019000755
0002b0 7f 9e 15 3d 6e 51 f6 3c 89 a0 19 3e 37 41 a7 3c
       0.036528107 0.030068126 0.15002646 0.020416839
0002c0 69 16 e2 3d 71 05 67 be e5 06 bd be 65 f2 b3 bd
       0.11039431 -0.2256067 -0.36919323 -0.087864675
0002d0 d8 df 92 3d 20 07 87 3b da bb 50 3c 6b 94 98 bd
       0.07171601 0.0041207224 0.0127401 -0.074501835
0002e0 54 e5 01 3d 54 3b 42 3e 99 e1 3e 3e 92 e2 fb 3d
       0.031712845 0.18967944 0.18640746 0.12299074
0002f0 ff ad 1a 3e 20 b3 17 bf 88 f2 10 be 88 07 88 be
       0.15105437 -0.592577 -0.14155018 -0.26568246
000300 d2 78 b3 bd 31 1d eb bd 94 e5 d6 be 5d c2 e1 3d
       -0.08763279 -0.11480177 -0.4197203 0.110234
000310 9b 38 d1 3d a0 07 d1 bc 62 8e 77 3d 10 ec a0 3d
       0.10215875 -0.025516331 0.06043852 0.07857525
000320 a1 43 a5 bc 94 57 7c bd 4b 36 93 3e 6a 0e 6e be
       -0.02017385 -0.06160696 0.2875236 -0.23247686
000330 4b 5a 80 be fa 4a 9e bb 15 4d 84 3d d2 9e f5 be
       -0.25068888 -0.0048307152 0.06460015 -0.47972733
000340 7a 7d 60 3c 0d 6c 9b be 56 4a cb 3c 5e 8e 0e bd
       0.013701791 -0.30355874 0.02481572 -0.03480374
000350 ae d6 34 bd 7a d0 64 be 90 c5 1e be 6c cc b7 bd
       -0.044150047 -0.22345152 -0.15505052 -0.08974537
000360 46 01 97 bd b9 3f a8 3d 6d 22 26 3e 22 88 01 bd
       -0.0737329 0.08215279 0.1622407 -0.031623967
000370 73 26 58 bc a0 57 93 bc 29 30 a2 3e fe 7a 94 3e
       -0.013192761 -0.017986119 0.31677368 0.29000086
000380 6a 6c 9c bd 56 73 7c be 0d 0f 5a 3d e5 33 0c bd
       -0.07637866 -0.24653372 0.05323701 -0.034229178
000390 a0 96 ed 3d dd 78 4d bc 2a 93 1a 3e 89 d4 d4 bd
       0.11600995 -0.012541023 0.15095201 -0.103921
0003a0 5e 21 26 3e 99 68 0a bb f8 0a 86 3e 1e a7 8a 3d
       0.16223666 -0.0021119474 0.26180243 0.06770156
0003b0 89 c5 b1 bc 2c 17 d8 3d bc 82 cc be 5c b9 93 3e
       -0.021700637 0.10551295 -0.39943492 0.28852355
0003c0 90 e2 ec bd b7 7f 53 be e2 3f 9c be 79 be c8 be
       -0.11566651 -0.20654188 -0.3051749 -0.3920782
0003d0 27 87 03 bb d3 f7 95 3e 86 0e 1c 3e a3 e3 7a 3e
       -0.002006957 0.29290637 0.15239915 0.24500899
0003e0 9f 3d bf be 34 48 2a be 96 42 ab bd dc 2a 3a be
       -0.373517 -0.16629106 -0.0836231 -0.18180412
0003f0 ee 8c ef 3c 1f 1e 24 bd 47 10 e1 3e 04 1e 5d 3d
       0.029242005 -0.04006779 0.4395773 0.053983703

net.2.bias f4 [128]
000000 2a 23 9d bc b2 2b bb 3b ba 05 29 be 65 09 3c bc
       -0.019181807 0.005711996 -0.16506091 -0.011476849
000010 92 95 8a bd 04 c8 06 be 65 f9 21 bd 2f 36 69 be
       -0.067668095 -0.13162237 -0.03954448 -0.22774576
000020 92 e1 94 bd 81 3c 92 bd 70 c9 d0 bc 70 ff bf bd
       -0.072695866 -0.071404465 -0.025486678 -0.09374893
000030 56 5f 70 3d c7 0d 4e be c0 84 e5 bd e8 38 08 be
       0.05868467 -0.20122443 -0.11206961 -0.13302958
000040 69 e4 26 bb 65 0b cb bd 81 f4 9e bd 49 81 bf bc
       -0.0025465733 -0.09914283 -0.07761479 -0.023377078
000050 56 d0 3a be 8f 2b 97 bd 03 f1 fb 3b 25 0b 98 bd
       -0.18243536 -0.07381355 0.007688643 -0.07424001
000060 6b f2 64 bd 1f 6e 2d be dc 43 06 3e 46 33 67 3d
       -0.05589525 -0.16936539 0.13111824 0.056445383
000070 54 b3 04 be 2f 53 48 3d ef 2d e1 bd d1 5a 81 bd
       -0.12959033 0.048907455 -0.10995089 -0.0631615
000080 27 2a 23 bd 33 92 c5 3d c3 68 60 bd 4f 5c 77 3d
       -0.03983512 0.09647026 -0.05478741 0.060390767
000090 23 c9 fb 3c bc 3f 18 be 05 4c 3e bd ee de 92 bd
       0.030735558 -0.14868063 -0.046459217 -0.07171427
0000a0 ca 5c 75 bd a7 93 9a bd c0 f9 33 3b ad 43 1f be
       -0.059902944 -0.07547694 0.0027462095 -0.1555316
0000b0 06 2e f5 bd 8c 25 a1 3d b5 d4 f6 bd d2 3b 43 3c
       -0.11971669 0.078684896 -0.120522894 0.011916118
0000c0 82 a7 a0 bd 81 66 01 be a7 3e b8 bd 7d cf f2 3c
       -0.078444496 -0.12636758 -0.08996325 0.029639954
0000d0 00 0b 1a bd 62 0d 0b 3d e8 81 0f bd 90 b8 2e 3d
       -0.037608147 0.03394831 -0.035035998 0.04265648
0000e0 1b 66 e6 bd 64 89 09 be a1 b5 f0 bd c4 51 f7 3c
       -0.11249944 -0.13431317 -0.11753393 0.030190356
0000f0 e9 e2 42 bd c3 51 b9 bc 66 6b 5f bd 3a 64 ac bd
       -0.04757968 -0.022621995 -0.054545783 -0.08417554
000100 c7 a8 35 be ba 3a 85 bd cf 53 55 bd a1 a4 25 3d
       -0.17740165 -0.06505342 -0.05208188 0.040440205
000110 9e 48 1b bd d2 4e 23 be b0 24 8f 3d 66 17 a3 3c
       -0.03791105 -0.15948036 0.069894195 0.019908618
000120 bc cc e6 3c 72 93 5c bd 3d 0d 38 bd 05 8b 92 bd
       0.028173797 -0.053851552 -0.0449345 -0.07155422
000130 4b 61 cb 3d 17 bc ea bd f8 d7 1c bd d4 ab c8 bc
       0.099306665 -0.114616565 -0.0382919 -0.024495997
000140 9a 6c 2b 3d 40 1f 26 be e1 76 c0 3c 57 57 0d be
       0.041851617 -0.16222858 0.023494186 -0.13802849
000150 8d fa 10 bb df 38 8a 3d ff 89 2d bd fe b2 80 bd
       -0.0022121996 0.067491286 -0.04236793 -0.0628414
000160 9e 07 4d 3d f7 29 bb bd 82 1d 1e bc e7 d7 9b bd
       0.050056092 -0.091388635 -0.00965059 -0.076095395
000170 dc 34 1e bd f9 1e a0 bd 44 93 c0 bb 99 a0 b3 bd
       -0.03862463 -0.078184076 -0.0058769304 -0.08770866
000180 74 79 98 bd bb b3 73 bd c2 8e 12 3d 45 92 27 be
       -0.0744504 -0.059497576 0.035780676 -0.16364391
000190 1a a9 bc 3c ff 97 a4 bc 67 a5 10 3c 9e 02 ab 3c
       0.023029853 -0.020092009 0.0088284975 0.020875271
0001a0 38 0a bd bd 9c a2 25 bd ad be 66 bd 97 02 92 bd
       -0.09230465 -0.04043828 -0.056334186 -0.071294
0001b0 24 37 81 bc 23 68 11 3c ca 3a ef bd c0 0a d4 bd
       -0.015773363 0.008874926 -0.11681135 -0.10353613
0001c0 f6 0e 3d bc 10 66 18 bd 9c ac b6 bc b2 f7 43 bd
       -0.0115392115 -0.03720671 -0.022299103 -0.047843643
0001d0 48 12 61 bd ae fa 6c bb 0b a5 3f bd db 3b ef 3c
       -0.054949075 -0.003616016 -0.046788257 0.029203346
0001e0 fe d5 e3 3d 69 22 04 3e 0c 7c a7 bd 9c 88 b9 bd
       0.111248 0.12903751 -0.08177957 -0.09059259
0001f0 78 77 60 be 82 0d e3 bd 0e 48 f6 3c eb e0 8a 3d
       -0.21920574 -0.11086561 0.030063655 0.06781181

net.4.weight f4 [128, 128]
000000 d4 21 9f 3d 4c 7d 31 bd f5 2f af bd 40 71 81 3c
       0.07770124 -0.043332383 -0.08554069 0.015801072
000010 05 61 86 3d 8f f2 8b 3e 94 bc 46 be 0f b1 90 be
       0.06561474 0.27333495 -0.19407874 -0.28260085
000020 03 7f 71 3e 6e 95 cc 3d bc d6 b9 be ba 25 22 be
       0.23583607 0.09989439 -0.36296642 -0.15834704
000030 a7 d8 e7 3d 97 07 3f be 9b eb ac bd ee fa 8f 3e
       0.1132062 -0.18655239 -0.08443376 0.28121132
000040 ac 37 0d 3e a7 d3 71 be 6f e1 48 be 06 4d 07 3e
       0.13790768 -0.23615895 -0.19617246 0.13212976
000050 f9 e3 07 3e 4b 35 3b be 1d 23 3b 3d 80 fb a3 3d
       0.13270558 -0.18282048 0.045687784 0.08006954
000060 67 9b a1 3c 72 ae 21 3d 93 39 ea be 6f 74 e0 be
       0.019727422 0.039473005 -0.4574705 -0.43838832
000070 40 49 85 bd 90 a2 d0 3d ad 4d c2 be c9 f7 7a 3e
       -0.06508112 0.10187256 -0.37949887 0.24508585
000080 e5 02 9d bd e0 a3 20 be aa 6d 8a bc 88 c0 87 bd
       -0.07666568 -0.15687513 -0.016897995 -0.06628519
000090 c1 18 3b be 93 55 81 be 28 79 54 be 85 73 ab be
       -0.18271162 -0.252606 -0.20749342 -0.33486572
0000a0 43 1b b5 be 14 53 5e bd 89 b2 cd bd 06 03 82 be
       -0.35372362 -0.05427845 -0.100438185 -0.25392932
0000b0 34 17 ec bc 1e 29 b7 3d 1a 65 20 bc d4 d4 c2 bc
       -0.028819658 0.08943389 -0.0097897295 -0.023783125
0000c0 23 80 b4 3d 41 17 39 3e 98 94 02 3d 82 74 90 3d
       0.08813503 0.18075277 0.03187999 0.07053472
0000d0 5c 1b 8a 3d e9 ef 04 3d 0c 40 7e 3e 98 b2 b2 be
       0.067435 0.03245536 0.2482912 -0.3490188
0000e0 bf 53 9f be b3 8f 4e 3e c8 e9 95 3d 37 3f a7 3d
       -0.3111858 0.20172004 0.07319981 0.08166354
0000f0 f1 a2 2a 3e 5f 4f d4 3e 1f b0 da 3e e6 6d b7 bc
       0.1666372 0.41466805 0.42712495 -0.02239127
000100 84 d3 7c 3d 01 1b e6 3e 61 59 5e be f2 3b cb bb
       0.061725155 0.44942477 -0.21713783 -0.0062022144
000110 1d 6c f8 bd 0f 1d 59 3d dc 24 80 3d 75 95 5c be
       -0.12129996 0.053006228 0.0625703 -0.21541388
000120 9b ea 8f be fe 91 b8 3e 4c 52 47 3c 57 aa 2d 3e
       -0.28108677 0.36048883 0.012165617 0.1695951
000130 4f c9 06 be f8 3b ca bd 65 54 09 3d 15 09 ac 3d
       -0.1316273 -0.098747194 0.03352775 0.0840017
000140 81 4d 42 3e 61 cd b4 3d 66 0c 42 3d 82 d5 0b bd
       0.18974878 0.088282354 0.047375105 -0.034139164
000150 6e 47 8f be de dc d1 3e 3e b1 7f 3e d3 ff 62 3e
       -0.27984184 0.4098882 0.24969956 0.22167902
000160 92 34 2d 3e d1 d3 4e be c9 9e be be d6 60 2b be
       0.16914585 -0.20197989 -0.37230518 -0.16736159
000170 9e bf 38 3e e7 fc a4 bd 28 e6 0c 3f 4b ef 0b be
       0.18041846 -0.0805605 0.5503869 -0.13665502
000180 24 8d 14 3d 49 32 02 3d bd 52 5f 3e 8d 91 15 be
       0.036267415 0.031786237 0.21808906 -0.14606304
000190 5d d0 55 3e 1a 28 e5 3d 2a ad 26 be 85 0d 3f 3e
       0.20880266 0.111892894 -0.16276994 0.18657501
0001a0 03 8c 0e 3e cf 4e 4a 3e af 37 84 3e e0 02 ec bb
       0.13920598 0.19756626 0.25823733 -0.007202491
0001b0 04 31 40 3e 98 67 e1 bc c6 b6 ed 3c 7e c1 f5 3d
       0.18768698 -0.027515218 0.029017817 0.11999796
0001c0 c4 68 92 3a f4 97 16 be 6e e2 2f be 71 1b 5b 3d
       0.0011170139 -0.14706403 -0.1717622 0.053492967
0001d0 cc db 2b 3d 35 9a 0c 3e 73 f4 11 be 84 67 9b bd
       0.04195766 0.137307 -0.14253406 -0.075881034
0001e0 4a 8a fb bc f0 81 4d 3e 9a 67 13 3e 4f 06 e2 3d
       -0.03070559 0.20069098 0.1439499 0.110363595
0001f0 94 78 5d be 70 c3 b5 3c 61 99 34 be 52 ad 2f be
       -0.21628028 0.022187918 -0.17636634 -0.1715596
000200 9f f6 b3 bc d6 d0 52 be 46 72 8d 3e 00 db 47 3e
       -0.021968184 -0.20587477 0.27626246 0.19517136
000210 d0 5a 1b bd 80 86 b8 be 9e dc 92 be 27 81 3a be
       -0.037928402 -0.36040115 -0.28683943 -0.1821333
000220 32 02 28 be 87 9f 58 be 82 a8 32 3d e1 a9 9c 3e
       -0.16407087 -0.21154605 0.043617733 0.30598357
000230 e6 08 78 3d d5 16 25 3e 34 2a 34 3e f3 48 e6 be
       0.06055536 0.16121991 0.17594224 -0.4497753
000240 62 1e 85 bd bf 07 ec bc db c0 87 3b 77 7e 04 bf
       -0.06499936 -0.028812287 0.004142863 -0.5175547
000250 b1 c2 7c bd d6 f8 08 be 01 80 cf bd 23 b2 96 3d
       -0.06170911 -0.13376173 -0.10131837 0.07358196
000260 4a 24 b9 3d 21 31 6e bc a6 9f 14 bd 40 37 89 3c
       0.09040125 -0.01453808 -0.036285065 0.016749978
000270 7c 7c a5 3d aa d6 91 bd d0 60 61 be 0a a8 2d be
       0.08080384 -0.07121022 -0.22009587 -0.16958633
000280 1e 09 e7 3d f6 f5 f3 3d 8a f4 c6 bb 46 b0 ed bc
       0.11281036 0.11912148 -0.006071632 -0.029014718
000290 ef 13 3f bd 80 38 bd 3e 15 b2 8b 3e 27 b9 77 3e
       -0.04664987 0.3695717 0.27284303 0.24191724
0002a0 3e 98 a9 3a a0 27 40 3e ce 31 32 3d 68 26 00 be
       0.0012939048 0.18765116 0.04350453 -0.12514651
0002b0 a2 bb e0 3d b8 50 e0 3c c8 f2 ae bd f0 97 a2 bd
       0.10973288 0.02738224 -0.085424006 -0.07939136
0002c0 6e 5b e6 3d 36 dd c7 3d fc 90 10 3e e7 6e 31 3e
       0.112479076 0.097589895 0.14117807 0.17327462
0002d0 86 11 5d be 8a 1e c5 bd 41 7c 09 bf ef 27 d5 3e
       -0.21588716 -0.096249655 -0.5370522 0.4163203
0002e0 12 0a a8 3c d1 6f d3 bd ea 71 8d 3d 4e bd 83 be
       0.020512614 -0.10324062 0.06906493 -0.25730366
0002f0 25 b4 ae be 9c 50 ff bc ab 1e a3 be 00 24 4e be
       -0.34121814 -0.031166367 -0.31859335 -0.2013092
000300 62 1d cc bd b1 90 b6 be 9b 2e 91 3e fb 2e c9 3e
       -0.09966542 -0.35657266 0.2835587 0.39293656
000310 49 60 0b bd ef b4 8b be 33 09 77 be 28 aa a3 3c
       -0.03402737 -0.2728648 -0.24124603 0.019978598
000320 92 6e 8d 3e 07 77 02 bf 1e 8f 78 3e 8e e4 eb bc
       0.2762342 -0.5096287 0.24273345 -0.028795507
000330 82 07 4a 3d 0e d0 44 bd 9c 70 ae 3c 8d db 36 be
       0.049323566 -0.04804998 0.02129393 -0.1785719
000340 86 f3 ad 3e 17 ff 93 bc 48 0e fa 3d c8 a7 8c 3e
       0.33974856 -0.018065972 0.12209755 0.27471757
000350 71 68 e4 3d cf bb 14 bd 14 b3 eb bd 3d e3 60 3e
       0.11152733 -0.03631192 -0.11508766 0.21961685
000360 bc 18 c8 bc ad 53 d2 3e 09 19 07 3f 15 a7 8a be
       -0.024425857 0.41079465 0.52772576 -0.27080598
000370 4b 9e 9a be ac 11 26 be 96 16 c1 3b ef 94 41 bd
       -0.30198893 -0.16217679 0.005892585 -0.047261175
000380 ee af e1 be 21 85 ba be 9a 77 8b be 92 81 07 3f
       -0.44079536 -0.36429694 -0.27239686 0.52932084
000390 5d 07 01 be 13 bd 0e be 48 26 8a 3c 4c 96 76 3e
       -0.12600465 -0.13939314 0.016863957 0.24080771
0003a0 b7 64 e5 be 74 97 dc 3b 7d 1b b6 be 40 4a 48 3d
       -0.44803402 0.006731922 -0.35567847 0.048898935
0003b0 9c 92 c5 be 33 60 c1 bd 51 99 22 bd 34 43 04 3e
       -0.38588417 -0.09442177 -0.039696995 0.12916261
0003c0 c4 19 a1 3d b7 f2 82 bc 2f 4c 6e bd e0 9d b8 3d
       0.078662425 -0.015984876 -0.058178123 0.09014487
0003d0 b0 af 87 bd d8 8f e7 3d ff 62 93 be 20 7c 3e be
       -0.066253066 0.11306733 -0.28786466 -0.18602037
0003e0 68 24 4b 3e d2 e4 be 3b 4f d9 16 be 9d ee 2a 3e
       0.19838107 0.0058256174 -0.14731334 0.16692586
0003f0 ca fd 97 3d e7 f5 28 3d 0f c3 70 3e 75 5f 83 3e
       0.07421453 0.041250136 0.23511909 0.25658765

net.4.bias f4 [128]
000000 4d 8d 21 3e 9b dc 81 3c 2d fb 3a bd 59 d6 fd 3c
       0.15776558 0.015852263 -0.045649696 0.030985998
000010 0a d3 83 3d 12 7b 9b 3d 15 b8 7e 3d 2a 04 eb bd
       0.06436737 0.07591833 0.062187273 -0.114754036
000020 f4 b0 19 3d a8 ae 02 3b b2 8e 1f be 4b 1a cf 3c
       0.03752227 0.001994053 -0.15581778 0.025281092
000030 2f a5 19 be 3f f9 d0 3d 68 4c cb bd d8 e7 83 3d
       -0.15004419 0.1020379 -0.09926683 0.06440705
000040 8f a4 89 bd aa 53 a3 bd 74 c6 71 bc 53 1d be bc
       -0.0672084 -0.07974942 -0.014756788 -0.023207342
000050 b1 45 73 3d 9a 0d d4 3d a8 d0 0b be 0a be 62 3d
       0.059392635 0.10354157 -0.13653815 0.055357017
000060 c0 8a b1 3c 71 60 e0 bd 52 92 31 be 4c 78 f5 bd
       0.021672606 -0.10955895 -0.17340973 -0.119858354
000070 14 32 52 3d 1c 09 c2 bb b5 6e 77 3e cf e2 de 3d
       0.05131729 -0.005921496 0.24163325 0.10883104
000080 bc ff 62 bb 80 54 da 3c 3a 18 ae bd 13 82 d8 bd
       -0.0034637293 0.02665162 -0.085007146 -0.10571685
000090 00 08 e8 bd d2 95 28 bd 82 fc 53 be 50 9b 52 3d
       -0.11329651 -0.041158505 -0.20701793 0.05141765
0000a0 c3 a6 d7 3d 65 43 21 bd 98 f3 16 3e 62 c4 87 bc
       0.10529854 -0.039370913 0.14741361 -0.016573135
0000b0 16 a8 04 3c 06 cf 73 3d 9a 03 71 3c 9f 24 da bd
       0.008096715 0.059523605 0.014710331 -0.10651516
0000c0 11 a6 5b bd f2 eb 85 bd a4 65 d8 bb 6e e6 b7 3d
       -0.05362517 -0.065391436 -0.0066039134 0.08979498
0000d0 cd ea 07 3e c3 3b 31 3e e8 19 ff bd ac d5 98 bc
       0.13273163 0.17307954 -0.12456113 -0.018656574
0000e0 83 6f dc bc e3 a2 a0 bd 4d 20 57 bd fb 85 86 bb
       -0.026908642 -0.07843568 -0.05252104 -0.004105327
0000f0 66 5e cd 3d 52 e4 1e 3d cc 5a ea bc 2c 6d 73 be
       0.10027771 0.038791962 -0.028607748 -0.23772115
000100 9c 02 bc 3d 80 4d 22 bc 9c 70 d7 3d cf 97 43 be
       0.09180185 -0.009906173 0.105195254 -0.19100879
000110 52 d7 fe bc 62 96 27 bc 06 82 b6 bd f4 de d4 bc
       -0.031108532 -0.010228725 -0.08911519 -0.025985219
000120 ac 44 bf 3c 30 bd 29 3d 24 80 13 be 0c 3f de 3d
       0.023348175 0.04144019 -0.1440435 0.10851869
000130 e4 75 14 3e a4 fd f1 bd 72 83 9b bd 48 71 0c be
       0.14498097 -0.11815956 -0.075934306 -0.13715088
000140 6b 4c 8a bd 5d e3 c0 bd 47 31 d7 bb c8 80 c8 3d
       -0.06752857 -0.09418366 -0.0065671536 0.09790188
000150 b7 d3 01 bd 64 4b 52 bd 8d a3 10 bd 88 b1 be 3d
       -0.031696048 -0.05134143 -0.035312224 0.09311205
000160 31 5e e7 bd f8 e1 5e be e7 f3 5f be b0 68 3b bd
       -0.112972625 -0.21765888 -0.21870385 -0.045754135
000170 2b fa 80 bd 60 a4 d0 bd 94 16 0b bd 51 6d b7 3d
       -0.06297716 -0.10187602 -0.03395708 0.08956397
000180 7e 53 9e bd 95 96 85 bd bc 8f e5 3d 56 70 e9 bd
       -0.077307686 -0.06522862 0.11209056 -0.113983795
000190 68 d4 64 3c 5e 29 37 bd 64 bf a0 bd f2 6c 08 3a
       0.013966657 -0.044717185 -0.07849005 0.00052042224
0001a0 b9 c3 00 3d 9e 7f 1a 3c ef 7c 44 bd e9 c7 ad bd
       0.031436656 0.00942984 -0.04797071 -0.084853955
0001b0 1f 53 c8 bd 98 17 67 3d 89 fc de bd 90 58 d7 bc
       -0.09781479 0.056418985 -0.10888011 -0.026287347
0001c0 6c 0b 1d be c0 19 e0 3c d0 f8 bd 3d b4 16 f9 3d
       -0.15336388 0.027356029 0.09275973 0.121625334
0001d0 7f 9d 4e 3c 51 ae c8 3c 0d ce be 3d a5 ad 02 3d
       0.012610792 0.024497183 0.09316645 0.03190388
0001e0 24 9c c4 bd 11 80 e3 bc 54 25 48 be 6b fb 58 3b
       -0.09600094 -0.027771028 -0.1954549 0.003310884
0001f0 62 f4 ee bd 32 4d e1 bd c3 f7 68 3c c1 2b ad bc
       -0.11667706 -0.11001052 0.014219227 -0.021139028

net.6.weight f4 [7, 128]
000000 09 e0 db 3d 00 32 8d 3d d7 08 11 3e 1c 8d 6e be
       0.10736091 0.06894302 0.14163528 -0.23296016
000010 ed 6d 97 3e c9 68 15 bf 06 05 71 3e ab 72 64 3c
       0.29576054 -0.58363014 0.23537073 0.013943355
000020 e9 f6 93 bd e1 54 74 3d 78 f9 9f 3d 3c 20 a8 3e
       -0.07224829 0.05965126 0.07811254 0.32837093
000030 79 4a 89 3e e7 f6 28 be e0 38 10 bf 65 c2 75 3e
       0.2681463 -0.16500436 -0.56336784 0.23999937
000040 56 bf 2c 3e 73 01 14 3f 62 0d 03 be 05 47 20 be
       0.16869864 0.5781471 -0.12798074 -0.15652092
000050 4a 24 66 3e 09 f2 68 3e 6a a3 0c bf 81 4e 92 bd
       0.2247478 0.22748579 -0.5493685 -0.0714388
000060 d1 b3 c3 bc 88 86 51 3d 7b a6 1f 3e cc b6 d9 bc
       -0.023889454 0.05115369 0.15590851 -0.026576422
000070 e8 71 77 3e d5 bb d3 3d 1e 73 98 bd ea bf c8 3d
       0.24164546 0.103385605 -0.07443832 0.0980223
000080 62 e0 85 3e 85 52 cb bd 46 96 5b 3e 7c fe 8f be
       0.26147753 -0.09927849 0.21444044 -0.28123844
000090 74 33 e9 ba d6 60 83 3d d3 ad 11 be 3f 55 a4 bd
       -0.0017791823 0.06414954 -0.14226465 -0.08024072
0000a0 4d 52 a0 3d c7 85 a4 3e 57 3a 89 3d 12 54 03 bd
       0.07828198 0.32133314 0.067005806 -0.032062598
0000b0 2a 0f fd bd 80 70 f6 be 76 45 ca 3e cd 98 35 3e
       -0.12356408 -0.48132706 0.3950612 0.1773407
0000c0 97 05 80 be 7d 93 66 bf a8 d8 6d 3e 48 69 5c bf
       -0.25004265 -0.900688 0.23227179 -0.86098146
0000d0 31 34 ea be 90 64 50 be b7 03 1e be 7a 84 b8 be
       -0.45742944 -0.20350862 -0.15431105 -0.36038572
0000e0 e0 94 8b 3e 32 c5 a1 bf 4b 2f 5f be 91 40 57 be
       0.2726202 -1.2638304 -0.21795385 -0.21020724
0000f0 12 80 23 bf 71 ba 7d 3c e8 8f be 3e 1e 27 90 bf
       -0.63867295 0.015486346 0.37219167 -1.1261938
000100 31 3a 76 3f ff e5 3f 3e 6a 6f d1 bd 29 e3 92 bf
       0.96182543 0.1874008 -0.10226329 -1.1475574
000110 f8 08 62 bd 82 84 8d bb 97 95 ef be b9 18 9f bd
       -0.055184335 -0.0043187747 -0.46793815 -0.07768387
000120 fc b5 1f be 26 52 6d 3d 6e 03 dd 3d d2 38 e6 be
       -0.15596765 0.05793967 0.1079167 -0.44965225
000130 bc 47 c9 3e c8 93 11 3f 99 1d 19 bf 20 a2 03 3e
       0.3931254 0.5686612 -0.5981079 0.12854815
000140 9e 6e 88 bf 62 bd c8 3d fb f4 56 be 78 1d 96 3e
       -1.0658758 0.09801747 -0.2099189 0.29319358
000150 14 24 dd be 28 df 3e be 4a 05 4f 3d f5 98 87 3d
       -0.43191588 -0.18639815 0.050542153 0.06620971
000160 52 eb 98 3d c4 3e a0 bd aa be ad 3e ff 1d 2e be
       0.07466759 -0.078244716 0.33934528 -0.1700363
000170 b4 9d 9a 3e 69 ef cb 3e 5e 1f 52 3d 11 0a 97 3e
       0.30198443 0.39831093 0.051299445 0.29499868
000180 77 14 5c bc 45 6e 56 3f ac 98 1a bd d6 6a 2e ba
       -0.013432614 0.8376201 -0.037743255 -0.0006653493
000190 f8 c9 0f 3f ed 68 50 bd a5 ca e5 be 99 73 05 bf
       0.56167555 -0.050881315 -0.44881168 -0.52129513
0001a0 3a 02 fc 3d 17 92 48 3e 2c e6 80 be 04 de 3b 3f
       0.12305112 0.19586979 -0.25175607 0.73385644
0001b0 ab 53 93 3d b1 32 82 3d c0 61 e0 be 75 b1 66 3e
       0.07193693 0.06357325 -0.43824577 0.22528632
0001c0 2d 22 77 bf cd 04 97 3d 7b 9f 1a 3e a1 31 4f 3e
       -0.96536523 0.073739626 0.150999 0.20233776
0001d0 bc a9 02 be 3b 69 8d be 98 90 d7 3d 3b 5e 31 3e
       -0.12760061 -0.27619347 0.10525626 0.17321102
0001e0 f7 50 a2 3d 85 2b 06 3e f5 b5 77 3e f5 da 80 3e
       0.07925599 0.13102539 0.24190505 0.2516705
0001f0 a2 a7 c2 be ad 3e 5e be e7 12 6e 3e 60 c8 a8 be
       -0.3801852 -0.21703596 0.23249398 -0.32965374
000200 06 84 af bd c9 3d 54 3e a3 15 69 3d d5 82 85 3e
       -0.08570103 0.20726694 0.0569054 0.2607638
000210 78 c1 29 be e7 e1 9d 3d cc 63 06 3f 39 9d 91 3d
       -0.16577709 0.07709103 0.5249603 0.07110066
000220 91 da 69 3e 7e 27 07 be a8 f7 94 bd 6c 9e 8e be
       0.22837283 -0.13198659 -0.07273799 -0.2785524
000230 0f c1 e4 be 1d d1 bf 3e 4e 62 f8 3d c7 a0 e3 3d
       -0.44678542 0.37464228 0.12128125 0.1111465
000240 b4 ca 29 3e 7f a5 ef bd 87 5d e5 bd 77 20 5a 3e
       0.16581231 -0.11701488 -0.111994796 0.21301447
000250 20 bf 4c bf 24 d6 2e bd 42 1d 89 be be 9a 6a 3d
       -0.79979134 -0.04268469 -0.26780134 0.05727648
000260 22 92 1d bf 87 ab ab 3e ac 8a 93 3e 68 6b 05 3e
       -0.61551106 0.33529302 0.28816736 0.13029253
000270 f6 cf 70 3e 9a 20 2b 3e 35 fd 3f be 64 54 73 3e
       0.23516831 0.16711655 -0.18748935 0.23762661
000280 35 0f ab 3d 18 cd 0a be b4 b6 ed be 11 c9 35 be
       0.0835251 -0.135548 -0.46428454 -0.17752482
000290 d2 72 03 bf a3 64 3c 3d 8b 1e 08 3e d1 eb 42 bd
       -0.51347077 0.045994412 0.13292901 -0.047588173
0002a0 8f da 94 3d 8e 82 cf 3c 28 4d 44 bf 9c bd 5c 3e
       0.07268249 0.025330808 -0.7668023 0.21556705
0002b0 31 62 b5 3e 9d 77 9f bd 05 e1 1e bf 46 1b af be
       0.35426477 -0.07786486 -0.620621 -0.34200495
0002c0 91 21 ab be 4c 61 95 3d 70 77 23 3e 04 15 b2 3e
       -0.33424047 0.072939485 0.1596353 0.3478166
0002d0 19 6d f8 3e e6 d9 1f 3f 61 f5 ba bd 14 13 68 3d
       0.48520735 0.6244186 -0.091288336 0.05665882
0002e0 5a ee 3c 3e 09 9e c2 3e 1f 68 d7 3c 7b 69 a9 be
       0.18450299 0.38011196 0.026294766 -0.33088288
0002f0 91 ff 6a 3c 27 5c 0a be db 58 fb be 6e 0f 85 3e
       0.014343158 -0.13511716 -0.4909123 0.25988334
000300 a0 b1 7b be 5a f6 56 3d 77 63 f8 be 50 cf 25 bd
       -0.24579477 0.052481033 -0.48513386 -0.04048091
000310 ae aa 1b 3f 26 40 f2 3d ba 21 28 3e fe 12 b5 be
       0.6080731 0.118286416 0.16419116 -0.35366052
000320 44 11 2b be b7 e6 f2 bd 42 86 ed bc 94 d6 78 3e
       -0.16705805 -0.118604116 -0.028994683 0.24300605
000330 05 62 55 bf 00 42 f8 bf 97 ea 79 3e b5 e0 4e 3e
       -0.8335269 -1.9395142 0.24405895 0.20202906
000340 5c c1 93 be d8 bb a4 bc df c8 e4 be b6 ce 08 bf
       -0.2885846 -0.020109102 -0.44684502 -0.53440416
000350 cb 93 84 3e 8d 9a 2f 3e 82 6c b6 3b 6d 94 b5 bc
       0.25894007 0.171488 0.0055671344 -0.022165501
000360 2f 04 e9 bb 53 8b be be e1 2d 30 bd eb 90 0b 3f
       -0.0071110944 -0.3721567 -0.043012504 0.54518
000370 b8 55 c0 be d2 9b b6 be 4d 97 5f 3e 86 82 37 3e
       -0.37565398 -0.35665756 0.2183506 0.17920884
000380 35 d6 3e bf a6 d7 08 3d 5d f1 3a bf cf f3 0d bd
       -0.74545604 0.033408783 -0.7302454 -0.034656342
000390 ba b8 5f be 51 3d 07 3e ed 0c 02 3e 3b 80 59 be
       -0.21847811 0.13206984 0.12700243 -0.21240322
0003a0 29 8f 18 3e 33 db d9 3e 03 83 ba 3e 50 b2 eb be
       0.14898361 0.42550048 0.3642808 -0.4603448
0003b0 62 15 73 3e 98 64 c1 3b e7 19 1e 3f 64 d6 06 bf
       0.23738626 0.0059018843 0.61758274 -0.52670884
0003c0 b0 0d 7e 3d 53 0d 5f 3e 37 b0 dc bd ac a2 af be
       0.062024772 0.21782427 -0.10775798 -0.34303796
0003d0 99 5d af 3b 20 94 96 be 76 21 73 3c 8c 13 f7 3e
       0.005351734 -0.29409885 0.014839521 0.482571
0003e0 29 26 06 bf 4b 5a 01 3e 58 b8 3e bd 38 34 c9 3e
       -0.5240198 0.126321 -0.046562523 0.39297652
0003f0 a9 a8 b8 3e e5 0f 8a 3e a6 8a 9e 3d 65 1f 3b bd
       0.36066177 0.26965252 0.07741289 -0.045684237

net.6.bias f4 [7]
000000 ea 50 16 3e 90 23 bb bd 5d b5 98 bd 0e e7 6d bc
       0.14679304 -0.091376424 -0.07456467 -0.01452042
000010 a1 1f ec 3d 38 10 2c 3d 0c 6c 08 bc
       0.1152947 0.042007655 -0.008326542
